output/carlos_experiments/231018_nomhc_nopfr/CSL_nomhc_nopfr_nostd_burn_60nh_all_KFold_2_231018_1415_None/checkpoint_best_kcv_train_all5_correct_f02_CSL_nomhc_nopfr_nostd_burn_60nh_all_KFold_2_231018_1415_None.pt (torch, 47435 bytes, 7 tensors)

in_layer.weight f4 [60, 180]
00000000: 0f19 0100 b6b2 0200 047b 0280 adbb 0080
00000010: b30c 0180 28a7 0100 0eaa 0080 a530 0480
00000020: d293 0000 80cf 0080 4e1a 0080 c05f 0280
00000030: 711a 0180 240d 0180 343c 0580 4094 0480
00000040: 10b9 0680 dcdb 0080 1bcc 0080 1073 0180
00000050: 8d20 0080 4a22 0080 91ef 0180 0e16 0280
00000060: c63f 0080 1961 0100 021e 0080 7de3 0480
00000070: ae4a 0180 6a40 0000 ea94 0000 5330 0000
00000080: 8903 0080 6345 0080 4026 0780 0483 0000
00000090: 64ce 0000 b54a 0100 7a09 0000 ce03 0180
000000a0: 6466 0000 106b 0000 81e9 0180 622d 0680
000000b0: 1c91 0080 3959 0080 8762 0080 407b 0080
000000c0: d424 0080 df2f 0180 6902 0180 27ae 0000
000000d0: 99d1 0080 18b6 0080 ae4b 0080 515c 0000
000000e0: e586 0080 571b 0180 9ebf 0080 32f4 0080
000000f0: b2c3 0080 4d44 0080 6a35 0000 786d 0080
00000100: 6b34 0080 92c8 0080 1d93 0080 cd4c 0780
00000110: 477f 0080 117d 0180 588c 0180 4e27 0180
00000120: 35ca 0080 308a 0180 b61e 0180 bc09 0080
00000130: 70a9 0080 d3f0 0100 fcf3 0080 0e57 0180
00000140: 3e2c 0180 5209 0180 0a0a 0180 9e5d 0080
00000150: 7421 0180 4001 0180 7e31 0180 bc81 0180
00000160: b509 0000 b8a5 0180 eb43 0180 e671 0180
00000170: 2a48 0280 3cb4 0180 4e24 0080 2de1 0080
00000180: 44dd 0080 2f0f 0300 88e3 0180 a60a 0380
00000190: e340 0180 dd1e 0180 9d64 0180 9f8a 0180
000001a0: b946 0180 982a 0180 ea49 0280 561b 0280
000001b0: f0bf 0180 707e 0280 f43b 0380 3fe6 0080
000001c0: 2646 0280 efbe 0280 dd66 0180 4467 0080
000001d0: 21d5 0080 4295 0000 30af 0180 d765 0380
000001e0: 8ef8 0080 ebbe 0180 14f6 0080 97f8 0280
000001f0: 7fa7 0180 b08c 0180 5ddc 0300 8191 0200
00000200: dacb 0280 9772 0180 d8e3 0180 a23a 0200
00000210: 1815 0280 7cb8 0180 ab25 0080 2806 0180
00000220: 763c 0180 fdc8 0180 edcf 0280 49b3 0180
00000230: e1db 0180 22d5 0080 bba5 0180 1df7 0080
00000240: 2a2f 0100 754d 0180 9c08 0180 e595 0100
00000250: dcbd 0180 fcb4 0380 1785 0180 3a78 0180
00000260: dcef 0180 4bde 0000 b367 0180 5b2a 0280
00000270: bb6d 0300 4409 0100 441e 0100 1763 0280
00000280: 3531 0280 f7cb 0100 ec6a 0200 1fc8 0000
00000290: c72c 0200 37b9 0100 68fb 0000 8982 0100
000002a0: fa77 0300 37bd 0280 a326 0280 57fc 0000
000002b0: 81b2 0280 1285 0280 6214 0400 c111 0200
000002c0: 1e07 0300 6d14 0200 2426 0200 ad92 0780
000002d0: 146b 0000 32d5 0180 7560 0480 d44f 0580
000002e0: 073b 0080 833f 0100 e220 0280 4b0a 0680
000002f0: 8836 0700 3205 0780 fce4 0280 9d15 0280
00000300: fa82 0680 ed75 0000 06cc 0680 4105 0380
00000310: 323f 0300 2811 0780 fd37 0080 599c 0380
00000320: 39dd 0600 790c 0180 e577 0300 7b99 0700
00000330: c6a4 0300 9274 0080 6896 0200 d38a 0600
00000340: 9c7b 0100 77c7 0100 395c 0000 7d4a 0280
00000350: 412a 0200 5e0c 0080 610a 0500 7994 0300
00000360: 8669 0200 9a7d 0080 a2fc 0280 f021 0300
00000370: ffd3 0680 d2fe 0500 ad91 0300 1425 0500
00000380: e17e 0400 5688 0100 ac30 0200 71c3 0200
00000390: ef0a 0600 b068 0780 a3bb 0680 7776 0300
000003a0: 368e 0380 880f 0080 30d9 0200 952d 0000
000003b0: 9a80 0100 d4b5 0300 2c21 0100 1817 0780
000003c0: 13fa 0080 2cbc 0200 a6bf 0380 3f4f 0080
000003d0: 2ac2 0000 edda 0000 e586 0000 070c 0280
000003e0: e359 0200 ede5 0380 842c 0000 7d18 0100
000003f0: b808 0280 284b 0200 cfee 0080 5dd6 0480
1.00825e-40 2.4778e-40 -2.278e-40 -6.7325e-41 -9.6391e-41 1.518e-40 -6.1004e-41 -3.84792e-40
5.3028e-41 -7.4437e-41 -9.436e-42 -2.1802e-40 -1.01321e-40 -9.655e-41 -4.80774e-40 -4.20524e-40
-6.17401e-40 -7.887e-41 -7.3219e-41 -1.33112e-40 -1.1677e-41 -1.23e-41 -1.77776e-40 -1.91583e-40
-2.2878e-41 1.26668e-40 -1.0765e-41 -4.4895e-40 -1.18626e-40 2.3107e-41 5.342e-41 1.7335e-41
-1.268e-42 -2.4891e-41 -6.5657e-40 4.7e-41 7.4039e-41 1.18635e-40 3.4e-42 -9.32e-41
3.6731e-41 3.8407e-41 -1.75601e-40 -5.67293e-40 -5.2055e-41 -3.2007e-41 -3.5345e-41 -4.4214e-41
-1.3211e-41 -1.09008e-40 -9.27e-41 6.2474e-41 -7.519e-41 -6.5323e-41 -2.7149e-41 3.3117e-41
-4.8391e-41 -1.01643e-40 -6.8739e-41 -8.7601e-41 -7.0202e-41 -2.4502e-41 1.9161e-41 -3.927e-41
-1.8804e-41 -7.1951e-41 -5.2774e-41 -6.704e-40 -4.5659e-41 -1.36701e-40 -1.42181e-40 -1.05935e-40
-7.2538e-41 -1.41408e-40 -1.02853e-40 -3.492e-42 -6.0783e-41 1.78227e-40 -8.7525e-41 -1.23065e-40
-1.07707e-40 -9.5179e-41 -9.5437e-41 -3.3584e-41 -1.03836e-40 -9.2284e-41 -1.0959e-40 -1.38375e-40
3.482e-42 -1.51284e-40 -1.162e-40 -1.32695e-40 -2.09559e-40 -1.56491e-40 -1.3024e-41 -8.0778e-41
-7.9375e-41 2.80953e-40 -1.73458e-40 -2.79326e-40 -1.15112e-40 -1.02907e-40 -1.27929e-40 -1.41563e-40
-1.17206e-40 -1.07115e-40 -2.10186e-40 -1.93477e-40 -1.6069e-40 -2.29028e-40 -2.97014e-40 -8.2597e-41
-2.08836e-40 -2.52165e-40 -1.28736e-40 -3.7045e-41 -7.6456e-41 5.3544e-41 -1.54681e-40 -3.1204e-40
-8.9165e-41 -1.60324e-40 -8.8276e-41 -2.72848e-40 -1.51922e-40 -1.42305e-40 3.54558e-40 2.35868e-40
-2.56799e-40 -1.32943e-40 -1.7357e-40 2.04704e-40 -1.91238e-40 -1.58016e-40 -1.3513e-41 -9.4044e-41
-1.13525e-40 -1.63937e-40 -2.58261e-40 -1.56151e-40 -1.70713e-40 -7.6458e-41 -1.51288e-40 -8.8648e-41
1.08755e-40 -1.19622e-40 -9.4924e-41 1.45608e-40 -1.59944e-40 -3.40431e-40 -1.39579e-40 -1.34965e-40
-1.77881e-40 7.9744e-41 -1.29036e-40 -1.98865e-40 3.1487e-40 9.516e-41 1.02693e-40 -2.19218e-40
-2.01323e-40 1.65004e-40 2.22027e-40 7.179e-41 1.99734e-40 1.58278e-40 9.0188e-41 1.38663e-40
3.18546e-40 -2.51548e-40 -1.97531e-40 9.0522e-41 -2.47706e-40 -2.31408e-40 3.74654e-40 1.9004e-40
2.7806e-40 1.90998e-40 1.97353e-40 -6.95466e-40 3.8412e-41 -1.68316e-40 -4.01944e-40 -4.87814e-40
-2.1175e-41 1.14619e-40 -1.95467e-40 -5.54705e-40 6.6241e-40 -6.44712e-40 -2.65815e-40 -1.91424e-40
-5.97999e-40 4.2304e-41 -6.24203e-40 -2.77391e-40 2.98177e-40 -6.49003e-40 -2.0085e-41 -3.31593e-40
6.30373e-40 -9.631e-41 3.18517e-40 6.97907e-40 3.34616e-40 -4.1818e-41 2.37627e-40 6.00814e-40
1.36178e-40 1.6339e-40 3.3083e-41 -2.10392e-40 1.98829e-40 -4.437e-42 4.62901e-40 3.28768e-40
2.21526e-40 -4.5057e-41 -2.74299e-40 2.87681e-40 -6.27063e-40 5.5059e-40 3.27765e-40 4.72479e-40
4.12858e-40 1.40744e-40 2.01131e-40 2.53782e-40 5.54935e-40 -6.80403e-40 -6.18324e-40 3.18004e-40
-3.26522e-40 -5.572e-42 2.61583e-40 1.6352e-41 1.37969e-40 3.40734e-40 1.03735e-40 -6.51133e-40
-8.971e-41 2.51174e-40 -3.44257e-40 -2.8428e-41 6.9653e-41 7.8536e-41 4.8391e-41 -1.87986e-40
2.15916e-40 -3.57988e-40 1.5969e-41 1.0062e-40 -1.86799e-40 2.10632e-40 -8.5668e-41 -4.44241e-40

in_layer.bias f4 [60]
00000000: 93bc 01b7 d5f9 19b6 b4a7 7127 6486 1436
00000010: dcb8 7fb7 e67a b8ad e4b8 c630 70dd fdb3
00000020: 9e42 8d2f 7068 3ca4 28df 4da7 13f9 19b1
00000030: 4c4a 06a9 5ce7 36b6 78cb 78a8 85fc 6234
00000040: 1e4f d8b5 23a6 0380 74cf d0b4 c85c 822e
00000050: 6ead 6da8 590f 87ad a092 47b5 24e9 c72a
00000060: 605f 5228 080b 9634 29e7 13ac a084 e3b4
00000070: 8c30 8631 f768 3f2a e2b2 fa27 4e61 d829
00000080: 6356 bd30 65a2 8928 9315 c3ad 42a8 dab2
00000090: 5c7e 1eb7 aed5 d5a7 8b81 4735 be4e 4831
000000a0: 9684 0380 ab94 c1ab 588b 6327 000c d52b
000000b0: f6d5 07a9 ec83 e5a8 dcd2 022f 4573 d8a7
000000c0: 3083 022f 74b9 0533 973f faab f094 4cb3
000000d0: cb6c 7c27 95be aba5 0622 832f 7582 4335
000000e0: 5952 d634 a501 c82b 9a69 792f 95b4 8a28
-7.732905e-06 -2.2944198e-06 3.353638e-15 2.2131944e-06 -1.5242225e-05 -2.0972956e-11 1.4458945e-09 -1.182151e-07
2.5695085e-10 -4.0854464e-17 -2.8570438e-15 -2.2406013e-09 -2.981842e-14 -2.7254782e-06 -1.3810886e-14 2.1139756e-07
-1.611628e-06 -3.35105e-40 -3.889396e-07 5.928197e-11 -1.3193749e-14 -1.5354539e-11 -7.4346644e-07 3.5511275e-13
1.1678023e-14 2.7947704e-07 -2.1018276e-12 -4.2378542e-07 3.9054324e-09 1.7000625e-13 6.9582884e-15 9.6092066e-14
1.3776112e-09 1.5280483e-14 -2.2178514e-11 -2.5455055e-08 -9.446954e-06 -5.935105e-15 7.4321787e-07 2.914859e-09
-3.2307e-40 -1.3754738e-12 3.1578117e-15 1.5137891e-12 -3.0161603e-14 -2.548132e-14 1.1898343e-10 -6.007702e-15
1.1870038e-10 3.1135144e-08 -1.7781218e-12 -4.763291e-08 3.5031002e-15 -2.9792915e-16 2.3852936e-10 7.2833e-07
3.9920522e-07 1.4211311e-12 2.2683935e-10 1.5399393e-14

out_layer.weight f4 [1, 60]
00000000: 9808 0600 812a 0580 d74c 0280 a02e 0400
00000010: e0a5 0180 2447 0280 7513 0480 c493 0280
00000020: a1cb 0400 b802 0080 8c15 0100 be5d 0300
00000030: 5017 0480 2efd 723e 254b 0280 537b 0700
00000040: 69db 753e 26e8 0080 761a 8dbe 7987 0400
00000050: 7f6c 0380 68cc 0300 0a34 0500 f4af 0380
00000060: 86ab 0480 da8c 0280 e704 0700 e84f 0180
00000070: 1ae6 0080 7e47 0500 d94f 0300 b32c 0380
00000080: d70f 0380 7c4a 0480 aba1 0580 95dc 0080
00000090: 9456 0000 cb11 0580 a34a 0380 be57 fdab
000000a0: 1732 0380 d17c 0480 3b4d 0280 a66f 0400
000000b0: b2d2 0580 e0cc 0480 2d09 0080 b34f 0780
000000c0: 0aa5 0200 8049 0480 0e58 0200 e0c8 0080
000000d0: 7b04 0200 eb2c 0180 d916 0180 cad7 17bf
000000e0: ea9c 0480 cf47 0680 4cb8 0080 399e 0380
5.54096e-40 -4.74425e-40 -2.11236e-40 3.84068e-40 -1.5134e-40 -2.09191e-40 -3.74322e-40 -2.3668e-40
4.4039e-40 -9.75e-43 9.9565e-41 3.09135e-40 -3.75705e-40 0.23729393 -2.10628e-40 6.87089e-40
0.2400948 -8.3279e-41 -0.2755925 4.1594e-40 -3.14428e-40 3.48834e-40 4.77846e-40 -3.38627e-40
-4.28873e-40 -2.34199e-40 6.44607e-40 -1.205e-40 -8.2545e-41 4.84824e-40 3.0415e-40 -2.91542e-40
-2.81189e-40 -3.94062e-40 -5.17173e-40 -7.913e-41 3.1058e-41 -4.6556e-40 -3.02281e-40 -1.8001085e-12
-2.93475e-40 -4.12118e-40 -2.11376e-40 4.07394e-40 -5.34761e-40 -4.40837e-40 -3.292e-42 -6.71439e-40
2.42876e-40 -3.93709e-40 2.15259e-40 -7.206e-41 1.85278e-40 -1.07949e-40 -1.00032e-40 -0.5931364
-4.23632e-40 -5.76773e-40 -6.6113e-41 -3.32266e-40

bn1.weight f4 [60]
00000000: 7c00 0280 f818 0000 1979 0200 3c3d 0680
00000010: 4427 0480 0f11 0480 607d 0400 a78e 0400
00000020: ae58 0000 b8d2 0180 9351 0280 5eb3 0480
00000030: bdad 0000 cecf 6f3e 84b4 0680 fd37 0080
00000040: 00b5 733e 0a34 0080 1d3d 853e 073f 0180
00000050: 123b 0380 7d28 0600 68e7 0280 d519 0100
00000060: 37b1 0280 e5e1 0280 cb3c 0780 99b7 0580
00000070: 4777 0700 e103 0080 21fa 0380 5cfd 0480
00000080: 5729 0380 c2a0 0180 7516 0100 d7ff 0480
00000090: fb3a 0600 50a5 0180 5530 0280 f4b4 e6aa
000000a0: 945c 0080 f45d 0280 bdc4 0180 8d6b 0280
000000b0: 548e 0180 be0f 0380 97f7 0280 0548 0180
000000c0: 2368 0480 20c9 0000 c8e7 0600 be2c 0080
000000d0: c042 0280 ea51 0300 d233 0280 3030 0d3f
000000e0: 4b26 0180 cf57 0380 07cb 0200 8a75 0080
-1.83845e-40 8.957e-42 2.27113e-40 -5.7298e-40 -3.81428e-40 -3.73461e-40 4.12318e-40 4.18516e-40
3.1812e-41 -1.67427e-40 -2.12934e-40 -4.31687e-40 6.2326e-41 0.23419115 -6.1577e-40 -2.0085e-41
0.23799515 -1.8668e-41 0.26023188 -1.14445e-40 -2.96697e-40 5.65537e-40 -2.66684e-40 1.01102e-40
-2.47244e-40 -2.64707e-40 -6.64657e-40 -5.2504e-40 6.85637e-40 -1.391e-42 -3.65236e-40 -4.5823e-40
-2.90336e-40 -1.49505e-40 9.9892e-41 -4.5912e-40 5.72171e-40 -1.51138e-40 -2.01009e-40 -4.098177e-13
-3.3211e-41 -2.17375e-40 -1.62412e-40 -2.22253e-40 -1.42893e-40 -2.81154e-40 -2.7249e-40 -1.17671e-40
-4.04699e-40 7.215e-41 6.3416e-40 -1.605e-41 -2.07616e-40 3.04892e-40 -2.0226e-40 0.55151653
-1.05572e-40 -3.07006e-40 2.56503e-40 -4.2165e-41

bn1.bias f4 [60]
00000000: 5203 0280 4e55 0300 a378 0500 d7ea 0100
00000010: 286b 0100 52df 0380 de74 0300 6d26 0200
00000020: 8c70 0380 f9df 0280 b222 0280 475b 0200
00000030: e121 0480 5c41 1ebd 4a69 0200 cfde 0080
00000040: 1a96 01bd 2136 0780 0812 b63d 6868 0200
00000050: 9b0c 0480 41dd 0480 4359 0680 9f03 0100
00000060: 3cde 0000 af11 0080 acb4 0480 d159 0200
00000070: 0ed5 0180 8b5c 0280 efba 0300 dff8 0200
00000080: df61 0380 f59c 0300 2d9b 0480 4699 0080
00000090: d05b 0500 6659 0100 8976 0180 71c6 3e2c
000000a0: eda9 0000 74af 0100 88c9 0480 689c 0180
000000b0: f071 0480 71f6 0480 99f3 0100 ba25 0380
000000c0: a408 0380 6ddb 0300 20d3 0300 5c11 0380
000000d0: de1d 0100 d478 0100 13e6 0100 4724 5f3e
000000e0: a346 0400 8e89 0080 ec6c 0100 a6c3 0400
-1.84862e-40 3.06108e-40 5.02454e-40 1.7608e-40 1.30276e-40 -3.55619e-40 3.1743e-40 1.97456e-40
-3.1588e-40 -2.64017e-40 -1.96117e-40 2.16415e-40 -3.79495e-40 -0.03863655 2.21442e-40 -7.9929e-41
-0.03163729 -6.62266e-40 0.08890158 2.21125e-40 -3.71864e-40 -4.46713e-40 -5.83034e-40 9.3134e-41
7.9723e-41 -6.344e-42 -4.32155e-40 2.15891e-40 -1.68265e-40 -2.16869e-40 3.42566e-40 2.72949e-40
-3.10616e-40 3.31812e-40 -4.23009e-40 -5.4984e-41 4.92114e-40 1.23906e-40 -1.34358e-40 2.711078e-12
6.0958e-41 1.54776e-40 -4.39638e-40 -1.47943e-40 -4.08215e-40 -4.55749e-40 1.79222e-40 -2.8904e-40
-2.78606e-40 3.54222e-40 3.51244e-40 -2.81734e-40 1.0255e-40 1.3518e-40 1.7437e-40 0.21791182
3.92682e-40 -4.9345e-41 1.3091e-40 4.37527e-40

bn1.running_mean f4 [60]
00000000: e720 0b35 5bc3 5233 d99f 3ba5 91ed 0633
00000010: 4c72 4635 1ca6 862b 769c d9ae c2fc c532
00000020: fc52 8dad ad2c 89a3 0ae8 4325 6875 822e
00000030: 05b0 eab6 4185 ab3e ebbf 4f26 8f35 2fb2
00000040: d458 a23d 7d1d a901 10b6 f7be cf85 0dad
00000050: b05f 3a26 cc9f 452b 7fa3 0d33 d0f3 96a8
00000060: a928 27a6 8bed a134 aad4 a329 3d19 0e33
00000070: b5ea a7af 523c 14a8 d5f8 c7a5 225b b1a7
00000080: 1ba9 8bae 7ef7 52a6 c509 8f2b 43b6 a030
00000090: 5c6b de34 ba73 bb25 d60c 59b3 d96d ae37
000000a0: 2eee f982 9bd5 a329 704a 96a4 dcec f52c
000000b0: d304 ec26 6288 df26 83af 29ad f925 b425
000000c0: 9ee8 06ad 6b2f c0b0 312b b6b6 9a7b 1131
000000d0: c430 4ca5 984b 8323 67e8 08ad 13f1 5dbf
000000e0: 6f04 96b2 a754 95a9 774f 4ead 9ebe 6fa6
5.1829414e-07 4.907211e-08 -1.6273823e-16 3.141537e-08 7.392707e-07 9.567377e-13 -9.8958106e-11 2.304876e-08
-1.6066697e-11 -1.487249e-17 1.6992172e-16 5.932571e-11 -6.994235e-06 0.33500102 7.207765e-16 -1.01985185e-08
0.07927099 6.212311e-38 -0.4838109 -8.0446335e-12 6.4661394e-16 7.021022e-13 3.297782e-08 -1.6759082e-14
-5.799487e-16 3.0161422e-07 7.2755455e-14 3.3084905e-08 -3.0543892e-10 -8.22873e-15 -3.4689612e-16 -4.9226175e-15
-6.351027e-11 -7.31938e-16 1.0163473e-12 1.1693334e-09 4.1428837e-07 3.2517748e-16 -5.0535924e-08 2.0793568e-05
-3.672397e-37 7.275709e-14 -6.517823e-17 6.9896155e-12 1.6377097e-15 1.55107e-15 -9.645509e-12 3.1250754e-16
-7.6686695e-12 -1.3983316e-09 -5.429051e-06 2.1170536e-09 -1.7710702e-16 1.4235064e-17 -7.782309e-12 -0.86695975
-1.7464314e-08 -6.631614e-14 -1.1727389e-11 -8.3178117e-16

bn1.running_var f4 [60]
00000000: 0e51 9818 df7d df17 4600 0000 db00 0d18
00000010: e0d7 0d17 d67f 9504 efcf d50d aa39 b115
00000020: d605 fa0a 861a 0000 cc19 0000 85b3 b10e
00000030: ad2b 4c32 c636 da3c 70b9 0000 8851 6714
00000040: a420 043d 0400 0000 7b75 9f3d 246e 1e0b
00000050: 7302 0000 ff81 0803 1885 7513 47bc de01
00000060: ee03 0000 6e1a 8a32 b8d7 1905 aba1 8015
00000070: e2bb 4c0f 5516 0200 a54a 0000 ba45 2b00
00000080: e7be 510d f279 0100 7a80 7f04 7df3 3911
00000090: e677 bd18 8616 0000 92b5 e515 dbea b533
000000a0: 0400 0000 7177 6d03 f24a 0100 084a ab0b
000000b0: d5be 0200 2695 0400 31ed c70a c419 0000
000000c0: bdf6 1a0a bd81 af11 0d93 b232 695c a20f
000000d0: e400 0000 2e00 0000 ec72 880b 05e7 143e
000000e0: 35f6 b814 baaa 9000 1f3b b00a b7b0 0000
3.9372923e-24 1.4442812e-24 9.8e-44 1.8224255e-24 4.583203e-25 3.514713e-36 1.3177197e-30 7.158071e-26
2.407632e-32 9.515e-42 9.254e-42 4.380674e-30 1.18842935e-08 0.026637446 6.6522e-41 1.1678599e-26
0.03225769 6e-45 0.077860795 3.0512554e-32 8.79e-43 4.0116036e-37 3.0988968e-27 8.1820085e-38
1.41e-42 1.6077333e-08 7.233647e-36 5.1953855e-26 1.00941615e-29 1.91682e-40 2.6777e-41 3.97394e-39
6.463289e-31 1.35581e-40 3.00341e-36 1.4668957e-28 4.897642e-24 8.08e-42 9.277883e-26 8.471189e-08
6e-45 6.9785152e-37 1.18721e-40 6.5978194e-32 2.52129e-40 4.20846e-40 1.9252224e-32 9.243e-42
7.4612366e-33 2.769009e-28 2.0788798e-08 1.6010028e-29 3.2e-43 6.4e-44 5.255821e-32 0.14541252
1.8676364e-26 1.3285557e-38 1.6970422e-32 6.3393e-41
