models/HLA_DR_PerPosStruct_NH64_xZ60H/checkpoint_best_kcv_HLA_DR_subsample_all_partitions_922k_f02_HLA_DR_PerPositionStructure_KFold_2_250124_1358_xZ60H.pt (torch, 249313 bytes, 3 tensors)

in_layer.weight f4 [64, 960]
000000 66 72 9b 3c ad 45 90 bc f3 22 75 3c b3 0f 5c bc
       0.018975448 -0.017611349 0.014961946 -0.013431477
000010 0e 13 f7 3c bd c3 8e bc 13 fd 8f bc 38 d8 c6 bc
       0.030160453 -0.01742732 -0.01757673 -0.024273023
000020 f9 bc 43 3c 28 50 2d ba e1 7f 23 bd 70 52 c3 bb
       0.01194691 -0.00066113705 -0.039916877 -0.005960755
000030 f7 8a 0a bc 65 ef 1c 3d ac c9 2c 3c e9 30 76 3c
       -0.008455983 0.038314242 0.010546129 0.0150263095
000040 cd 15 7b 3b d2 81 5a bd 2f c7 00 bd 93 bc 7c 3d
       0.0038312555 -0.053346463 -0.031439956 0.061703276
000050 89 5a b9 bd a3 b1 5c 3d d3 0e 7b bd 53 13 85 3c
       -0.09050471 0.053880345 -0.061293434 0.016244566
000060 d3 e3 f5 bd fe 31 88 3c 2c 6e f8 3a 35 eb 2a bc
       -0.12006345 0.0166254 0.0018953732 -0.010432054
000070 41 2a d8 bb d4 aa 1b 3b 61 e2 6f bd b2 98 6e 3c
       -0.006596834 0.0023752945 -0.0585655 0.014562773
000080 5a 92 b3 bc 01 c0 34 3d 51 c0 1e bc 17 4c 2e bd
       -0.021920372 0.04412842 -0.0096894065 -0.042553034
000090 5d 23 53 bc e3 22 f5 3c 5d 35 30 bc 89 79 84 3c
       -0.012886849 0.029923862 -0.01075491 0.016171234
0000a0 a2 d6 b9 bb 51 fb dc 3c 2d 27 30 3d b5 c7 8a 3d
       -0.005671338 0.026975306 0.04300611 0.06776372
0000b0 4e d4 e0 39 ef ef c5 bb 11 be 8a 3d bd 05 4f bd
       0.0004288279 -0.006040565 0.067745335 -0.05054258
0000c0 35 5b ad bb 44 af ae bd 3e 6f 9c bc 2a 38 e6 3c
       -0.0052904137 -0.08529523 -0.019096013 0.028102953
0000d0 db dd e2 3b 84 ae 87 3d 2e c6 57 bd ad e9 69 bd
       0.00692342 0.06625083 -0.052679233 -0.057107616
0000e0 5a 13 1d 3d b1 4d ae bb c0 de 00 bc 6d 00 7e 3c
       0.038348533 -0.00531932 -0.007865608 0.015503031
0000f0 c9 70 3e 3c be b0 35 bd 81 f4 01 bd 1e a1 8a 3d
       0.01162357 -0.044358008 -0.031727318 0.06769012
000100 f6 1c 39 3d 5d ed 96 3c b9 0d 8a 3d 20 25 23 bd
       0.045193635 0.01842373 0.06740899 -0.039830327
000110 d5 9e cb 3c df 12 8a 3d 75 95 d3 bd 79 02 9f 3d
       0.02485601 0.067418806 -0.10331241 0.077641435
000120 77 8b 4e bd 0a 6a 8c bc 88 ef a8 bd d3 cb ad b9
       -0.050425973 -0.017140407 -0.08248812 -0.00033148992
000130 e5 36 e5 3d bd d0 ce bd 2e c2 cb bd 83 cf cb bc
       0.11192111 -0.100984074 -0.09949146 -0.024879223
000140 99 ca 0a 3d 7c 60 e2 bc 60 49 a4 bc 4f 40 81 3d
       0.03388462 -0.027633898 -0.02005452 0.06311094
000150 10 39 04 bb 75 83 8f bc 0d 74 98 3d 2c 05 78 3d
       -0.0020175613 -0.017518738 0.0744401 0.060551807
000160 4a 90 d6 bc e9 fd 45 bb b2 3e 84 bd 32 b7 da bd
       -0.02619185 -0.0030211157 -0.06457271 -0.10679473
000170 4b 2c 48 3d 9c e2 cf 3d 50 bf a0 3a ed 7f b7 ba
       0.048870366 0.10150644 0.0012264047 -0.0013999917
000180 7b d9 70 3b 3c f8 7d bd bb 62 b0 bc a7 bd 68 bd
       0.0036750722 -0.062004313 -0.021531453 -0.05682149
000190 26 e5 43 bc 8b d4 23 ba 7d f0 8d 3b 2d 65 16 3a
       -0.011956489 -0.0006249628 0.004331647 0.0005737122
0001a0 a5 7d 31 3d 17 98 e4 3c 32 c8 3e 3d 44 df 68 3c
       0.043332715 0.027904553 0.04657764 0.014213387
0001b0 c6 e8 9b bc 2c 25 96 bb 39 28 97 3c 4c d1 3f bd
       -0.019031893 -0.004582068 0.018451797 -0.04683046
0001c0 9f f3 01 bd d5 2d b0 bc dd 7e 27 bc 90 ae 8b bd
       -0.031726476 -0.02150623 -0.010223118 -0.068204045
0001d0 62 84 9c 3c 53 3b fb 3c f1 80 bb bc 65 ca f0 3b
       0.019106094 0.030667936 -0.022888632 0.007348346
0001e0 b3 68 49 bc 7e cf 3b bd c1 5f 51 3c 42 5f 41 3d
       -0.012293029 -0.045852177 0.012779177 0.047209986
0001f0 49 ee 2f bb 42 40 21 be d7 1c a1 3c 74 81 69 3d
       -0.002684491 -0.15747169 0.019667072 0.05700822
000200 02 7c e0 bc f8 cd 8d bd 3c b4 42 bd eb 4e dd bc
       -0.027402882 -0.06924051 -0.047535166 -0.02701517
000210 9c 18 12 bd c7 ed 5c 3d 44 84 20 3d 93 0f 2d 3d
       -0.035668 0.0539377 0.03918864 0.04225118
000220 09 e2 76 3d d9 b7 34 3b 5c 91 1c 3d fc f9 0d bd
       0.060274158 0.0027575402 0.038224563 -0.03466223
000230 cc 71 34 be ff f0 9b 3c dd 3f 0c 3d a8 b1 28 3d
       -0.17621535 0.019035814 0.034240592 0.04118505
000240 b7 ff c1 bb 20 a9 85 3d 4c c5 ae bc 3f 6f 11 3c
       -0.005920376 0.06526399 -0.021334313 0.008876621
000250 65 9e ff 3c 1b 73 84 bc 7f 67 81 bd 98 b3 cd bc
       0.031203458 -0.016168168 -0.063185684 -0.025110051
000260 5d 35 0d bd d4 7f b8 3d c1 f4 a6 bc 44 63 66 3c
       -0.03447472 0.09008756 -0.02038038 0.014061753
000270 a1 a9 a7 bb 90 6f 62 bd d0 26 4b bd 91 4f 48 3d
       -0.005116657 -0.055282176 -0.04959756 0.048904005
000280 a8 e5 55 bb 3a d8 ed bc fb 8d 65 3d c6 30 fd bc
       -0.0032638106 -0.029033769 0.056043606 -0.030907046
000290 c2 26 dd bc 3f 47 56 3b 4c c4 6c bd 02 54 40 3c
       -0.02699602 0.0032696275 -0.05780439 0.011738779
0002a0 b6 0b 87 bc df b0 50 3b ea 47 ff bc 93 8c 69 3b
       -0.016485076 0.0031843705 -0.031162221 0.0035636767
0002b0 b9 20 aa bb 3d 03 93 3b af b0 30 3c 96 a3 0c 3d
       -0.005191889 0.00448647 0.010784312 0.034335695
0002c0 c1 72 d8 bc 37 ad b6 bd 1f c4 54 bc ab 93 76 3d
       -0.026421906 -0.08919757 -0.012986212 0.06019942
0002d0 08 b7 76 bc 3e 78 b6 3c 9a 97 16 bb 79 a1 e7 3c
       -0.0150582865 0.022274133 -0.0022978545 0.028275238
0002e0 19 4f 48 bd 70 48 4e 3b 48 13 62 bc 01 9d 52 3c
       -0.04890356 0.0031476282 -0.013798542 0.012854815
0002f0 ba cb 2f 3d 4e 4b c2 bb 99 c7 42 3d 95 74 a2 3c
       0.0429189 -0.005929387 0.047553632 0.019830981
000300 bb 37 2e 3c 32 be 04 bd 1a 20 ca bc 9f 71 13 3d
       0.010633404 -0.032407947 -0.02467351 0.03599703
000310 a0 a8 ed bb c6 ce 0d bc f6 9a 99 3c e0 de 86 3d
       -0.0072527677 -0.008655256 0.018750649 0.06585479
000320 60 f3 ed 3c d9 a4 e0 bd 93 fc 0e be c8 1f 90 bd
       0.029046714 -0.10968942 -0.13963537 -0.07037312
000330 d5 12 ba 3c 38 35 b4 3d 20 9d 80 bd 26 a1 8f 3c
       0.022714058 0.08799213 -0.06279969 0.017532896
000340 65 27 e2 bb 1e 91 9f 3b 76 d9 87 3b 67 8a f8 bd
       -0.006901669 0.0048695942 0.0041457964 -0.12135773
000350 13 85 c7 3c a5 bb 57 bc b7 e4 80 bb 05 71 8d 3d
       0.024355447 -0.013167297 -0.003933515 0.069063224
000360 b6 b7 0b bd 79 e1 46 3c 96 b8 a2 bc c4 30 0e 3d
       -0.034110747 0.012138718 -0.019863408 0.034714475
000370 60 3f cd bc 6a 84 df bc 4c 6d a3 bd 67 cf 52 3d
       -0.025054634 -0.02728482 -0.07979831 0.051467326
000380 7e 30 f1 3c 78 1d 21 bf 1a 40 84 bf 20 35 7a bf
       0.029442068 -0.6293559 -1.0332062 -0.9773731
000390 09 8e 7f bf d0 24 d0 3f 76 ca a1 bf 91 a7 8d bf
       -0.99826103 1.6261234 -1.2639911 -1.1066762
0003a0 61 d7 2e bf 6d 6b 4e bf db b6 90 3d df ad 80 3f
       -0.6829739 -0.8063267 0.07066127 1.0053061
0003b0 a8 cd c4 bf f5 76 e7 3e 32 06 71 3f dd 17 b1 bf
       -1.5375261 0.45207945 0.9415008 -1.3835407
0003c0 f0 8e 1d bf b9 19 5c bf dc 8d 1a 3f 64 de a5 3e
       -0.6154623 -0.8597675 0.6037271 0.32396233
0003d0 77 7b b1 be 4f e0 31 bf ac 89 b4 bf 87 37 65 bf
       -0.3466451 -0.6948289 -1.4104514 -0.89537853
0003e0 9f d1 8a bf 61 27 d6 3f 47 a8 a1 bf 74 48 6c bf
       -1.0845221 1.6730767 -1.2629479 -0.92298055
0003f0 db d1 c9 be e1 0a 8f bf 7c 58 19 3f 05 81 83 3f
       -0.3941792 -1.1175195 0.5990064 1.0273749

in_layer.bias f4 [64]
000000 3f 55 c6 3a ee f7 c5 bc 8e 92 f1 3c 1a 0f 9c bc
       0.0015131606 -0.024166074 0.029488828 -0.01905017
000010 ad 4a 03 3d 0d e3 ee b9 e4 1b 91 3b 3f 5f 38 3c
       0.03205364 -0.00045564063 0.0044283736 0.011253177
000020 52 40 20 bc 34 99 b3 3c 3f ad 95 bc 0d 80 85 3c
       -0.00978096 0.021923639 -0.018271087 0.016296411
000030 e7 8b c9 bb 1d 7f 2a bc 84 4c ec bc 05 95 4a 3c
       -0.006150711 -0.010406283 -0.02884508 0.012364631
000040 35 50 d3 bb e0 f4 e1 3b 59 3d 7d bb d3 3e 41 3c
       -0.0064487704 0.0068956465 -0.0038641302 0.011794764
000050 79 b5 9b bb d6 f1 f8 bc f3 34 2c bc 8f 57 e4 bc
       -0.004751858 -0.030388754 -0.010510671 -0.027873782
000060 9f d8 43 bc 18 11 c1 bc ac 45 80 3c 6f 5d b0 3c
       -0.011953502 -0.023567721 0.015658222 0.021528928
000070 d7 3b cf bc fd c1 68 3c 39 05 1d bc f7 ea a1 bc
       -0.025297089 0.014206407 -0.009583765 -0.01976536
000080 29 9c e2 bb 5c ca c1 3c 6e 38 5a bb 08 3d 15 3c
       -0.0069155884 0.023656063 -0.0033297795 0.009108789
000090 03 8d cf bc f4 95 88 bc f7 a2 44 bc 96 3b 49 3b
       -0.025335794 -0.016673066 -0.0120017445 0.0030705682
0000a0 82 ff 22 bc 09 bb c9 bb a4 5d 5b bc 7f 5d f0 bc
       -0.009948613 -0.0061563295 -0.013389025 -0.029341457
0000b0 66 6b c2 3b d5 70 07 3d 52 12 e4 bc f3 d2 c9 3b
       0.005933213 0.03306659 -0.027840767 0.0061591803
0000c0 fa 68 1f bc 90 e7 08 3d 02 ee 09 b9 df af 97 3b
       -0.009729618 0.03342396 -0.00013154003 0.0046291198
0000d0 70 cb e3 3c a5 7d d4 bb c2 d3 14 3b 89 99 46 3c
       0.027806967 -0.0064847046 0.0022709225 0.012121567
0000e0 f0 61 04 3c ab 05 a7 3c 83 20 e3 3b 3f e9 df bc
       0.008079991 0.020388445 0.006931366 -0.0273329
0000f0 00 47 13 3c 74 76 e0 3c 1a a6 1d bc e2 7f db 3c
       0.008989096 0.027400233 -0.009622121 0.026794378

out_layer.weight f4 [1, 64]
000000 0a 65 db be bf 60 e3 be 53 ed cd 3e 6b 24 da be
       -0.42850524 -0.4440975 0.40220127 -0.4260591
000010 e7 dc a5 3e c8 fd ca be d4 36 e0 be 5f 26 c4 be
       0.32395098 -0.39646745 -0.4379183 -0.38310525
000020 cf 80 da 3e ce 20 ab be 69 fa d5 be 8c 45 8a 3e
       0.42676398 -0.33423465 -0.4179261 0.27006185
000030 4b 2a fa 3e 3e dc 06 bf 42 ff d6 be d2 44 1b 3e
       0.48860392 -0.5267981 -0.4199162 0.15162972
000040 40 8a ae 3e 89 c1 79 bd db 3f f8 3d 78 10 36 bd
       0.3408985 -0.060975585 0.121215545 -0.0444493
000050 58 83 57 be c1 32 72 be 86 22 a9 3e 08 a9 9c be
       -0.21046197 -0.23652174 0.33034152 -0.3059771
000060 7d 94 da be 70 bc e3 be 00 db bc 3e 92 91 cb 3e
       -0.42691413 -0.44479704 0.36885834 0.397595
000070 7c b0 80 be 40 1e c5 be 07 4b d7 be 06 69 67 3e
       -0.25134647 -0.3849964 -0.4204943 0.22598657
000080 f1 1c a1 be 6e 88 ee 3e 5c 11 f2 be 28 18 a8 3e
       -0.31467393 0.46588463 -0.4727887 0.3283093
000090 0c 75 0b bf e2 3d bb be 7d cf b5 be 16 b8 83 3e
       -0.54475474 -0.3657065 -0.35509863 0.25726384
0000a0 ad 36 c8 be c3 0d f4 be b9 81 a7 be 8f db 9c 3e
       -0.39104214 -0.4766675 -0.32716158 0.3063626
0000b0 24 17 ad 3e 73 b0 4d be b7 35 d0 be b1 d0 9d 3e
       0.33806717 -0.20086841 -0.4066598 0.3082328
0000c0 47 62 d9 be 8b 1a d5 be 15 dd b5 3e 65 6d 74 3c
       -0.42457792 -0.41621813 0.35520235 0.01491866
0000d0 94 8d 93 3e 61 c8 90 3e b5 c4 90 3e 14 c4 e5 be
       0.28818953 0.28277877 0.28275076 -0.44876158
0000e0 2f e0 9a be 2c 1d 75 3e 78 2c 9c 3e 69 05 86 3e
       -0.30249164 0.2393691 0.30502677 0.26176003
0000f0 07 ff a2 be 6b b0 72 be 94 0e 01 bf e5 91 81 be
       -0.31835195 -0.2370011 -0.5041287 -0.2530662
