output/carlos_experiments/231018_mhc_nopfr_nobnorm/CSL_mhc_nobnorm_nostd_burn_60nh_all_KFold_1_231018_1158_None/checkpoint_best_kcv_train_all5_correct_f01_CSL_mhc_nobnorm_nostd_burn_60nh_all_KFold_1_231018_1158_None.pt (torch, 208543 bytes, 3 tensors)

in_layer.weight f4 [60, 860]
0.0043940325 -0.0064633675 0.0019196721 -0.0037054417 0.0033688648 -0.009026942 -0.008355123 -0.0013121519
0.0050974074 0.0039836597 -0.002835493 -0.0034655016 -0.0072521656 0.030186499 0.0021063113 0.0055748615
0.0037191242 0.0019982802 0.022204332 -0.0035940397 0.008983121 0.0047585876 0.0030353807 -0.001292529
-0.0012283805 -0.0048216837 -0.013253789 -0.00549129 -0.008047361 0.021256248 0.0062687336 0.012038252
-0.001657529 -0.0062376712 -0.012404829 0.0065219253 -0.005513113 -0.018568888 -0.005396293 0.015938612
0.004390192 0.010058694 -0.0025969439 -0.00848389 -0.0032644328 0.0021589524 -0.0066747433 -0.005961284
-0.0029555818 0.0006480736 0.014092034 -0.0018707422 0.011683081 -0.008302198 0.0050845766 0.012253755
0.0010819011 -0.007925651 -0.010057743 0.003827915 0.04071939 -0.01658147 0.02640008 0.010949629
0.00707393 0.009823027 -0.006089079 0.013881455 0.01821164 0.00047350483 -0.0020847498 -0.008484561
0.009813422 -0.011302804 0.0037885304 0.026826799 -0.008367426 -0.015772985 -0.0040905313 -0.0033317409
0.024394624 -0.0030489354 -0.0010473228 -0.019224046 0.0028882066 -0.008985481 -0.008098518 0.022742018
-0.00091780035 0.0003599542 -0.0037517024 -0.0052562095 0.0021525535 0.006996537 0.0030144488 0.004588136
-0.00038213638 0.00058704836 0.00070807117 0.0014105808 0.05145502 -0.0351049 0.035146248 0.022931747
0.01620733 -0.005067474 -0.005046617 0.014471636 -0.011869786 0.006174175 -0.00730196 -0.030949824
-0.0015784693 -0.019736376 0.016123937 0.049887918 0.034241825 -0.011617667 -0.01591941 0.017480517
0.029752057 -0.0079949405 0.036684465 -0.0038231316 0.0018347792 -0.002729421 -0.019381246 0.0074037146
0.0012057642 -0.0014310414 0.0015811512 -0.022618046 0.008567966 0.0039795213 0.021166878 0.02548954
0.02240058 0.00032193636 0.000115033865 -0.0012478745 0.03321883 -0.006096213 -0.0014919569 -0.01822094
0.006130221 0.001866585 -0.011595233 0.007645406 -0.0033424816 0.008491641 0.011174456 -0.005780155
0.017575951 -0.003836298 0.0041419407 0.013816572 0.00028645442 0.0019267661 -0.005418784 0.011244341
0.01865187 -0.020934686 0.030704493 0.0004967213 0.003265947 -0.010098507 -0.006563157 0.004659438
0.0038793148 0.006741084 0.0046267426 -0.024582438 0.0064687943 0.012603795 0.0042979503 0.022620711
0.016198933 -0.0045378963 0.0037156316 0.011966388 0.0014745914 0.0020283172 0.0022448364 0.0032739814
0.000173578 0.003774601 0.0030268454 0.0020899095 -0.0009100268 -0.00019494527 0.00021835823 0.0030268454
0.00054415455 -0.004871933 0.0027111173 0.0020848166 0.0014745914 -0.0016118835 -0.007005008 -0.00029633613
-0.0013073772 0.0021959504 0.00024164947 0.003123876 0.00029624676 0.0013245142 0.0035755665 0.0003872491
0.0011984116 -0.0017902106 -0.0014730052 0.0019495648 -0.0034575597 0.00027879415 0.0017077258 -0.00017643333
-0.0004964615 0.0008574937 0.00018413528 -0.0013498671 0.000119955446 -0.000975865 -0.00056515523 -0.0001545343
0.0019218909 -0.0016536498 0.000119955446 0.00052263367 -0.0029354172 0.0012365083 0.0018264976 -0.00056515523
-2.25725e-40 0.0010509703 0.00052263367 0.000119955446 0.0008210389 -0.0015443875 -0.0059249033 0.000428555
0.0012694255 0.0013761793 0.00188068 0.0022226356 0.0007653154 0.00188068 0.0013761793 0.0017189503
0.0010634119 -0.00021447442 -0.00063023 0.001826708 -4.576098e-05 -0.0036744084 0.0017189503 0.0013230797
00000000: d1fb 8f3b a8ca d3bb 829d fb3a ffd6 72bb
00000010: 2cc8 5c3b bde5 13bc ede3 08bc 83fc abba
00000020: 2708 a73b 5c89 823b aed3 39bb 781d 63bb
00000030: 93a3 edbb ad49 f73c 0a0a 0a3b 54ad b63b
00000040: 8dbc 733b 94f5 023b dce5 b53c fb89 6bbb
00000050: f12d 133c eded 9b3b 3ded 463b 146a a9ba
00000060: 9c01 a1ba 37ff 9dbb 6c26 59bc 47f0 b3bb
00000070: 14d9 03bc 9521 ae3c f369 cd3b 173c 453c
00000080: 7241 d9ba 6165 ccbb a03d 4bbc e0b5 d53b
00000090: 58a7 b4bb c81d 98bc 63d3 b0bb b191 823c
000000a0: 9adb 8f3b 38cd 243c 7d31 2abb 0400 0bbc
000000b0: 18f0 55bb 367d 0d3b ceb7 dabb e056 c3bb
000000c0: 6fb2 41bb 7ce3 293a 46e2 663c b133 f5ba
000000d0: 656a 3f3c f105 08bc 859c a63b f9c3 483c
000000e0: 94ce 8d3a 97da 01bc 3bc9 24bc c2dd 7a3b
000000f0: 60c9 263d ddd5 87bc fb44 d83c 1366 333c
00000100: 6dcc e73b c3f0 203c e686 c7bb 0b6f 633c
00000110: 9430 953c be40 f839 4ca0 08bb d402 0bbc
00000120: 7ac8 203c 652f 39bc fe48 783b e0c3 db3c
00000130: 8717 09bc 5936 81bc dd09 86bb 5659 5abb
00000140: 3cd7 c73c a6d0 47bb 5246 89ba bf7b 9dbc
00000150: 1148 3d3b d737 13bc a5af 04bc 784d ba3c
00000160: 8a98 70ba 3cb8 bc39 1fdf 75bb 483c acbb
00000170: db11 0d3b 3543 e53b 0f8e 453b 1358 963b
00000180: 7a59 c8b9 26e4 193a da9d 393a 3de3 b83a
00000190: 80c2 523d 28ca 0fbd 83f5 0f3d 5cdb bb3c
000001a0: 3cc5 843c 0e0d a6bb 175e a5bb 711a 6d3c
000001b0: 7e79 42bc bc50 ca3b 4845 efbb 7c8a fdbc
000001c0: a4e4 ceba 2eae a1bc 5916 843c 4657 4c3d
000001d0: 2841 0c3d 0758 3ebc 6c69 82bc 4d33 8f3c
000001e0: 96ba f33c 36fd 02bc 7342 163d 818d 7abb
000001f0: f97c f03a 16e0 32bb 6bc5 9ebc dc9a f23b
00000200: bc0a 9e3a c891 bbba a13e cf3a 7b49 b9bc
00000210: a760 0c3c a566 823b 2966 ad3c 71cf d03c
00000220: 6c81 b73c 91c9 a839 563e f138 b88f a3ba
00000230: 7810 083d bec2 c7bb c48d c3ba 1544 95bc
00000240: 05e0 c83b 33a8 f43a eff9 3dbc 5086 fa3b
00000250: 890d 5bbb 8620 0b3c 1115 373c 7467 bdbb
00000260: 71fb 8f3c 666a 7bbb 1eb9 873b e75e 623c
00000270: 432f 9639 8b8b fc3a 0e90 b1bb 2f3a 383c
00000280: cecb 983c 387f abbc fd87 fb3c 6736 023a
00000290: 8009 563b 3574 25bc c00f d7bb 33ae 983b
000002a0: 1a3c 7e3b 50e4 dc3b ee9b 973b 1c61 c9bc
000002b0: 2ef8 d33b 2680 4e3c d2d5 8c3b 124f b93c
000002c0: a0b3 843c a2b2 94bb f481 733b ab0e 443c
000002d0: 1447 c13a 84ed 043b 1b1e 133b 4b90 563b
000002e0: 7d02 3639 4c5f 773b 0a5e 463b ddf6 083b
000002f0: dd8e 6eba 396a 4cb9 17f7 6439 0a5e 463b
00000300: 98a5 0e3a bca4 9fbb 00ad 313b 6ba1 083b
00000310: 1447 c13a d645 d3ba 448a e5bb 905d 9bb9
00000320: 4d5c abba efe9 0f3b 4963 7d39 f1b9 4c3b
00000330: 9151 9b39 529b ad3a 0d54 6a3b b207 cb39
00000340: 0514 9d3a 80a5 eaba da11 c1ba 8a88 ff3a
00000350: 3a98 62bb 1e2b 9239 c5d5 df3a f600 39b9
00000360: f824 02ba 6ec9 603a 7014 4139 06ee b0ba
00000370: 9790 fb38 31d1 7fba ed26 14ba 7c0a 22b9
00000380: f5e7 fb3a 48bf d8ba 9790 fb38 5a01 093a
00000390: 2160 40bb 5512 a23a 1767 ef3a ed26 14ba
000003a0: 3b75 0280 b6c0 893a 5a01 093a 9790 fb38
000003b0: fd3a 573a 0c6d caba b125 c2bb aeaf e039
000003c0: da62 a63a ea60 b43a 2681 f63a a3a9 113b
000003d0: 729f 483a 2681 f63a ea60 b43a 674e e13a
000003e0: 2f62 8b3a 8ae4 60b9 0536 25ba 266e ef3a
000003f0: 7aef 3fb8 58ce 70bb 674e e13a 306b ad3a

in_layer.bias f4 [60]
-0.0004285546 -1.07803366e-07 6.356641e-12 -5.802139e-15 1.0041242e-05 0.00036221583 2.350659e-09 1.5406131e-06
1.0600003e-09 7.378702e-08 -0.0002818367 2.055391e-06 4.607253e-13 0.000352954 -8.952631e-06 -2.7376572e-07
-4.641775e-05 0.00030953993 -8.506504e-08 -4.512816e-05 0.00010227628 -5.9771563e-05 -3.487978e-09 2.4478518e-07
-8.6658465e-06 2.1046048e-06 5.0202918e-14 3.2497654e-05 -4.6724435e-10 1.874222e-05 0.0004800091 3.0087592e-09
1.3672271e-12 0.00034041257 -4.18754e-40 -4.267356e-07 -7.440285e-05 1.3688344e-08 -0.00025632643 -4.8514494e-06
3.6571252e-10 3.687056e-08 3.4688005e-10 -3.7163879e-09 -1.5705727e-10 -7.313184e-05 -2.1503732e-07 2.040737e-09
-2.6875419e-10 0.00011664224 5.7690762e-05 3.6653514e-09 0.0003990704 5.684615e-07 0.00015274357 4.0769246e-09
-6.5348953e-09 -4.512527e-05 3.22793e-12 9.866702e-06
00000000: a0af e0b9 8781 e7b3 88a7 df2c 490b d1a7
00000010: ce76 2837 c9e7 bd39 3b89 2131 10c7 ce35
00000020: 72af 9130 d874 9e33 7bc3 93b9 59ef 0936
00000030: c2ae 012b af0c b939 4233 16b7 13fa 92b4
00000040: aeb0 42b8 bf49 a239 00ad b6b3 fe47 3db8
00000050: 297d d638 3ab3 7ab8 28b1 6fb1 056b 8334
00000060: 8763 11b7 d63c 0d36 0618 6229 174e 0838
00000070: 666f 00b0 9c38 9d37 bba9 fb39 a7c2 4e31
00000080: 8c6b c02b 6779 b239 518f 0480 181a e5b4
00000090: ba08 9cb8 f929 6b32 8d63 86b9 a2c9 a2b6
000000a0: 760d c92f 9c5b 1e33 07b3 be2f 6363 7fb1
000000b0: b1af 2caf 5c5e 99b8 02e5 66b4 063d 0c31
000000c0: cabf 93af d39d f438 fcf8 7138 8be1 7b31
000000d0: 533a d139 6098 1835 ca29 2039 0215 8c31
000000e0: 8c89 e0b1 e444 3db8 3825 632c 2a89 2537

out_layer.weight f4 [1, 60]
0.2004446 2.234155e-07 -1.5097144e-09 5.3074675e-14 0.00027493958 4.5513716e-05 4.2608925e-09 8.246383e-05
7.989055e-09 7.2996687e-07 0.15337312 -5.5299788e-05 -7.9347865e-12 0.000890415 0.00032358893 -8.2763984e-07
0.00012473673 -0.17585096 0.00077940285 -0.20388748 -0.16115493 -0.17666575 -2.229151e-08 -1.3803807e-06
-1.2873339e-05 8.069334e-06 7.936595e-12 -0.00021450964 -3.6154177e-09 -0.00022405607 -0.1810258 5.130049e-09
1.2700498e-11 -0.2261254 -6.1743e-41 0.16910803 -0.00015621154 -4.136979e-08 0.19137159 0.0006843883
-8.363649e-09 2.4367662e-06 -6.8577974e-09 -2.2243013e-08 4.5197166e-09 0.23587516 1.0918426e-06 -1.0549897e-08
-3.4444905e-10 0.00018758391 0.11208167 -7.098915e-09 -0.23531823 -1.1718247e-05 -0.1886063 1.8154102e-08
7.2589295e-08 -0.14971648 -5.038166e-11 -0.14070232
00000000: 5941 4d3e fce3 6f34 5a7e cfb0 ef06 6f29
00000010: c425 9039 fbe5 3e38 3567 9231 6ef0 ac38
00000020: 3c40 0932 f1f2 4335 d80d 1d3e b2f1 67b8
00000030: 1a97 0bad bd6a 693a 5fa7 a939 fa2a 5eb5
00000040: c3cb 0239 4612 34be d750 4c3a e1c7 50be
00000050: cc05 25be dee7 34be 8d7b bfb2 8545 b9b5
00000060: 92fa 57b7 8761 0737 3f9f 0b2d feed 60b9
00000070: 1a73 78b1 98f0 6ab9 d45e 39be 6344 b031
00000080: f56d 5f2d 6b8d 67be 1dac 0080 a82a 2d3e
00000090: b7cc 23b9 91ae 31b3 eaf6 433e 8568 333a
000000a0: b8af 0fb2 5387 2336 d3a1 ebb1 e710 bfb2
000000b0: d94b 9b31 4289 713e 6d8b 9235 f03e 35b2
000000c0: e55c bdaf 2cb2 4439 138b e53d b7ea f3b1
000000d0: 43f7 70be 7d99 44b7 0322 41be 4bf1 9b32
000000e0: 63e2 9b33 474f 19be b594 5dae 4514 10be
