output/230530_EF_COMPARISON/230530_CEDAR_WITH_EF_230530_165005_02r3h/checkpoint_best_kcv_230530_cedar_aligned_f0_230530_CEDAR_WITH_EF_230530_165005_02r3h.pt (torch, 19875 bytes, 25 tensors)

ef_inlayer.weight f4 [5, 3]
0	0xbdb3def1	-0.08782757
1	0xbc3e36b1	-0.011609719
2	0xbcfd6213	-0.030930554
3	0x3e1e37da	0.15450993
4	0x3e62878e	0.22122023
5	0xbe0a2162	-0.13489297
6	0xbd894bba	-0.06703897
7	0xbc099100	-0.008396387
8	0xbe10df7a	-0.1414775
9	0xbeb62081	-0.35571674
10	0xbd877e0f	-0.06615841
11	0x3cdb9706	0.026805412
12	0xbde3ca4f	-0.11122572
13	0x3ad3b8b5	0.001615307
14	0xbcf6339d	-0.030053908

ef_inlayer.bias f4 [5]
0	0xbc5224a4	-0.012826119
1	0xb3188af9	-3.5516653e-08
2	0x3c25f0c6	0.010128206
3	0xbc10c145	-0.008835142
4	0xb56d4693	-8.839208e-07

ef_outlayer.weight f4 [1, 5]
0	0x3eaa3458	0.3324306
1	0x3e686033	0.22692947
2	0x3f0fa40e	0.561097
3	0x3eef8e45	0.4678823
4	0x3ebdc410	0.37063646

ef_bn1.weight f4 [5]
0	0x3f15591c	0.58339095
1	0x3f232419	0.63726956
2	0x3f407c5d	0.75189763
3	0x3f2a5a90	0.6654444
4	0x3f272a60	0.65299034

ef_bn1.bias f4 [5]
0	0xbed7585f	-0.4205961
1	0xbe99486c	-0.29938066
2	0xbeae7e3d	-0.34080687
3	0xbec05696	-0.3756606
4	0xbecccd40	-0.40000343

ef_bn1.running_mean f4 [5]
0	0x3f5a9110	0.853776
1	0x408ae5d3	4.3405547
2	0x408776b4	4.23324
3	0xbf8af10b	-1.085481
4	0x3f562e51	0.83664423

ef_bn1.running_var f4 [5]
0	0x3ac94a48	0.001535722
1	0x3ea4429f	0.32082078
2	0x3a638e4c	0.00086805667
3	0x3d1fa609	0.038976703
4	0x3a9b9ce9	0.0011872324

nnalign.in_layer.weight f4 [25, 100]
0	0xbc0bbecc	-0.008529376
1	0x3ca1fbb1	0.019773336
2	0xbd9f32ad	-0.077733375
3	0xbcf1f54f	-0.029535918
4	0xbd1844aa	-0.03717486
5	0x3cbb985f	0.022899805
6	0x3cf49c94	0.029859819
7	0x3d5f4456	0.05450853
8	0xbc0f741b	-0.008755709
9	0x3ce31d1b	0.02772384
10	0x3c34c6d9	0.011033737
11	0xbc0b53e1	-0.008503885
12	0xbd39b99b	-0.045343023
13	0xbd026cab	-0.031841915
14	0xbd86f7c0	-0.06590223
15	0xbd1ab82a	-0.03777329
16	0x3bec351c	0.0072084796
17	0x3d5730ca	0.052536763
18	0xbc9a8828	-0.018863752
19	0xbc7710e1	-0.015079708
20	0x3cccadbc	0.024985187
21	0x3ca7be99	0.020476626
22	0xbca9d9b1	-0.020733686
23	0x3d81d811	0.063400395
24	0x3c202503	0.009774449
25	0x3a6e4c40	0.00090903416
26	0x3d01a9a5	0.031655926
27	0xbd2ca7ef	-0.04215234
28	0xbd1bb855	-0.03801759
29	0xbc891c06	-0.016736995
30	0xbd005831	-0.031334106
31	0x3cf6ac04	0.03011132
32	0xbd4a495e	-0.049386375
33	0xbd0cd8e8	-0.034386545
34	0xbd7682cf	-0.060183343
35	0xbd622d63	-0.055219065
36	0xbc9787af	-0.018497316
37	0x3d85f3b3	0.065406226
38	0x3d0c603a	0.034271456
39	0x3d099b00	0.033595085
40	0xbd1ede62	-0.0387863
41	0xbd05161e	-0.032491796
42	0x3d1b3cbe	0.037899725
43	0xbd80f57b	-0.06296822
44	0xbd820e06	-0.06350331
45	0xbd6c4ac4	-0.05768849
46	0x3c2d2daa	0.010569969
47	0x3d01086b	0.03150217
48	0xbc94ea74	-0.018178202
49	0x3a8391f8	0.0010038009
50	0x3d1e8c56	0.038708054
51	0x3d417d62	0.047238715
52	0x3d0f3d94	0.034970835
53	0x3cea4ca3	0.028600996
54	0x3d26a4cd	0.04068451
55	0xbd09cce8	-0.03364268
56	0x3cba369b	0.022731116
57	0xbd3eafa7	-0.046554234
58	0xbcef62ca	-0.029221911
59	0xbd39f695	-0.045401175
60	0x3d04f803	0.032463085
61	0x3c857949	0.016293185
62	0xbd3c4abf	-0.04596972
63	0x3cc9f92d	0.02465495
64	0x3d12b49d	0.035816777
65	0xbc8c8f3e	-0.017158147
66	0x3c833a97	0.016019149
67	0x3c64745d	0.013943759
68	0x3d5a2053	0.053253483
69	0x3db878c6	0.09007411
70	0xbd33545b	-0.04378162
71	0xbc243796	-0.010023018
72	0x3cbddf87	0.023177875
73	0x3d82fd61	0.063959844
74	0x3c7a4e5b	0.01527747
75	0x3d3d24bb	0.046177607
76	0x3c74f668	0.014951326
77	0xbdad869c	-0.0847294
78	0x3cec3d41	0.028837802
79	0xbce052ef	-0.027383296
80	0xbd8ba37d	-0.06818292
81	0x3d7f885a	0.062385894
82	0x3d49d526	0.04927554
83	0xbda751a1	-0.08169866
84	0x3c616cfa	0.013758892
85	0xbca91ae6	-0.020642709
86	0xbc1328d3	-0.008981901
87	0xbd32b4fa	-0.043629624
88	0x3d067727	0.032828476
89	0xbd266629	-0.04062477
90	0x3d0c2c43	0.0342219
91	0x3c9f78a0	0.019466698
92	0x3d5703f5	0.052494008
93	0x3cf138b2	0.02944598
94	0xbd3f987f	-0.04677629
95	0xbd5d4110	-0.054017127
96	0x3cf86504	0.030321606
97	0x3bfc07b6	0.007691349
98	0xbd4c4104	-0.04986669
99	0xbd05e970	-0.032693326
100	0x3d46c4bd	0.048527468
101	0x3d4690e7	0.048478033
102	0xbb0851fb	-0.0020800817
103	0xbd013a49	-0.031549726
104	0xbd2c73cc	-0.04210262
105	0x3c910b2c	0.017705522
106	0xbd5dcf50	-0.054152787
107	0xbd4eaba0	-0.050456643
108	0x3b1af840	0.0023646504
109	0x3be2556d	0.006907156
110	0xbcdb9a94	-0.026807107
111	0x3c7ddd31	0.015494631
112	0xbcd9b584	-0.026575811
113	0x3d5b0722	0.0534736
114	0x3cf9f288	0.030511156
115	0xbd2084ff	-0.039189335
116	0xbbefa41e	-0.0073132655
117	0x3c4945c3	0.012284699
118	0xbcb0d2d5	-0.021584908
119	0x3bc803de	0.0061039766
120	0x3cd4f6eb	0.025996646
121	0xbac52cc0	-0.0015043244
122	0xbd19dd73	-0.037564706
123	0xbb33c3b3	-0.0027429878
124	0xbd260d45	-0.04054
125	0xbd3b5148	-0.045731813
126	0x3b689807	0.0035491006
127	0xbd56b716	-0.052420698
128	0xbd37c06a	-0.044861235
129	0xbd180626	-0.03711524
130	0x3c6cb9f2	0.01444863
131	0xbb4f02c5	-0.0031587344
132	0xbcaa6600	-0.02080059
133	0x3cd587e3	0.026065772
134	0x3d3548a0	0.044258714
135	0xbc890faa	-0.016731102
136	0xbbbb1b38	-0.005710032
137	0xbccbb74c	-0.024867676
138	0x3a8b36e8	0.0010621222
139	0x3d2cc4ef	0.042179998
140	0x3d9cdbd2	0.07659115
141	0x3cda5c9e	0.026655491
142	0x3d3f0cd9	0.04664311
143	0xbc316a46	-0.01082856
144	0xbc2a9200	-0.010410786
145	0xbcab4a0e	-0.020909335
146	0x3d4f3e79	0.050596688
147	0xbaf2306b	-0.0018477564
148	0xbd823cc4	-0.063592464
149	0xbcabb742	-0.020961408
150	0xbd0086e4	-0.03137864
151	0xbd669034	-0.056289867
152	0xba86160f	-0.0010229963
153	0x3cf61ee5	0.030044029
154	0x3cdd4a3e	0.02701294
155	0xbd80d6ce	-0.06290971
156	0x3d4646ea	0.048407473
157	0xbd0735f4	-0.033010438
158	0xbcc4e03e	-0.024032708
159	0x3c3ba355	0.011452516
160	0xbbf7fbdc	-0.007567866
161	0x3c90bb0a	0.017667312
162	0xbd150938	-0.036385745
163	0xbd00b3a2	-0.03142131
164	0xbc803798	-0.01565151
165	0x3c86a222	0.016434733
166	0xbd0d142a	-0.034443058
167	0x3d333c82	0.043758877
168	0xbd654f14	-0.055983618
169	0xbccc0942	-0.024906758
170	0x3d677a8b	0.05651335
171	0xbcd31589	-0.025767105
172	0x3d947901	0.07249642
173	0x3c52a93a	0.01285773
174	0xbc2f43a5	-0.01069728
175	0x3d4f1eea	0.05056659
176	0xbb7c1506	-0.003846468
177	0xbcd0c691	-0.025485309
178	0x3cd24fab	0.025672754
179	0xbd954db2	-0.0729021
180	0x3c8e809f	0.017395316
181	0xbc56b173	-0.013103831
182	0x3d4f3929	0.05059162
183	0x3c83fc3f	0.016111491
184	0x3d0e237d	0.034701813
185	0x3cdc3de7	0.026884986
186	0xbcbb1e9c	-0.022841744
187	0xbba153b8	-0.00492331
188	0xbd90b5c5	-0.0706592
189	0x3d503852	0.05083496
190	0x3d08b1b6	0.033372603
191	0x3d86b000	0.06576538
192	0xbd60d181	-0.0548873
193	0x3a69c7c4	0.0008918012
194	0xbd3f6cd5	-0.04673465
195	0xbcec940b	-0.028879186
196	0xbcfd04dc	-0.030886106
197	0x3c621b30	0.013800427
198	0xbd14d24f	-0.03633338
199	0x3c60539e	0.013691811
200	0xbb1165b7	-0.002218587
201	0x3c906daf	0.017630426
202	0xbd747467	-0.059681322
203	0xbc8cb696	-0.017176908
204	0xbcceaa57	-0.025227709
205	0x3c8d430c	0.017243885
206	0xbc66d22b	-0.014088194
207	0x3d81e745	0.06342939
208	0x3b972e51	0.0046136756
209	0x3c86509a	0.016395856
210	0x3c502f36	0.012706568
211	0xbc493848	-0.012281485
212	0x3c0791bf	0.008274495
213	0xbc6a7726	-0.014310634
214	0xbc52f129	-0.01287488
215	0xbcbb0886	-0.022831213
216	0xbd6c65e5	-0.05771436
217	0xbd137e84	-0.036009327
218	0x3d9087c5	0.07057146
219	0xbcffd12e	-0.031227674
220	0xbccd7d34	-0.025084116
221	0x3cd0258c	0.025408529
222	0x3b8fa903	0.0043841614
223	0x3c89ca21	0.016820015
224	0xbcd6044e	-0.0261251
225	0x3c88869f	0.016665755
226	0xbd912dd1	-0.07088817
227	0x3c4a9757	0.012365184
228	0xbc9dd40c	-0.01926615
229	0xbc022f92	-0.007945912
230	0xbacb63fa	-0.0015517466
231	0x3c8f2987	0.017475856
232	0x3c8ebb38	0.017423257
233	0x3d4becf7	0.049786534
234	0x3cbbfa51	0.022946509
235	0xbd3a6983	-0.04551078
236	0x3c89a604	0.016802795
237	0xbc4305f3	-0.011903274
238	0xbcc8e846	-0.02452482
239	0x3c500b6e	0.012698038
240	0x3c6abc2f	0.014327093
241	0x3d55c887	0.05219319
242	0x3c6a21be	0.014290271
243	0x3c9d176b	0.019176206
244	0x3d4f5be7	0.050624754
245	0xbd986d2c	-0.07442698
246	0x3d1aebdd	0.037822593
247	0xbcc6540d	-0.02421
248	0x3c511d12	0.012763279
249	0xbcd6f376	-0.026239138
250	0xbd456c22	-0.048198827
251	0xbb5917d6	-0.003312578
252	0x3d3329ac	0.043740913
253	0xbcb81242	-0.022469644
254	0xbc0ba5a9	-0.008523383
255	0x3c3f9339	0.011692815

nnalign.in_layer.bias f4 [25]
0	0xb3bfb688	-8.927333e-08
1	0x3207d626	7.906726e-09
2	0x33482a30	4.6604498e-08
3	0xb51e430b	-5.8957147e-07
4	0x325b7eb2	1.2776285e-08
5	0xb302da90	-3.0466765e-08
6	0xb3d7b529	-1.00446705e-07
7	0xb2f1c67f	-2.8146358e-08
8	0x32f38132	2.8347674e-08
9	0xb29d59de	-1.8318072e-08
10	0xb4a47555	-3.063275e-07
11	0xb442b8a0	-1.8134824e-07
12	0xb24ed6fc	-1.203966e-08
13	0x34936ac6	2.7458572e-07
14	0xb3243d53	-3.824e-08
15	0xb300d34c	-2.9994496e-08
16	0x341e097f	1.4718351e-07
17	0xb1a2f215	-4.742342e-09
18	0x3416f121	1.4057561e-07
19	0xb3d258ed	-9.7950625e-08
20	0xb3a2f10e	-7.5875604e-08
21	0x33a6c324	7.765473e-08
22	0x328d5ab6	1.6455811e-08
23	0x32bb335f	2.1793026e-08
24	0x339d732a	7.3318304e-08

nnalign.out_layer.weight f4 [1, 25]
0	0xbe0dc871	-0.13845994
1	0x3dd8d43a	0.10587354
2	0xbdc625ee	-0.09675203
3	0xbde6f62d	-0.11277423
4	0x3d5f249c	0.054478273
5	0x3d37a58d	0.044835616
6	0xbdb5f19f	-0.08883976
7	0x3d6f7ba1	0.05846751
8	0x3de89027	0.1135562
9	0x3deeefc9	0.11666829
10	0xbdd16108	-0.10223585
11	0xbda7a7aa	-0.08186276
12	0x3d5258c1	0.051354174
13	0xbdd24eb0	-0.10268915
14	0xbdf3710f	-0.118867986
15	0xbde3d62d	-0.11124835
16	0xbdf108a6	-0.11769228
17	0xbdd8b68c	-0.10581693
18	0xbde95add	-0.11394284
19	0xbe005317	-0.12531696
20	0xbe04c9be	-0.12967584
21	0x3d8e215a	0.06939955
22	0x3dd01415	0.1016008
23	0xbdfc39f0	-0.12315738
24	0x3d8d5ebb	0.06902834

nnalign.bn1.weight f4 [25]
0	0x3f14f73f	0.5818977
1	0x3f1893f3	0.5960075
2	0x3f133213	0.5749828
3	0x3f1cd0e8	0.61256266
4	0x3f0b66a9	0.5445352
5	0x3f07dad2	0.5306827
6	0x3f114064	0.5673888
7	0x3f0b4edf	0.5441722
8	0x3f1df3d6	0.6170019
9	0x3f108ad7	0.5646185
10	0x3f153610	0.5828562
11	0x3f109a69	0.5648561
12	0x3f06a07c	0.5258863
13	0x3f188b55	0.59587604
14	0x3f1a3858	0.60242224
15	0x3f11bc87	0.56928295
16	0x3f1a411e	0.6025561
17	0x3f0d6841	0.55237204
18	0x3f194988	0.59877825
19	0x3f1a90e3	0.6037733
20	0x3f1dbe0d	0.6161812
21	0x3f0e6738	0.5562625
22	0x3f192b94	0.5983212
23	0x3f18ceef	0.59690756
24	0x3f0d7bba	0.55266917

nnalign.bn1.bias f4 [25]
0	0x3b9adb82	0.0047258744
1	0xbcdf34c4	-0.02724684
2	0xbc38c0c4	-0.011276428
3	0xbcc6d4a5	-0.024271319
4	0xbcbc3de8	-0.022978738
5	0xbc281071	-0.010257826
6	0xbb4062b6	-0.0029355711
7	0xbcb7974f	-0.022411017
8	0xbd6e66a9	-0.058203373
9	0xbb12a1f0	-0.0022374354
10	0xbcbcea51	-0.02306095
11	0x37cfbe03	2.4764804e-05
12	0x3b26fc10	0.002547983
13	0xbc7e9c81	-0.015540243
14	0xbce8c27b	-0.028413048
15	0x3c00a095	0.007850786
16	0xbba4495e	-0.005013629
17	0xbc0345c5	-0.00801224
18	0xbd0ec6dc	-0.034857616
19	0xbc9df1a6	-0.019280266
20	0xbca50a7f	-0.020146606
21	0xbd1d9f31	-0.038481895
22	0xbccb9705	-0.024852285
23	0xbc29992c	-0.01035146
24	0xbc9bd269	-0.01902123

nnalign.bn1.running_mean f4 [25]
0	0xbcd747e3	-0.026279395
1	0x3d9283b1	0.071540244
2	0x3d060898	0.03272304
3	0x3b0db29f	0.002162136
4	0x3c5b8b98	0.013399981
5	0xbdfef33a	-0.124487355
6	0xbc7e501b	-0.015522028
7	0x3c3e919e	0.0116313975
8	0x3d4b8c2c	0.049694225
9	0x3e3adf1e	0.18249175
10	0x3da9f4a5	0.08298615
11	0xbc45ef36	-0.012080958
12	0x3ba461a1	0.005016521
13	0x3bdfa9c2	0.0068256566
14	0x3d254881	0.04035235
15	0x3da5b9a0	0.08092046
16	0x3d1070c0	0.035263777
17	0xbe006300	-0.12537766
18	0x3ce51d93	0.027968204
19	0x3d760226	0.060060643
20	0x3d973374	0.07382861
21	0x3d82b400	0.063819885
22	0x3ad63039	0.0016341276
23	0x3bcc06d0	0.006226398
24	0x3b09d4c8	0.0021031369

nnalign.bn1.running_var f4 [25]
0	0x3e724032	0.23657301
1	0x3dcd140e	0.10013591
2	0x3dc26b3f	0.09493112
3	0x3b8e3938	0.004340317
4	0x3ca1a640	0.019732594
5	0x3dc3c93f	0.09559869
6	0x3e0400d1	0.12890936
7	0x3ca5f9f8	0.020260796
8	0x3d83d9d7	0.06438034
9	0x3e77a84f	0.24185298
10	0x3e147b8c	0.14500254
11	0x3d689200	0.05677986
12	0x3d5dc5b9	0.05414364
13	0x3b6e155f	0.0036328656
14	0x3dfea7ec	0.12434372
15	0x3e2c7610	0.16841912
16	0x3e0da2d3	0.13831644
17	0x3e5a57ca	0.21322551
18	0x3dcf0bee	0.10109697
19	0x3e022cc3	0.12712388
20	0x3df79204	0.12088397
21	0x3d231f5c	0.03982483
22	0x3d96988f	0.07353317
23	0x3d979cbe	0.07402943
24	0x3c0e24d7	0.0086757755

in_layer.weight f4 [25, 100]
0	0xbc0bbecc	-0.008529376
1	0x3ca1fbb1	0.019773336
2	0xbd9f32ad	-0.077733375
3	0xbcf1f54f	-0.029535918
4	0xbd1844aa	-0.03717486
5	0x3cbb985f	0.022899805
6	0x3cf49c94	0.029859819
7	0x3d5f4456	0.05450853
8	0xbc0f741b	-0.008755709
9	0x3ce31d1b	0.02772384
10	0x3c34c6d9	0.011033737
11	0xbc0b53e1	-0.008503885
12	0xbd39b99b	-0.045343023
13	0xbd026cab	-0.031841915
14	0xbd86f7c0	-0.06590223
15	0xbd1ab82a	-0.03777329
16	0x3bec351c	0.0072084796
17	0x3d5730ca	0.052536763
18	0xbc9a8828	-0.018863752
19	0xbc7710e1	-0.015079708
20	0x3cccadbc	0.024985187
21	0x3ca7be99	0.020476626
22	0xbca9d9b1	-0.020733686
23	0x3d81d811	0.063400395
24	0x3c202503	0.009774449
25	0x3a6e4c40	0.00090903416
26	0x3d01a9a5	0.031655926
27	0xbd2ca7ef	-0.04215234
28	0xbd1bb855	-0.03801759
29	0xbc891c06	-0.016736995
30	0xbd005831	-0.031334106
31	0x3cf6ac04	0.03011132
32	0xbd4a495e	-0.049386375
33	0xbd0cd8e8	-0.034386545
34	0xbd7682cf	-0.060183343
35	0xbd622d63	-0.055219065
36	0xbc9787af	-0.018497316
37	0x3d85f3b3	0.065406226
38	0x3d0c603a	0.034271456
39	0x3d099b00	0.033595085
40	0xbd1ede62	-0.0387863
41	0xbd05161e	-0.032491796
42	0x3d1b3cbe	0.037899725
43	0xbd80f57b	-0.06296822
44	0xbd820e06	-0.06350331
45	0xbd6c4ac4	-0.05768849
46	0x3c2d2daa	0.010569969
47	0x3d01086b	0.03150217
48	0xbc94ea74	-0.018178202
49	0x3a8391f8	0.0010038009
50	0x3d1e8c56	0.038708054
51	0x3d417d62	0.047238715
52	0x3d0f3d94	0.034970835
53	0x3cea4ca3	0.028600996
54	0x3d26a4cd	0.04068451
55	0xbd09cce8	-0.03364268
56	0x3cba369b	0.022731116
57	0xbd3eafa7	-0.046554234
58	0xbcef62ca	-0.029221911
59	0xbd39f695	-0.045401175
60	0x3d04f803	0.032463085
61	0x3c857949	0.016293185
62	0xbd3c4abf	-0.04596972
63	0x3cc9f92d	0.02465495
64	0x3d12b49d	0.035816777
65	0xbc8c8f3e	-0.017158147
66	0x3c833a97	0.016019149
67	0x3c64745d	0.013943759
68	0x3d5a2053	0.053253483
69	0x3db878c6	0.09007411
70	0xbd33545b	-0.04378162
71	0xbc243796	-0.010023018
72	0x3cbddf87	0.023177875
73	0x3d82fd61	0.063959844
74	0x3c7a4e5b	0.01527747
75	0x3d3d24bb	0.046177607
76	0x3c74f668	0.014951326
77	0xbdad869c	-0.0847294
78	0x3cec3d41	0.028837802
79	0xbce052ef	-0.027383296
80	0xbd8ba37d	-0.06818292
81	0x3d7f885a	0.062385894
82	0x3d49d526	0.04927554
83	0xbda751a1	-0.08169866
84	0x3c616cfa	0.013758892
85	0xbca91ae6	-0.020642709
86	0xbc1328d3	-0.008981901
87	0xbd32b4fa	-0.043629624
88	0x3d067727	0.032828476
89	0xbd266629	-0.04062477
90	0x3d0c2c43	0.0342219
91	0x3c9f78a0	0.019466698
92	0x3d5703f5	0.052494008
93	0x3cf138b2	0.02944598
94	0xbd3f987f	-0.04677629
95	0xbd5d4110	-0.054017127
96	0x3cf86504	0.030321606
97	0x3bfc07b6	0.007691349
98	0xbd4c4104	-0.04986669
99	0xbd05e970	-0.032693326
100	0x3d46c4bd	0.048527468
101	0x3d4690e7	0.048478033
102	0xbb0851fb	-0.0020800817
103	0xbd013a49	-0.031549726
104	0xbd2c73cc	-0.04210262
105	0x3c910b2c	0.017705522
106	0xbd5dcf50	-0.054152787
107	0xbd4eaba0	-0.050456643
108	0x3b1af840	0.0023646504
109	0x3be2556d	0.006907156
110	0xbcdb9a94	-0.026807107
111	0x3c7ddd31	0.015494631
112	0xbcd9b584	-0.026575811
113	0x3d5b0722	0.0534736
114	0x3cf9f288	0.030511156
115	0xbd2084ff	-0.039189335
116	0xbbefa41e	-0.0073132655
117	0x3c4945c3	0.012284699
118	0xbcb0d2d5	-0.021584908
119	0x3bc803de	0.0061039766
120	0x3cd4f6eb	0.025996646
121	0xbac52cc0	-0.0015043244
122	0xbd19dd73	-0.037564706
123	0xbb33c3b3	-0.0027429878
124	0xbd260d45	-0.04054
125	0xbd3b5148	-0.045731813
126	0x3b689807	0.0035491006
127	0xbd56b716	-0.052420698
128	0xbd37c06a	-0.044861235
129	0xbd180626	-0.03711524
130	0x3c6cb9f2	0.01444863
131	0xbb4f02c5	-0.0031587344
132	0xbcaa6600	-0.02080059
133	0x3cd587e3	0.026065772
134	0x3d3548a0	0.044258714
135	0xbc890faa	-0.016731102
136	0xbbbb1b38	-0.005710032
137	0xbccbb74c	-0.024867676
138	0x3a8b36e8	0.0010621222
139	0x3d2cc4ef	0.042179998
140	0x3d9cdbd2	0.07659115
141	0x3cda5c9e	0.026655491
142	0x3d3f0cd9	0.04664311
143	0xbc316a46	-0.01082856
144	0xbc2a9200	-0.010410786
145	0xbcab4a0e	-0.020909335
146	0x3d4f3e79	0.050596688
147	0xbaf2306b	-0.0018477564
148	0xbd823cc4	-0.063592464
149	0xbcabb742	-0.020961408
150	0xbd0086e4	-0.03137864
151	0xbd669034	-0.056289867
152	0xba86160f	-0.0010229963
153	0x3cf61ee5	0.030044029
154	0x3cdd4a3e	0.02701294
155	0xbd80d6ce	-0.06290971
156	0x3d4646ea	0.048407473
157	0xbd0735f4	-0.033010438
158	0xbcc4e03e	-0.024032708
159	0x3c3ba355	0.011452516
160	0xbbf7fbdc	-0.007567866
161	0x3c90bb0a	0.017667312
162	0xbd150938	-0.036385745
163	0xbd00b3a2	-0.03142131
164	0xbc803798	-0.01565151
165	0x3c86a222	0.016434733
166	0xbd0d142a	-0.034443058
167	0x3d333c82	0.043758877
168	0xbd654f14	-0.055983618
169	0xbccc0942	-0.024906758
170	0x3d677a8b	0.05651335
171	0xbcd31589	-0.025767105
172	0x3d947901	0.07249642
173	0x3c52a93a	0.01285773
174	0xbc2f43a5	-0.01069728
175	0x3d4f1eea	0.05056659
176	0xbb7c1506	-0.003846468
177	0xbcd0c691	-0.025485309
178	0x3cd24fab	0.025672754
179	0xbd954db2	-0.0729021
180	0x3c8e809f	0.017395316
181	0xbc56b173	-0.013103831
182	0x3d4f3929	0.05059162
183	0x3c83fc3f	0.016111491
184	0x3d0e237d	0.034701813
185	0x3cdc3de7	0.026884986
186	0xbcbb1e9c	-0.022841744
187	0xbba153b8	-0.00492331
188	0xbd90b5c5	-0.0706592
189	0x3d503852	0.05083496
190	0x3d08b1b6	0.033372603
191	0x3d86b000	0.06576538
192	0xbd60d181	-0.0548873
193	0x3a69c7c4	0.0008918012
194	0xbd3f6cd5	-0.04673465
195	0xbcec940b	-0.028879186
196	0xbcfd04dc	-0.030886106
197	0x3c621b30	0.013800427
198	0xbd14d24f	-0.03633338
199	0x3c60539e	0.013691811
200	0xbb1165b7	-0.002218587
201	0x3c906daf	0.017630426
202	0xbd747467	-0.059681322
203	0xbc8cb696	-0.017176908
204	0xbcceaa57	-0.025227709
205	0x3c8d430c	0.017243885
206	0xbc66d22b	-0.014088194
207	0x3d81e745	0.06342939
208	0x3b972e51	0.0046136756
209	0x3c86509a	0.016395856
210	0x3c502f36	0.012706568
211	0xbc493848	-0.012281485
212	0x3c0791bf	0.008274495
213	0xbc6a7726	-0.014310634
214	0xbc52f129	-0.01287488
215	0xbcbb0886	-0.022831213
216	0xbd6c65e5	-0.05771436
217	0xbd137e84	-0.036009327
218	0x3d9087c5	0.07057146
219	0xbcffd12e	-0.031227674
220	0xbccd7d34	-0.025084116
221	0x3cd0258c	0.025408529
222	0x3b8fa903	0.0043841614
223	0x3c89ca21	0.016820015
224	0xbcd6044e	-0.0261251
225	0x3c88869f	0.016665755
226	0xbd912dd1	-0.07088817
227	0x3c4a9757	0.012365184
228	0xbc9dd40c	-0.01926615
229	0xbc022f92	-0.007945912
230	0xbacb63fa	-0.0015517466
231	0x3c8f2987	0.017475856
232	0x3c8ebb38	0.017423257
233	0x3d4becf7	0.049786534
234	0x3cbbfa51	0.022946509
235	0xbd3a6983	-0.04551078
236	0x3c89a604	0.016802795
237	0xbc4305f3	-0.011903274
238	0xbcc8e846	-0.02452482
239	0x3c500b6e	0.012698038
240	0x3c6abc2f	0.014327093
241	0x3d55c887	0.05219319
242	0x3c6a21be	0.014290271
243	0x3c9d176b	0.019176206
244	0x3d4f5be7	0.050624754
245	0xbd986d2c	-0.07442698
246	0x3d1aebdd	0.037822593
247	0xbcc6540d	-0.02421
248	0x3c511d12	0.012763279
249	0xbcd6f376	-0.026239138
250	0xbd456c22	-0.048198827
251	0xbb5917d6	-0.003312578
252	0x3d3329ac	0.043740913
253	0xbcb81242	-0.022469644
254	0xbc0ba5a9	-0.008523383
255	0x3c3f9339	0.011692815

in_layer.bias f4 [25]
0	0xb3bfb688	-8.927333e-08
1	0x3207d626	7.906726e-09
2	0x33482a30	4.6604498e-08
3	0xb51e430b	-5.8957147e-07
4	0x325b7eb2	1.2776285e-08
5	0xb302da90	-3.0466765e-08
6	0xb3d7b529	-1.00446705e-07
7	0xb2f1c67f	-2.8146358e-08
8	0x32f38132	2.8347674e-08
9	0xb29d59de	-1.8318072e-08
10	0xb4a47555	-3.063275e-07
11	0xb442b8a0	-1.8134824e-07
12	0xb24ed6fc	-1.203966e-08
13	0x34936ac6	2.7458572e-07
14	0xb3243d53	-3.824e-08
15	0xb300d34c	-2.9994496e-08
16	0x341e097f	1.4718351e-07
17	0xb1a2f215	-4.742342e-09
18	0x3416f121	1.4057561e-07
19	0xb3d258ed	-9.7950625e-08
20	0xb3a2f10e	-7.5875604e-08
21	0x33a6c324	7.765473e-08
22	0x328d5ab6	1.6455811e-08
23	0x32bb335f	2.1793026e-08
24	0x339d732a	7.3318304e-08

out_layer.weight f4 [1, 25]
0	0xbe0dc871	-0.13845994
1	0x3dd8d43a	0.10587354
2	0xbdc625ee	-0.09675203
3	0xbde6f62d	-0.11277423
4	0x3d5f249c	0.054478273
5	0x3d37a58d	0.044835616
6	0xbdb5f19f	-0.08883976
7	0x3d6f7ba1	0.05846751
8	0x3de89027	0.1135562
9	0x3deeefc9	0.11666829
10	0xbdd16108	-0.10223585
11	0xbda7a7aa	-0.08186276
12	0x3d5258c1	0.051354174
13	0xbdd24eb0	-0.10268915
14	0xbdf3710f	-0.118867986
15	0xbde3d62d	-0.11124835
16	0xbdf108a6	-0.11769228
17	0xbdd8b68c	-0.10581693
18	0xbde95add	-0.11394284
19	0xbe005317	-0.12531696
20	0xbe04c9be	-0.12967584
21	0x3d8e215a	0.06939955
22	0x3dd01415	0.1016008
23	0xbdfc39f0	-0.12315738
24	0x3d8d5ebb	0.06902834

bn1.weight f4 [25]
0	0x3f14f73f	0.5818977
1	0x3f1893f3	0.5960075
2	0x3f133213	0.5749828
3	0x3f1cd0e8	0.61256266
4	0x3f0b66a9	0.5445352
5	0x3f07dad2	0.5306827
6	0x3f114064	0.5673888
7	0x3f0b4edf	0.5441722
8	0x3f1df3d6	0.6170019
9	0x3f108ad7	0.5646185
10	0x3f153610	0.5828562
11	0x3f109a69	0.5648561
12	0x3f06a07c	0.5258863
13	0x3f188b55	0.59587604
14	0x3f1a3858	0.60242224
15	0x3f11bc87	0.56928295
16	0x3f1a411e	0.6025561
17	0x3f0d6841	0.55237204
18	0x3f194988	0.59877825
19	0x3f1a90e3	0.6037733
20	0x3f1dbe0d	0.6161812
21	0x3f0e6738	0.5562625
22	0x3f192b94	0.5983212
23	0x3f18ceef	0.59690756
24	0x3f0d7bba	0.55266917

bn1.bias f4 [25]
0	0x3b9adb82	0.0047258744
1	0xbcdf34c4	-0.02724684
2	0xbc38c0c4	-0.011276428
3	0xbcc6d4a5	-0.024271319
4	0xbcbc3de8	-0.022978738
5	0xbc281071	-0.010257826
6	0xbb4062b6	-0.0029355711
7	0xbcb7974f	-0.022411017
8	0xbd6e66a9	-0.058203373
9	0xbb12a1f0	-0.0022374354
10	0xbcbcea51	-0.02306095
11	0x37cfbe03	2.4764804e-05
12	0x3b26fc10	0.002547983
13	0xbc7e9c81	-0.015540243
14	0xbce8c27b	-0.028413048
15	0x3c00a095	0.007850786
16	0xbba4495e	-0.005013629
17	0xbc0345c5	-0.00801224
18	0xbd0ec6dc	-0.034857616
19	0xbc9df1a6	-0.019280266
20	0xbca50a7f	-0.020146606
21	0xbd1d9f31	-0.038481895
22	0xbccb9705	-0.024852285
23	0xbc29992c	-0.01035146
24	0xbc9bd269	-0.01902123

bn1.running_mean f4 [25]
0	0xbcd747e3	-0.026279395
1	0x3d9283b1	0.071540244
2	0x3d060898	0.03272304
3	0x3b0db29f	0.002162136
4	0x3c5b8b98	0.013399981
5	0xbdfef33a	-0.124487355
6	0xbc7e501b	-0.015522028
7	0x3c3e919e	0.0116313975
8	0x3d4b8c2c	0.049694225
9	0x3e3adf1e	0.18249175
10	0x3da9f4a5	0.08298615
11	0xbc45ef36	-0.012080958
12	0x3ba461a1	0.005016521
13	0x3bdfa9c2	0.0068256566
14	0x3d254881	0.04035235
15	0x3da5b9a0	0.08092046
16	0x3d1070c0	0.035263777
17	0xbe006300	-0.12537766
18	0x3ce51d93	0.027968204
19	0x3d760226	0.060060643
20	0x3d973374	0.07382861
21	0x3d82b400	0.063819885
22	0x3ad63039	0.0016341276
23	0x3bcc06d0	0.006226398
24	0x3b09d4c8	0.0021031369

bn1.running_var f4 [25]
0	0x3e724032	0.23657301
1	0x3dcd140e	0.10013591
2	0x3dc26b3f	0.09493112
3	0x3b8e3938	0.004340317
4	0x3ca1a640	0.019732594
5	0x3dc3c93f	0.09559869
6	0x3e0400d1	0.12890936
7	0x3ca5f9f8	0.020260796
8	0x3d83d9d7	0.06438034
9	0x3e77a84f	0.24185298
10	0x3e147b8c	0.14500254
11	0x3d689200	0.05677986
12	0x3d5dc5b9	0.05414364
13	0x3b6e155f	0.0036328656
14	0x3dfea7ec	0.12434372
15	0x3e2c7610	0.16841912
16	0x3e0da2d3	0.13831644
17	0x3e5a57ca	0.21322551
18	0x3dcf0bee	0.10109697
19	0x3e022cc3	0.12712388
20	0x3df79204	0.12088397
21	0x3d231f5c	0.03982483
22	0x3d96988f	0.07353317
23	0x3d979cbe	0.07402943
24	0x3c0e24d7	0.0086757755

mu f4 [100]
0	0xbf293550	-0.66096973
1	0xbfb34979	-1.4006797
2	0xbf9a3905	-1.2048651
3	0xbfe0db2e	-1.7566888
4	0xc002e5e1	-2.0452807
5	0xbf32ed56	-0.69893396
6	0xbf97d662	-1.18623
7	0xbffb8441	-1.9649736
8	0xbf98b241	-1.1929399
9	0xbf6fed01	-0.93721014
10	0xbf4b6a2d	-0.79458886
11	0xbf82aec4	-1.0209584
12	0xbea52764	-0.32256615
13	0xbf992472	-1.1964247
14	0xbfd585c4	-1.6681447
15	0xbf1dfdf4	-0.61715627
16	0xbee9d0c8	-0.456671
17	0xc00ec7b9	-2.23094
18	0xbf403329	-0.75078064
19	0xbf561832	-0.8363067
20	0xbf28e1cf	-0.65969557
21	0xbfc2adf6	-1.5209339
22	0xbf997a89	-1.199052
23	0xbfdb1d87	-1.7118386
24	0xc001489a	-2.0200562
25	0xbf3c0c33	-0.73456115
26	0xbf9a4be4	-1.205441
27	0xbff8be49	-1.943307
28	0xbfa32473	-1.2745498
29	0xbf668ac9	-0.9005552
30	0xbf460bc3	-0.77361697
31	0xbf8dc2e6	-1.1075103
32	0xbea7666f	-0.32695338
33	0xbfa1e4b0	-1.2647915
34	0xbfca78f4	-1.5818162
35	0xbf1edf66	-0.6205963
36	0xbedd000f	-0.43164107
37	0xc012ad22	-2.2918172
38	0xbf5a4ba2	-0.85271657
39	0xbf4e4fd3	-0.8059055
40	0xbf22058a	-0.632897
41	0xbfb945dc	-1.4474444
42	0xbf84f36f	-1.038679
43	0xbfca0958	-1.5784101
44	0xc0006777	-2.006315
45	0xbf31799a	-0.69326174
46	0xbf8e4276	-1.1114032
47	0xbfe979ac	-1.8240256
48	0xbf93c572	-1.154463
49	0xbf8c4fea	-1.0961888
50	0xbf86ba88	-1.0525675
51	0xbf81c5cd	-1.0138489
52	0xbf0b0884	-0.5430987
53	0xbfac4296	-1.345782
54	0xbfc584b3	-1.5431122
55	0xbf05dff6	-0.5229486
56	0xbedf2e0c	-0.43589818
57	0xc012d891	-2.2944682
58	0xbf597209	-0.8493963
59	0xbf74cac0	-0.9562187
60	0xbf1c91c1	-0.611599
61	0xbfb5c8db	-1.4201921
62	0xbf807057	-1.0034283
63	0xbfc3b89d	-1.5290715
64	0xc0008542	-2.0081334
65	0xbf29dd3b	-0.66353196
66	0xbf842444	-1.0323567
67	0xbfe2cf53	-1.771952
68	0xbf91fce2	-1.1405299
69	0xbf987aa7	-1.191243
70	0xbf930c58	-1.1488142
71	0xbf7619c3	-0.9613306
72	0xbf23a153	-0.63918036
73	0xbfb7ba50	-1.4353733
74	0xbfb3a3c4	-1.4034352
75	0xbef1b9a3	-0.47211942
76	0xbecd42cf	-0.40090033
77	0xc0189d19	-2.3845885
78	0xbf6d7995	-0.92763644
79	0xbf82f8ef	-1.0232219
80	0xbf380c5e	-0.7189387
81	0xbfc3a003	-1.5283207
82	0xbfb07f14	-1.3788781
83	0xbffee1bd	-1.991264
84	0xbffe3dcc	-1.9862609
85	0xbf67383c	-0.9032018
86	0xbfacd9b0	-1.3503933
87	0xc0060318	-2.0939388
88	0xbfab4291	-1.337969
89	0xbf2e266a	-0.68027365
90	0xbf1dd56d	-0.61653787
91	0xbf91d0a5	-1.1391798
92	0xbe89c923	-0.26911268
93	0xbf7f13bf	-0.99639505
94	0xbfe0ac69	-1.7552615
95	0xbf49bf96	-0.7880796
96	0xbefbd526	-0.49186057
97	0xc00d7766	-2.2104125
98	0xbf3386ca	-0.70127547
99	0xbf190750	-0.59776783

sigma f4 [100]
0	0x3fd8a711	1.6925985
1	0x4015278c	2.3305387
2	0x400da5a5	2.2132351
3	0x40298afc	2.649108
4	0x40076eaa	2.1161294
5	0x40004736	2.0043464
6	0x40093936	2.1441169
7	0x4024587d	2.567901
8	0x400c9557	2.196615
9	0x402d8988	2.7115192
10	0x4033642c	2.802989
11	0x400b5a85	2.1773999
12	0x400a527f	2.1612852
13	0x403c121b	2.938605
14	0x402c4ffc	2.6923819
15	0x4008f6c7	2.140062
16	0x3fbcfdb9	1.476493
17	0x4029172b	2.642039
18	0x400dff16	2.2186942
19	0x401a8110	2.4141273
20	0x3fd4ef07	1.6635445
21	0x4011973a	2.2748551
22	0x40102103	2.2520149
23	0x402bfde3	2.687371
24	0x40095fb3	2.146466
25	0x40000a76	2.0006385
26	0x400b102e	2.1728625
27	0x402671a3	2.6006858
28	0x400c5c03	2.193116
29	0x402f1a8e	2.7359958
30	0x4035dd84	2.8416452
31	0x40065efc	2.0995474
32	0x400b71d4	2.1788225
33	0x4038adc4	2.8856058
34	0x40326acc	2.7877684
35	0x40091580	2.1419373
36	0x3fbe495f	1.4866141
37	0x40290b1d	2.6413033
38	0x4009f508	2.1555805
39	0x401c1e04	2.439332
40	0x3fd6f074	1.679213
41	0x40121be6	2.2829528
42	0x4010624c	2.2559996
43	0x402ce080	2.7012024
44	0x400e2d8c	2.22153
45	0x40014eb0	2.0204277
46	0x400b58e6	2.177301
47	0x402796da	2.6185822
48	0x400e839c	2.2267828
49	0x402e915c	2.727622
50	0x402df097	2.7178094
51	0x400781ce	2.1172976
52	0x4003e4bc	2.0608358
53	0x403e2930	2.971264
54	0x402df0c6	2.7178206
55	0x4007ef3d	2.123977
56	0x3fc05f69	1.5029117
57	0x402ea091	2.7285502
58	0x400ce2e1	2.2013476
59	0x401dc345	2.4650433
60	0x3fd452f5	1.6587816
61	0x4011b1f0	2.2764854
62	0x400dfc38	2.2185192
63	0x4027634f	2.6154363
64	0x400e45d3	2.2230117
65	0x4000e8ef	2.0142171
66	0x400d2b2e	2.2057605
67	0x4028c82e	2.637218
68	0x400df15d	2.2178566
69	0x402d048d	2.7034028
70	0x402cb807	2.6987321
71	0x4006ab35	2.1041996
72	0x40005336	2.0050788
73	0x403cae40	2.9481354
74	0x4033f596	2.8118644
75	0x4006709a	2.1006227
76	0x3fc37fc4	1.5273366
77	0x402993c8	2.6496449
78	0x400a8df4	2.1649141
79	0x401cd3a2	2.450417
80	0x3fd48171	1.6602002
81	0x40166072	2.3496366
82	0x401258a9	2.2866614
83	0x402892a3	2.63395
84	0x4006696d	2.1001847
85	0x4002eeaf	2.045818
86	0x400b48d2	2.1763196
87	0x402a34ae	2.6594653
88	0x40114316	2.2697196
89	0x403070dd	2.7568886
90	0x4032afd6	2.7919822
91	0x40132413	2.2990768
92	0x4002c5a1	2.0433123
93	0x403fbd6c	2.9959364
94	0x402f698d	2.7408173
95	0x40077bb8	2.1169262
96	0x3fb9d127	1.4516953
97	0x4026029a	2.5939088
98	0x400e1233	2.2198608
99	0x402169b3	2.5220764

mu f4 [2]
0	0x3f9d92cb	1.2310423
1	0x3f72d169	0.94850785

sigma f4 [2]
0	0x400c457f	2.1917417
1	0x3cf9b4a7	0.03048165
