output/KFold_XX_240229_1613_None/checkpoint_best_KFold_XX_240229_1613_None.pt (torch, 10016 bytes, 3 tensors)

in_layer.weight f4 [10, 180]
0	0x3e1034be	0.1408262
1	0xbddcd4dc	-0.10782787
2	0xbd133109	-0.035935435
3	0x3d981cbe	0.07427357
4	0x3d811ca4	0.06304291
5	0xbdf9de81	-0.122006424
6	0x3d78f1dd	0.060777534
7	0x3dc64be8	0.09682447
8	0x3e097bfd	0.13426204
9	0xbd3d8332	-0.046267696
10	0xbd1f4746	-0.03888633
11	0xbd76892f	-0.060189422
12	0xbc4c5d96	-0.0124734845
13	0x3ba7b474	0.0051179472
14	0xbdb2b544	-0.0872598
15	0x3dea1f0f	0.11431705
16	0x3d44d0f1	0.048050825
17	0xbc0539c2	-0.008131446
18	0x3cf8d47c	0.030374758
19	0x3d87680f	0.066116445
20	0xbd6c6788	-0.057715923
21	0xbb072f4c	-0.0020627556
22	0xbd2a2579	-0.041539643
23	0x3df53e7f	0.11974811
24	0x3cb82782	0.022479776
25	0x3df4e0b0	0.11956918
26	0x3e6c4be9	0.23075832
27	0xbd611199	-0.054948423
28	0x3d8f7fb2	0.07006778
29	0xbdb17f15	-0.08666817
30	0x3c9f9f5d	0.01948517
31	0xbd8608d3	-0.06544652
32	0xbd7eda7d	-0.062220085
33	0x3d1db274	0.038500264
34	0x3e2b038d	0.16700573
35	0xbd73f20d	-0.05955701
36	0xbcca2af5	-0.024678687
37	0xbcbfe66d	-0.023425305
38	0x3cc861bd	0.024460668
39	0xbc5a906f	-0.0133401
40	0x3e50d3e8	0.20393336
41	0xbcf15f1c	-0.029464297
42	0x3dbd6486	0.09247689
43	0xbd478933	-0.048714828
44	0x3d84b9c1	0.06480742
45	0xbcf938d1	-0.0304226
46	0xbd51fda4	-0.05126728
47	0x3bd3eada	0.0064672055
48	0xbbbcb7ab	-0.0057591996
49	0x3d8b0f2c	0.06790003
50	0x3ca8cfbb	0.020606866
51	0xbda6231f	-0.081121676
52	0x3c887632	0.016657922
53	0x3d530bf4	0.05152507
54	0xbbff9bf5	-0.007800574
55	0x3da49fb4	0.080382735
56	0x3da2f051	0.07955993
57	0xbc099bc0	-0.00839895
58	0x3d38c153	0.045106243
59	0xbba4e41a	-0.0050320746
60	0x3c96b0b4	0.018394805
61	0x3dccc06f	0.09997641
62	0x3b9c4cbe	0.0047698906
63	0x3d483a5a	0.048883773
64	0x3be802ae	0.0070803976
65	0x3dbcea08	0.092243254
66	0x3d302fc5	0.043014307
67	0x3db68c81	0.08913518
68	0x3c28a06d	0.010292155
69	0x3c9202ad	0.017823542
70	0x3d15aa7b	0.036539536
71	0xbd7082eb	-0.058718603
72	0x3cdf27a3	0.02724058
73	0xbd118244	-0.03552462
74	0xbc0505a0	-0.008119017
75	0xbbc6dbc1	-0.006068677
76	0xbd76a375	-0.06021448
77	0x3d32c7db	0.04364763
78	0x3c3a72ab	0.011379878
79	0xbcbcf8eb	-0.023067912
80	0x3cce7dff	0.025206564
81	0xbdd27e54	-0.102780014
82	0xbca82699	-0.020526217
83	0xbcfe5346	-0.031045567
84	0xbbd56eb6	-0.006513442
85	0x3d0df785	0.03465988
86	0xbda2476c	-0.07923779
87	0x3dbd2510	0.09235585
88	0xbd3497e8	-0.04409018
89	0x3d59e1b8	0.053193778
90	0x3d3bef5d	0.04588257
91	0x3bf753b6	0.007547821
92	0x3c6bf72d	0.014402193
93	0x3d493c86	0.049129985
94	0xbc0e47d0	-0.008684114
95	0xbc1c5c26	-0.009543454
96	0xbc1fb10c	-0.009746801
97	0xbb89e2e7	-0.004207957
98	0x3c6dc7cd	0.014512968
99	0x3d840d2e	0.06447826
100	0xbd6aea52	-0.05735237
101	0x3dfc37e7	0.1231535
102	0xbc0ab425	-0.008465801
103	0xbd739820	-0.05947125
104	0x3d02fedf	0.031981345
105	0x3d80419f	0.06262516
106	0xbd1ff101	-0.0390482
107	0xbd4ebf97	-0.050475683
108	0x3dc26b1f	0.09493088
109	0xbcd7b409	-0.026330965
110	0xbd554a81	-0.052073006
111	0xbb95b139	-0.0045682457
112	0x3c9310a1	0.017952265
113	0x3dd5a00d	0.10430918
114	0xbafc1ed6	-0.0019235264
115	0x3beeac69	0.0072837365
116	0xbd441c28	-0.047878414
117	0xbc68fab4	-0.0142199285
118	0x3dcccf60	0.10000491
119	0x3bec1465	0.0072045797
120	0xbd245c71	-0.04012722
121	0x3ddee499	0.10883445
122	0x3d5963d0	0.053073704
123	0xbcb9d181	-0.022682907
124	0xbcdb7fd1	-0.026794346
125	0x3d29a307	0.04141524
126	0xbc58c7e7	-0.013231254
127	0xbda3aa7e	-0.07991503
128	0x3d4e40db	0.05035482
129	0x3b9786ad	0.004624209
130	0x3c8d366e	0.017237868
131	0x3df9be4b	0.12194499
132	0xbce6b57a	-0.028162707
133	0xbd87b69b	-0.06626626
134	0x3d0b84dd	0.034062255
135	0xbd3b5a86	-0.045740627
136	0xbcc7c411	-0.024385484
137	0xbd418319	-0.047244165
138	0x3c81cb55	0.015844027
139	0x3c75d867	0.015005208
140	0xbd2172d8	-0.039416164
141	0xbd12bf2e	-0.035826854
142	0xbd93afea	-0.07211287
143	0xbda604d4	-0.0810639
144	0xbd21599e	-0.039392106
145	0x3b272863	0.002550625
146	0xbdea513f	-0.11441278
147	0x3d8d03f9	0.06885523
148	0x3e44ddcf	0.19225238
149	0x3d373715	0.044730265
150	0x3d9f70b3	0.077851675
151	0x3b2eede6	0.0026692091
152	0xbd48b81b	-0.0490037
153	0x3cb0ba62	0.02157325
154	0x3d5c695b	0.053811412
155	0xbd1bff9b	-0.03808556
156	0x3bed043e	0.0072331717
157	0x3d4f5195	0.050614912
158	0x3cece881	0.02891946
159	0x3bee3e2d	0.0072705955
160	0xbc8ea4bc	-0.017412536
161	0xba0c846b	-0.0005360308
162	0x3d057c6b	0.032589357
163	0xbc00d956	-0.007864317
164	0xbcdc1f83	-0.026870495
165	0xbd9afb38	-0.075674474
166	0xbd6e7dc8	-0.058225423
167	0x3cad3cee	0.021147218
168	0x3cae9cd6	0.02131502
169	0x3d653103	0.055954944
170	0xbcfb7950	-0.030697495
171	0xbdab9a2e	-0.08379017
172	0xbd864fa9	-0.06558163
173	0xbb084d32	-0.0020797965
174	0x3c8b71ee	0.0170221
175	0xbd823674	-0.06358042
176	0xbd324fd7	-0.043533172
177	0xbc941c62	-0.01807994
178	0x3dc28abb	0.09499117
179	0x3d2a4337	0.041568007
180	0xbc91aeef	-0.01778361
181	0xbd0f9106	-0.035050415
182	0x3da0c2fb	0.078496896
183	0x3c91c4b2	0.017793987
184	0xbd1a83ad	-0.037723232
185	0x3d24089d	0.040047277
186	0x3de1d849	0.11027581
187	0x3c13acaf	0.009013339
188	0x3ddf569e	0.10905193
189	0x3d9b671d	0.07588027
190	0xbccaed75	-0.024771431
191	0xbd9e6fa8	-0.077361405
192	0x3d4e1b69	0.05031911
193	0xbcf85ca1	-0.030317606
194	0xbdcbc2e3	-0.09949281
195	0xbd06121c	-0.032732114
196	0x3d8bc4ba	0.06824632
197	0xbcc41253	-0.023934519
198	0xbcbe44b9	-0.023226129
199	0x3d834acb	0.0641075
200	0x3d9a2b02	0.07527734
201	0xbd8ce220	-0.068790674
202	0x3dab37e2	0.08360268
203	0x3e01f7a6	0.12692127
204	0x3d538b80	0.05164671
205	0x3cdf0b44	0.027227052
206	0x3dbd9b9a	0.09258194
207	0x3d12f2ca	0.035876073
208	0x3d6e9596	0.058248125
209	0xbde1855f	-0.11011767
210	0xbbbddc58	-0.0057940893
211	0xbdd4747b	-0.103737794
212	0xbcc43836	-0.023952585
213	0x3d5baea5	0.05363335
214	0xbb67a684	-0.0035347054
215	0x3ded25bc	0.11579463
216	0x3c920a28	0.017827109
217	0xbd0adeb2	-0.033903785
218	0xbd931009	-0.07180793
219	0x3d3015ba	0.04298947
220	0x3e03e3ea	0.12879911
221	0xbd12048c	-0.035648867
222	0x3d86394e	0.06553899
223	0x3da72aa5	0.08162431
224	0x3d320cf9	0.043469403
225	0x3cf542db	0.029939106
226	0x3d86972b	0.06571802
227	0x3c45ab00	0.012064695
228	0x3d8b34c5	0.06797174
229	0xbd39b8d3	-0.045342278
230	0xbca0d1f4	-0.019631363
231	0xb963b187	-0.00021714541
232	0xbcc5725c	-0.024102382
233	0x3d18a26e	0.03726428
234	0x3bab3cdf	0.0052257623
235	0x3dbd29e9	0.09236509
236	0x3db435ee	0.08799349
237	0xbcaff6fe	-0.02148008
238	0xbc05fc64	-0.00817785
239	0x3d25b85e	0.04045903
240	0x3b9c5253	0.004770556
241	0x3cd01951	0.025402697
242	0xbceb656d	-0.028734887
243	0x3c51120a	0.0127606485
244	0xbb4a2cb6	-0.0030849404
245	0xbd1a9bc5	-0.03774621
246	0xbe04737c	-0.12934679
247	0x3bc7f9d1	0.0061027785
248	0xbc7649c6	-0.015032237
249	0x3d26a588	0.040685207
250	0xbce1d7d3	-0.027568733
251	0xbd273ecb	-0.04083137
252	0xbc4c9cef	-0.012488588
253	0xbc56f12a	-0.013119021
254	0xbb4d5b44	-0.0031334916
255	0x3b3cc4f5	0.002880392

in_layer.bias f4 [10]
0	0xbc51b087	-0.012798435
1	0x3b28cfaf	0.0025758555
2	0xbd856c4b	-0.06514796
3	0xbc9ddf3f	-0.019271491
4	0x3ce8b018	0.02840428
5	0xbd00a275	-0.03140493
6	0xbb9822d8	-0.0046428256
7	0x3ce0af12	0.02742723
8	0xbc6e9945	-0.0145629095
9	0x3cbf5805	0.0233574

out_layer.weight f4 [1, 10]
0	0x3ea02eac	0.31285608
1	0x3ecd8662	0.40141588
2	0x3ebd8cf4	0.370216
3	0x3e7a5ef1	0.2445028
4	0xbec620ce	-0.38696903
5	0x3e91c6ac	0.28471887
6	0x3e9e665e	0.30937475
7	0xbeb88a9b	-0.36043248
8	0x3e8e66f0	0.2781291
9	0xbe85acff	-0.26108548
