output/231110_complete_do0.1/CSL_complete_burn_60nh_do0.1_all_KFold_4_231110_1535_None/checkpoint_best_kcv_train_all5_correct_f04_CSL_complete_burn_60nh_do0.1_all_KFold_4_231110_1535_None.pt (torch, 221535 bytes, 3 tensors)

in_layer.weight f4 [60, 914]
0	0x3964af4d	0.00021809079
1	0x382a16cb	4.0552386e-05
2	0x39560cb0	0.00020413357
3	0x39594db0	0.00020723674
4	0x3855a476	5.0936324e-05
5	0x38db2a0f	0.00010450568
6	0x378b84e6	1.6631977e-05
7	0x396df868	0.0002269462
8	0xb861727d	-5.3750806e-05
9	0x39afefda	0.00033557304
10	0x39079c1d	0.0001293276
11	0x390965c8	0.00013103255
12	0x39f4408c	0.00046587398
13	0xb9d7a3de	-0.00041130086
14	0x3996142c	0.0002862526
15	0x38ea4468	0.00011170731
16	0x39e25934	0.0004317254
17	0x3983d892	0.00025147625
18	0xb997381a	-0.00028842763
19	0x39ea1b2d	0.00044652206
20	0x398292e4	0.00024904974
21	0xba0cbd9a	-0.0005368829
22	0xb9a5725d	-0.0003155646
23	0xb981d2a9	-0.0002476175
24	0x3968323f	0.00022143962
25	0xb9ec797e	-0.00045103946
26	0xba30f498	-0.00067503145
27	0x3923d9c8	0.00015626021
28	0xb99f3c7c	-0.00030371908
29	0x3a2e5e0d	0.0006651588
30	0x39edbe5a	0.00045345986
31	0xba0cdbac	-0.000537331
32	0x3a3fd708	0.0007318114
33	0x38b1e8be	8.483369e-05
34	0x38d1748c	9.987605e-05
35	0xba071700	-0.00051532686
36	0xb93e7218	-0.00018162315
37	0x3944092f	0.00018695438
38	0xb8472762	-4.7481975e-05
39	0x3a399144	0.0007078836
40	0xba02996a	-0.0004981967
41	0x398b5c80	0.00026581064
42	0x39e91060	0.00044453423
43	0x39663980	0.0002195593
44	0xb8c1f51a	-9.248611e-05
45	0x3812c356	3.4991033e-05
46	0xb8380e60	-4.3882406e-05
47	0x388be056	6.669822e-05
48	0xb61ac3fc	-2.3061866e-06
49	0xb7766f40	-1.4688645e-05
50	0xb87726e2	-5.89256e-05
51	0x39c3d86e	0.0003735455
52	0x38887826	6.507365e-05
53	0xb90da6e2	-0.00013508977
54	0x3a2cfcaf	0.0006598932
55	0x37bd1c78	2.2543813e-05
56	0x39c4d714	0.0003754428
57	0x382dbc02	4.142151e-05
58	0xb95aa145	-0.00020850178
59	0xb93bdb8e	-0.000179155
60	0x39be6a2e	0.00036318734
61	0xb6e6d350	-6.879134e-06
62	0xb587ea00	-1.0126387e-06
63	0x3883df41	6.288151e-05
64	0xb9e33f05	-0.00043343767
65	0x3997586b	0.0002886684
66	0x3945d7e2	0.00018867807
67	0x393422c4	0.00017179089
68	0x3981e55c	0.00024775683
69	0x38c35667	9.314418e-05
70	0x39e73986	0.00044102612
71	0x38cfdfe4	9.912232e-05
72	0x39f6c2a9	0.0004706581
73	0xb8954399	-7.117465e-05
74	0x39a1715d	0.00030792775
75	0xb91df536	-0.00015064035
76	0xb91b319a	-0.0001480043
77	0x39248c41	0.00015692507
78	0xb829b704	-4.0463186e-05
79	0x373271d8	1.0636133e-05
80	0x390695d4	0.00012835051
81	0x398c8064	0.0002679854
82	0xb8a3275a	-7.7797755e-05
83	0x39460e5d	0.00018888102
84	0x39f66066	0.000469926
85	0xb9bdb178	-0.00036181114
86	0xba02f8ef	-0.00049962004
87	0x399f651d	0.00030402179
88	0xb99e5a71	-0.00030203492
89	0x3a2838e8	0.0006417171
90	0x3a1b2234	0.00059178774
91	0xb8b86c6e	-8.794e-05
92	0x3a1d3555	0.0005997022
93	0x37080dc0	8.109433e-06
94	0xb8d0b1d5	-9.951337e-05
95	0xb98d95fd	-0.00027005366
96	0xb97f63ab	-0.00024355824
97	0xb3285280	-3.919058e-08
98	0xb917de44	-0.00014483283
99	0x3a39d571	0.0007088995
100	0xb9c9a7dc	-0.00038462772
101	0x39d623d0	0.00040843943
102	0x39980c80	0.00029001012
103	0x39dc2e43	0.00041996138
104	0x3957ebac	0.00020591792
105	0x398286c8	0.00024895952
106	0x39a9bf85	0.00032376885
107	0xb89402e6	-7.05773e-05
108	0x390493e6	0.00012643597
109	0xb8e8cc29	-0.0001110065
110	0xb937673c	-0.00017490698
111	0x3990d4ee	0.00027624465
112	0xb9ff10d9	-0.00048649943
113	0x39c9c0e2	0.00038481416
114	0x399bd206	0.00029720383
115	0x393d412e	0.00018048726
116	0x3950fc74	0.00019930472
117	0x39bb7b86	0.00035759452
118	0x395cb75c	0.00021049142
119	0xb8eb77b1	-0.000112279675
120	0xba350d7b	-0.0006906611
121	0x39d70131	0.00041008883
122	0x3a299870	0.00064695533
123	0x3a3aa52b	0.0007119949
124	0xb95f327e	-0.00021285747
125	0x3988be3e	0.00026081683
126	0x3a26700a	0.00063490926
127	0x3a0792d9	0.00051717233
128	0x3a18c98a	0.00058283715
129	0xba0a96bc	-0.00052867434
130	0xb969ea9e	-0.00022308013
131	0x39ecc8dc	0.0004516308
132	0xba062dae	-0.0005118501
133	0x38dd3dc2	0.000105496045
134	0x3956e5e8	0.00020494277
135	0xb7fc2ace	-3.0060673e-05
136	0xba16f662	-0.000575876
137	0x38f8729a	0.00011846908
138	0x39ab2c3a	0.00032648613
139	0xba2f6c96	-0.0006691901
140	0xb9d09cfc	-0.00039789814
141	0x39361a2e	0.00017366625
142	0x3a009ca4	0.0004906154
143	0x39989088	0.00029099383
144	0xb9157915	-0.00014254854
145	0x3a33ccc8	0.0006858823
146	0x39f96799	0.00047570167
147	0x395f8deb	0.00021319806
148	0x3a2d3725	0.00066076434
149	0xb9b6c576	-0.00034860865
150	0xb9ea00e5	-0.00044632624
151	0x39baecad	0.00035653022
152	0xb94a6774	-0.0001930276
153	0x396e909f	0.00022751324
154	0x39832a07	0.0002501758
155	0x38f3a8a2	0.00011618553
156	0xb99f7f3b	-0.00030421637
157	0x39a39e24	0.00031207607
158	0x39af466c	0.0003343107
159	0xb9f43d9e	-0.00046585215
160	0xba1e3119	-0.0006034538
161	0x399e5aed	0.00030203853
162	0x382f4d02	4.179497e-05
163	0x399643a1	0.00028660617
164	0x38d82df9	0.00010308246
165	0xb7e998f0	-2.7846982e-05
166	0x388c673d	6.69495e-05
167	0xb96c874b	-0.00022557114
168	0x38b79cba	8.7553126e-05
169	0x3910b5c0	0.00013800617
170	0x399f0d70	0.00030336855
171	0x39811069	0.00024617024
172	0x391b616f	0.00014818249
173	0x391bbfdf	0.0001485343
174	0x37e07926	2.6759295e-05
175	0xb946c6f4	-0.00018956867
176	0xb8c76479	-9.507774e-05
177	0xb8505e85	-4.9679093e-05
178	0xb9c0d340	-0.00036778487
179	0x39217655	0.00015398239
180	0xb8b26810	-8.5070846e-05
181	0xb903fdc2	-0.00012587666
182	0xb8fed775	-0.00012151796
183	0xb8eabc24	-0.000111930334
184	0xb926ba40	-0.00015900377
185	0xb8edb538	-0.00011334795
186	0xb92d0baf	-0.00016502918
187	0xb841afc0	-4.6178466e-05
188	0xb8b32930	-8.543057e-05
189	0xb8c7e911	-9.5324714e-05
190	0xb85d1025	-5.270554e-05
191	0xb8c127f2	-9.2103975e-05
192	0xb8b3db8d	-8.57628e-05
193	0xb831332d	-4.224775e-05
194	0xb938bf22	-0.0001761881
195	0xb93d96c5	-0.0001808061
196	0xb914f993	-0.00014207354
197	0xb9289acf	-0.00016079399
198	0xb90be59c	-0.00013341609
199	0xb8fef2d8	-0.00012156897
200	0xb70fe9d8	-8.57791e-06
201	0xb740085c	-1.1446038e-05
202	0xb93a5eb5	-0.00017773623
203	0x384f2622	4.938816e-05
204	0xb8e16566	-0.00010747723
205	0xb877d02a	-5.9083257e-05
206	0xb858e077	-5.1707462e-05
207	0xb88a70b1	-6.601343e-05
208	0xb7932af0	-1.754376e-05
209	0xb8cbb26d	-9.713029e-05
210	0xb92a1bde	-0.00016222845
211	0xb7f03292	-2.8633778e-05
212	0xb8be4113	-9.072027e-05
213	0xb85db1d7	-5.2856132e-05
214	0xb933bdb3	-0.00017141439
215	0xb8bda9da	-9.0438596e-05
216	0xb8a62547	-7.92244e-05
217	0x3772a694	1.44631085e-05
218	0xb82fab35	-4.18827e-05
219	0xb8500015	-4.959114e-05
220	0xb9feefda	-0.0004862536
221	0xb91a3c85	-0.0001470913
222	0xb99b6170	-0.000296365
223	0xb9a795e4	-0.000319644
224	0xb9d6c68a	-0.00040965184
225	0x3939a318	0.00017703732
226	0xb7ab7ed1	-2.0443842e-05
227	0xb9c2edee	-0.00037179835
228	0xb86c58c1	-5.6349443e-05
229	0xb9927b90	-0.0002793935
230	0x3822ee3f	3.8845694e-05
231	0x366d771e	3.5385087e-06
232	0x39813420	0.00024643634
233	0x3949abf1	0.00019232907
234	0x37d272f0	2.5087473e-05
235	0xba06e3a3	-0.0005145615
236	0xb91e2237	-0.000150808
237	0xb99fc872	-0.00030476187
238	0x3a1e610b	0.0006041682
239	0xba2e8339	-0.0006657127
240	0xb997a62e	-0.00028924778
241	0x389ad30e	7.382604e-05
242	0xb995c722	-0.0002856786
243	0x3926b11f	0.00015896976
244	0x37f95d30	2.9726507e-05
245	0xb997a62e	-0.00028924778
246	0xb9d47601	-0.0004052371
247	0x396fe72a	0.00022878931
248	0xb901fc54	-0.00012396398
249	0xb88bfa8d	-6.674705e-05
250	0x37d272f0	2.5087473e-05
251	0xb97a8e78	-0.00023894932
252	0xb8afa3b0	-8.3751394e-05
253	0x39531c81	0.00020133147
254	0xb86a0486	-5.579416e-05
255	0x38522a96	5.0107563e-05

in_layer.bias f4 [60]
0	0xb911bb5c	-0.00013898074
1	0x396549d8	0.00021866651
2	0xb4abe7c3	-3.201986e-07
3	0x38eade33	0.00011199377
4	0xb967587a	-0.00022062837
5	0xb79bd44c	-1.8576298e-05
6	0x2fa60d9f	3.0204902e-10
7	0xba1b49f2	-0.00059237995
8	0x38bcff8d	9.0121386e-05
9	0xb947c98e	-0.00019053204
10	0x38186579	3.6334128e-05
11	0x38b776ff	8.748285e-05
12	0xa4ad6cca	-7.5211086e-17
13	0x38e93ea8	0.000111219764
14	0x38951a69	7.109793e-05
15	0x348c79f5	2.6165768e-07
16	0x381f3076	3.7953687e-05
17	0x39650f35	0.00021844807
18	0xb8790b6b	-5.937686e-05
19	0xb941a765	-0.00018468274
20	0xb8d9cf81	-0.00010386017
21	0x3176f030	3.5934242e-09
22	0xb40bd8c1	-1.3024238e-07
23	0x38f0954c	0.000114719005
24	0x30232eb9	5.936545e-10
25	0x367f41ec	3.8036333e-06
26	0xb9631104	-0.00021654746
27	0xb22b83bc	-9.983463e-09
28	0x359f3818	1.1862749e-06
29	0x349651b2	2.7999118e-07
30	0x36f0d9d1	7.1779145e-06
31	0x395dc842	0.00021150804
32	0x36ec9ddf	7.0517267e-06
33	0x389e7f4c	7.557738e-05
34	0x3780bad6	1.5345791e-05
35	0xb8812d11	-6.1595936e-05
36	0x35ae7e69	1.30008e-06
37	0x3864a88f	5.451642e-05
38	0x394d5ead	0.00019585593
39	0xb90f0667	-0.00013639928
40	0xb977febc	-0.00023650652
41	0x393a8393	0.00017787358
42	0x2cadfaea	4.944813e-12
43	0xb8056aff	-3.180932e-05
44	0xb56a5977	-8.730198e-07
45	0xb547b198	-7.439171e-07
46	0xb928f7b9	-0.00016114012
47	0x2db5b6d8	2.0658517e-11
48	0xb843fa72	-4.672487e-05
49	0x34714c68	2.247267e-07
50	0x38ef1fe5	0.00011402349
51	0x3836b0c6	4.3556814e-05
52	0x2b10bfea	5.142541e-13
53	0x38828d96	6.2252555e-05
54	0xb7277291	-9.98065e-06
55	0x38620ed2	5.38964e-05
56	0x3954aa19	0.00020281262
57	0xb76cd80f	-1.4117001e-05
58	0x37145a08	8.8424495e-06
59	0x3763ee6a	1.35857645e-05

out_layer.weight f4 [1, 60]
0	0x3b125b28	0.0022332165
1	0xbdca0fe3	-0.098663114
2	0x35b36eb7	1.3368762e-06
3	0xbdee9922	-0.116503015
4	0x3db9a411	0.09064496
5	0xbdf4ed4f	-0.119593255
6	0xb0a4dfa7	-1.1996136e-09
7	0x3e1b3009	0.15155043
8	0xbdf0bbca	-0.11754568
9	0x3e1d7477	0.15376459
10	0xb935a928	-0.00017324521
11	0xbdbff76f	-0.09373366
12	0x25a64f38	2.885009e-16
13	0xbdce886d	-0.10084615
14	0xbde889f6	-0.11354439
15	0xb54754a6	-7.4256457e-07
16	0xbe06e117	-0.13171802
17	0xbdede11e	-0.11615203
18	0x3a5d9d3c	0.00084539107
19	0x3de43d48	0.11144501
20	0x3e0ffc6c	0.14061135
21	0x320a58b6	8.052828e-09
22	0x33d103db	9.733022e-08
23	0xbdea7e6e	-0.11449896
24	0x32da5b6f	2.542012e-08
25	0xb865c010	-5.4776727e-05
26	0x3e0cfeae	0.13769028
27	0x339e3754	7.3675125e-08
28	0xb8e65f42	-0.00010984998
29	0x3456115a	1.9936616e-07
30	0xb98648e2	-0.00025612774
31	0xbe041f43	-0.1290255
32	0xbdb91113	-0.0903646
33	0xbe02c470	-0.12770247
34	0x3dd0b3f8	0.10190576
35	0x3e1017bf	0.14071558
36	0x3768f5fd	1.3885551e-05
37	0x3d91ced6	0.07119529
38	0xbdeeafc9	-0.11654622
39	0xbde50d95	-0.11184231
40	0x3ddf63fc	0.109077424
41	0xbd79cf2c	-0.06098859
42	0x2f24330b	1.4933847e-10
43	0xbdf38ab6	-0.118916914
44	0xb650a233	-3.1088828e-06
45	0xb51ff696	-5.9590946e-07
46	0x3df0d741	0.117598064
47	0xaeb2a453	-8.123693e-11
48	0xbe06770a	-0.13131347
49	0xb899acd5	-7.327801e-05
50	0x3ae230fd	0.0017257031
51	0xbdd92775	-0.10603229
52	0xac70599b	-3.4155792e-12
53	0xbdba763c	-0.09104583
54	0xbdcc572c	-0.09977564
55	0xbddf3b74	-0.10900012
56	0xbe16c479	-0.14723386
57	0xbe03e9c6	-0.12882146
58	0xb85ee9a0	-5.3146505e-05
59	0x3df035d2	0.117290154
