output/AllActivated_STD_TRue_KFold_0_240310_2304_91fCtl/checkpoint_best_kcv_sample_no_u_f00_INDEL_TEST_DEBUG_STD_KFold_0_240310_2304_91fCtl.pt (torch, 197636 bytes, 11 tensors)

in_layer.weight f4 [50, 911]
4.2729292e-12 6.36903e-11 2.6302092e-11 4.4512265e-11 -2.9462852e-11 5.7339484e-11 1.1517941e-10 3.929265e-12
2.3750148e-11 -4.9577422e-11 -3.7598116e-11 5.322791e-11 -4.0624632e-11 -3.0029097e-11 -3.0366636e-12 4.0396107e-12
-7.739128e-12 -1.123451e-11 -2.2001432e-11 -3.787688e-11 3.21983e-11 1.0110432e-11 4.602482e-11 5.5027344e-11
-7.31021e-12 6.4553654e-11 8.5714165e-11 -1.647247e-11 2.0601385e-11 -3.5966438e-11 -2.9193464e-11 3.779984e-11
-2.4295253e-11 -3.0483047e-11 4.4502e-11 8.9863325e-11 6.065891e-11 -2.1515827e-11 -2.7091244e-11 -2.5790882e-11
-6.2730814e-11 -9.084122e-12 -2.203077e-11 -5.1101345e-12 -7.775557e-12 -6.847775e-11 -3.5661266e-11 -1.2756362e-11
1.6874065e-11 -6.569779e-12 -2.9898098e-12 -4.0348818e-11 -2.8541199e-11 9.594917e-11 -3.8002858e-11 -2.5130807e-11
-4.948273e-11 2.7772161e-11 9.1557636e-11 -2.238621e-11 1.6634893e-11 -1.5231984e-11 5.2771537e-11 7.7965204e-11
1.4225606e-11 -3.6819796e-12 1.34206465e-11 1.0675352e-11 3.7946794e-12 -2.5784286e-11 -1.9680424e-11 -6.9723407e-12
-4.0012757e-11 -1.0043265e-11 2.034056e-12 1.0828101e-10 6.2605594e-11 -2.3473124e-11 -1.3054304e-11 -2.5279303e-11
-6.4747287e-12 -8.884415e-12 5.5738764e-11 1.271809e-10 -3.5818775e-11 2.2492584e-11 6.3136926e-11 -3.3853682e-12
-4.0790166e-12 -4.1896698e-11 -4.6474904e-11 1.1936282e-11 -5.235735e-11 -5.8741e-11 7.154696e-11 2.2162352e-11
9.430318e-12 -4.9201067e-11 -4.952093e-11 -5.024413e-11 1.9247295e-12 -2.0227889e-11 -3.526797e-13 -1.3548036e-11
-9.976224e-12 -4.1871947e-11 -2.192197e-11 6.870942e-11 4.2340933e-11 -2.7527031e-11 -3.7512743e-11 -3.678724e-11
-3.3506243e-11 5.0775967e-11 -4.7259844e-12 -1.8317892e-11 -7.4023114e-11 4.044689e-11 1.3394594e-10 -3.1621327e-11
-8.983444e-12 -1.4038807e-11 5.376928e-12 2.8620262e-11 -4.912932e-11 3.9112484e-11 5.5920074e-11 -5.9997168e-12
1.0483748e-11 -5.728291e-11 -6.409531e-11 2.8547139e-11 -6.873663e-11 -3.4465243e-11 1.8037352e-10 2.8708268e-12
-2.1470575e-11 7.103556e-13 -2.6784188e-11 -6.135868e-11 5.892639e-11 -4.4830018e-11 -2.7972815e-12 2.2537385e-11
-2.9685126e-11 -2.0190441e-11 2.0730277e-11 1.2123618e-11 -2.6369492e-11 -2.0405993e-11 -6.124423e-11 -1.9435236e-11
-6.917733e-11 -4.6721415e-11 1.889936e-10 9.3345e-12 1.3133186e-11 -2.1582023e-11 -4.0101027e-11 -1.463452e-11
2.945198e-11 -3.9525747e-11 -5.4243898e-11 -2.8011682e-11 9.599832e-13 -2.766658e-11 -3.7180002e-11 1.1362217e-11
-6.0078886e-11 2.9948505e-11 5.305794e-11 -4.7161882e-11 3.082705e-11 2.3161528e-11 -2.545215e-11 -1.9564652e-11
-1.9280263e-11 1.3802969e-11 -1.6232517e-11 1.6406942e-11 -2.2076811e-10 -1.9535465e-10 -2.0924402e-10 -1.9981668e-10
-2.4211025e-10 -2.015291e-10 -2.0099217e-10 -2.5142075e-10 -2.0532347e-10 -2.072957e-10 -2.251704e-10 -2.1507121e-10
-2.214807e-10 -1.838707e-10 -2.1155366e-10 -2.214142e-10 -2.049387e-10 -2.1786363e-10 -2.1169597e-10 -2.1252991e-10
7.0528045e-10 1.3544562e-09 6.7181344e-10 5.9724875e-10 4.5116572e-10 9.197035e-10 6.552693e-10 1.2841098e-09
8.6153357e-10 5.9733923e-10 5.7849064e-10 8.6458796e-10 7.6570117e-10 1.3320322e-09 4.3504583e-10 9.845886e-10
7.5497575e-10 7.4981193e-10 9.0491936e-10 6.8215483e-10 -1.9555135e-10 1.6444121e-10 6.7707145e-10 8.7005325e-12
9.1708e-41 1.3863507e-14 3.612388e-15 1.3919763e-14 6.598903e-14 6.940736e-14 0.001657184 0.027463662
0.0060013537 0.029573342 0.021872152 -0.016497215 0.014654212 -0.01812292 -0.01006929 0.005837892
0.011491265 0.022720646 -0.0066650137 -6.785371e-38 0.013114574 -0.02682658 0.024433183 -0.021695068
-0.0025056005 -0.008606251 -0.011416099 -2.482273e-11 5.6977683e-11 1.20361394e-11 -7.218875e-11 -3.566104e-11
00000000: 2057 962c 740e 8c2e 0c5b e72d 5bc4 432e
00000010: 3994 01ae 852e 7c2e 3e48 fd2e ac3f 8a2c
00000020: 94e8 d02d 370b 5aae b75b 25ae 4d19 6a2e
00000030: 45ab 32ae c211 04ae abaf 55ac 9421 8e2c
00000040: ef25 08ad bca3 45ad d286 c1ad 9395 26ae
00000050: 109c 0d2e 56dd 312d 576b 4a2e 4803 722e
00000060: 429a 00ad 7af4 8d2e c97c bc2e b4e4 90ad
00000070: 3236 b52d 9c2e 1eae eb64 00ae d63e 262e
00000080: 0cb4 d5ad dc10 06ae ccb8 432e 8e9c c52e
00000090: ee63 852e 5641 bdad 0f4c eead e7db e2ad
000000a0: 4ff2 89ae 40cf 1fad e2c8 c1ad 00cc b3ac
000000b0: ffc9 08ad 8c95 96ae 04d7 1cae 8c69 60ad
000000c0: 046d 942d 4f27 e7ac a063 52ac bb74 31ae
000000d0: 110d fbad 95fe d22e 6a23 27ae 8c0d ddad
000000e0: 9aa0 59ae 5949 f42d 5e56 c92e 43e9 c4ad
000000f0: 7352 922d 61fb 85ad 7817 682e 8272 ab2e
00000100: 6f42 7a2d 538c 81ac 3819 6c2d 83cd 3b2d
00000110: 6f83 852c 0dcd e2ad 601c adad 4351 f5ac
00000120: 5cfa 2fae d8ae 30ad 4c22 0f2c ca1c ee2e
00000130: d1ab 892e c778 cead 5ca7 65ad ee5b dead
00000140: 2ccf e3ac d94b 1cad 4524 752e 3ed6 0b2f
00000150: 5b88 1dae ccd8 c52d eed6 8a2e 5f39 6eac
00000160: 8484 8fac 7d43 38ae 1766 4cae 3cfc 512d
00000170: 2345 66ae 3e2c 81ae 5c55 9d2e 2ef1 c22d
00000180: 60e6 252d 7a63 58ae 9ccb 59ae dcf9 5cae
00000190: d870 072c 28ed b1ad 808a c6aa ee56 6ead
000001a0: eb80 2fad 9f27 38ae e3d3 c0ad f717 972e
000001b0: a737 3a2e 5d21 f2ad 98fb 24ae c0ca 21ae
000001c0: ad5c 13ae a850 5f2e e247 a6ac 3a20 a1ad
000001d0: 4fc7 a2ae 26e3 312e 6e46 132f 7312 0bae
000001e0: d609 1ead 2af9 76ad 102f bd2c 1abf fb2d
000001f0: b212 58ae be04 2c2e 68f0 752e a518 d3ac
00000200: 9b6e 382d d3ee 7bae 74f2 8cae 711a fb2d
00000210: 4827 97ae 6a94 17ae a252 462f 3804 4a2c
00000220: 70db bcad 84f2 472b a198 ebad deed 86ae
00000230: 9c94 812e 1d2a 45ae 58d7 44ac ae3d c62d
00000240: 7b8e 02ae d598 b1ad 6f58 b62d ec47 552d
00000250: d1f2 e7ad 367e b3ad 70ad 86ae 43f4 aaad
00000260: 601f 98ae a37b 4dae f8cc 4f2f da36 242d
00000270: 9d0a 672d 65d6 bdad be5d 30ae 02ba 80ad
00000280: fb87 012e 09d6 2dae 3391 6eae b364 f6ad
00000290: 0a1b 872b 9a5b f3ad f684 23ae e0e2 472d
000002a0: 681d 84ae 05b7 032e ee59 692e 8f6b 4fae
000002b0: 2c94 072e 20bb cb2d 26e1 dfad ae17 acad
000002c0: 4b97 a9ad 0cd3 722d 61c8 8ead 2651 902d
000002d0: b3bc 72af 72cb 56af f510 66af 65b3 5baf
000002e0: fd19 85af 6695 5daf 44fe 5caf 5338 8aaf
000002f0: 6bc1 61af 8dec 63af d593 77af 2a79 6caf
00000300: 4685 73af 002b 4aaf 109b 68af 8f72 73af
00000310: 1e55 61af 298b 6faf 1ec3 68af daad 69af
00000320: b3dd 4130 b127 ba30 abaa 3830 a52b 2430
00000330: ee07 f82f 61ce 7c30 7a1e 3430 997c b030
00000340: 09d1 6c30 0332 2430 a903 1f30 f8a7 6d30
00000350: 6e79 5230 b712 b730 422b ef2f 2252 8730
00000360: b286 4f30 531b 4e30 0abe 7830 6182 3b30
00000370: d002 57af 16ce 342f ab1c 3a30 b70f 192d
00000380: a5ff 0000 24be 7928 6626 8227 94c1 7a28
00000390: 1698 9429 9e4a 9c29 de35 d93a 79fb e03c
000003a0: 01a7 c43b cb43 f23c 3a2d b33c 2b25 87bc
000003b0: 3818 703c 8576 94bc aaf9 24bc ca4b bf3b
000003c0: dc45 3c3c a620 ba3c 3066 dabb 22b7 b881
000003d0: 83de 563c 6ac3 dbbc 1928 c83c dbb9 b1bc
000003e0: 0035 24bb 3c01 0dbc 970a 3bbc d257 daad
000003f0: 2b97 7a2e f4bd 532d a7be 9eae c3d6 1cae

in_layer.bias f4 [50]
-5.723261e-14 -1.9435658e-12 2.0177492e-12 -2.2247492e-12 -5.2421768e-14 -2.812392e-13 -4.818802e-15 -4.5273992e-14
-3.253506e-14 -1.6230686e-14 7.155663e-14 1.03881334e-13 6.5631734e-13 -4.940663e-13 6.1222125e-14 4.246525e-14
1.7370244e-12 7.966751e-14 4.7457684e-14 -4.3219128e-15 1.5678801e-13 9.212833e-14 1.0772089e-14 4.4257333e-13
1.33939e-10 3.780274e-15 1.02103876e-14 1.0351794e-12 -3.7482926e-13 2.3297846e-13 1.3915752e-14 -3.7759867e-13
-2.3860034e-14 -2.8236376e-13 -8.205405e-14 5.3888174e-12 -2.3414922e-12 -4.82312e-15 1.3771415e-13 1.1964348e-12
6.5763047e-13 1.0233363e-14 3.7849988e-13 -2.0040427e-15 -1.3390808e-13 -4.4952445e-13 1.4196287e-13 2.1296766e-12
2.986215e-15 -1.1903656e-12
00000000: 5ae0 80a9 2bc4 08ac 8afc 0d2c 858d 1cac
00000010: 2f16 6ca9 d752 9eaa 9b9d ada7 5ce5 4ba9
00000020: 5f86 12a9 6a31 92a8 9721 a129 83eb e929
00000030: a6bc 382b 3b11 0bab 27dc 8929 1a3f 3f29
00000040: e676 f42b 3165 b329 fcba 5529 9cb6 9ba7
00000050: 1187 302a 5e74 cf29 7e0d 4228 8a25 f92a
00000060: 7a44 132f e032 8827 1aef 3728 45b0 912b
00000070: 9702 d3aa bc27 832a 14af 7a28 b491 d4aa
00000080: 7ee9 d6a8 e8f4 9eaa f0c4 b8a9 279a bd2c
00000090: 93c4 24ac 6ec5 ada7 670d 1b2a 1b62 a82b
000000a0: 451b 392b 0f59 3828 9513 d52a 1068 10a7
000000b0: 60c4 16aa 4d0f fdaa 03d6 1f2a d8dc 152c
000000c0: f22d 5727 7187 a7ab

out_layer.weight f4 [1, 50]
-0.2873357 -0.23036806 -0.25088596 -0.15838768 -0.27911454 -0.12866327 -0.16526844 -0.20189431
-0.11831282 0.017798156 -0.14374802 -0.17743807 -0.23439305 -0.13175751 -0.13068198 -0.04634449
-0.2967525 -0.14036946 -0.08240984 -0.13583653 -0.065135874 -0.29170766 -0.096480146 -0.2797016
-0.21428643 -0.2749304 -0.03635548 -0.18973425 -0.2662188 -0.048951294 -0.11791055 -0.037107557
-0.09870737 -0.25052834 -0.26245442 -0.24166715 -0.26057288 -0.042001512 -0.21676226 -0.19855353
-0.12644517 -0.31753185 -0.3387921 -0.16007678 -0.2785861 -0.15528534 -0.103945635 -0.2024979
-0.14504701 -0.26412717
00000000: aa1d 93be 9be5 6bbe 2074 80be 6130 22be
00000010: 1ae8 8ebe 4ec0 03be 213c 29be 62bd 4ebe
00000020: fe4d f2bd 70cd 913c ae32 13be 53b2 35be
00000030: bb04 70be 71eb 06be 7fd1 05be b8d3 3dbd
00000040: f2ef 97be 03bd 0fbe 7dc6 a8bd bb18 0bbe
00000050: f565 85bd b55a 95be 6297 c5bd 0c35 8fbe
00000060: e76d 5bbe adc3 8cbe 7ce9 14bd b249 42be
00000070: d54d 88be 2781 48bd 167b f1bd 18fe 17bd
00000080: 1727 cabd 4045 80be 6d60 86be 9877 77be
00000090: cf69 85be c709 2cbd edf6 5dbe 9e51 4bbe
000000a0: d87a 01be 8993 a2be 2876 adbe 2beb 23be
000000b0: d6a2 8ebe 1f03 1fbe 73e1 d4bd 9c5b 4fbe
000000c0: 3487 14be ad3b 87be

bn1.weight f4 [50]
0.3828058 0.5889255 0.6067264 0.6178359 0.6199055 0.16112402 0.52857774 0.32767186
0.1749945 0.12968498 0.23660493 0.21575655 0.79052085 0.3525161 0.1615747 0.18428098
0.8956572 0.22929145 0.1971148 0.23435183 0.32341763 0.39023477 0.23680706 0.8076801
0.8042092 0.5063427 0.16409089 0.73620605 0.76716167 0.28203765 0.1634446 0.2526184
0.341379 0.3935113 0.8353853 0.8383564 0.76546216 0.14649723 0.7750453 0.7771457
0.20321582 0.6662859 0.6558552 0.25288847 0.87887025 0.6055808 0.29611027 0.61836004
0.1810643 0.8640797
00000000: 1fff c33e d2c3 163f 6c52 1b3f 7e2a 1e3f
00000010: 20b2 1e3f b2fd 243e df50 073f 9bc4 a73e
00000020: c231 333e 24cc 043e 9048 723e 49ef 5c3e
00000030: 935f 4a3f fe7c b43e d773 253e 27b4 3c3e
00000040: ca49 653f 61cb 6a3e 76d8 493e edf9 6f3e
00000050: ff96 a53e dacc c73e 8d7d 723e 1fc4 4e3f
00000060: a7e0 4d3f ad9f 013f 7107 283e 0078 3c3f
00000070: b564 443f 3d67 903e 055e 273e 3357 813e
00000080: 3ac9 ae3e 507a c93e d0db 553f 869e 563f
00000090: 54f5 433f 5f03 163e 5e69 463f 05f3 463f
000000a0: cf17 503e b691 2a3f 20e6 273f 997a 813e
000000b0: a4fd 603f 5807 1b3f c49b 973e d84c 1e3f
000000c0: eb68 393e 5434 5d3f

bn1.bias f4 [50]
0.101868786 0.1581718 0.118328474 0.21173868 0.15176441 0.050088335 0.11183949 0.073841386
0.04328791 -0.043689486 0.048976276 0.0730959 0.33112887 0.11880647 0.07880913 0.05007564
0.23273869 0.047821455 0.06136628 0.045005772 0.041193936 0.10333039 0.025834346 0.29424843
0.26894352 0.087488435 0.00040050602 0.26162148 0.27276322 0.024852388 0.0466583 0.0158172
0.07519911 0.08133833 0.21720763 0.24782224 0.28261745 0.018364 0.3034511 0.28739235
0.06830445 0.15372035 0.14495924 0.04941667 0.2360927 0.20527112 0.021221813 0.117761105
0.057104763 0.23964515
00000000: 95a0 d03d caf7 213e 3356 f23d 06d2 583e
00000010: 2168 1b3e 6d29 4d3d 1a0c e53d 273a 973d
00000020: aa4e 313d bff3 32bd 599b 483d 4eb3 953d
00000030: b989 a93e ce50 f33d ae66 a13d 1d1c 4d3d
00000040: 0d53 6e3e 6ee0 433d 355b 7b3d f957 383d
00000050: f9ba 283d e29e d33d 8da2 d33c bba7 963e
00000060: f7b2 893e 232d b33d 02fb d139 40f3 853e
00000070: 9fa7 8b3e 3c97 cb3c c61c 3f3d 1393 813c
00000080: fe01 9a3d b694 a63d ad6b 5e3e 1dc5 7d3e
00000090: 3cb3 903e 1970 963c f15d 9b3e 1725 933e
000000a0: 34e3 8b3d de68 1d3e 3270 143e 2269 4a3d
000000b0: 49c2 713e 9832 523e 5ed9 ad3c bc2c f13d
000000c0: afe6 693d 8a65 753e

bn1.running_mean f4 [50]
-9.364366e+10 1.2826306e+12 1.285317e+11 1.9251228e+12 -1.4019153e+11 -5.879688e+10 3.8488842e+09 -8.197442e+11
9.982845e+10 -1.2198045e+12 -2.7288188e+11 6.8681826e+11 3.4432444e+11 1.3023763e+12 -3.391837e+11 -6.816929e+11
1.9117007e+12 -1.6763377e+12 1.1443993e+12 -1.6002384e+11 5.4335832e+11 3.1049515e+12 -4.5578086e+11 2.1553887e+12
3.207453e+11 1.6030998e+12 7.2451254e+11 4.239637e+11 -3.1271767e+11 9.148285e+11 2.172579e+12 1.15219e+12
-1.2963512e+12 1.700791e+12 -1.9479693e+11 -2.3680977e+12 -6.0185064e+11 -5.753044e+11 -2.4038184e+11 2.8526232e+12
1.9353397e+12 -6.230822e+10 -1.4608614e+12 -3.1631278e+12 3.3993864e+12 1.6733332e+12 8.906037e+11 1.3098604e+12
5.1710472e+10 1.5749712e+12
00000000: c76c aed1 5f51 9553 b168 ef51 211d e053
00000010: 4490 02d2 1309 5bd1 5069 654f 90dc 3ed3
00000020: eaf1 b951 0201 8ed3 1c24 7ed2 8fe9 1f53
00000030: ac56 a052 d79d 9753 d9f1 9dd2 10b8 1ed3
00000040: 1f8d de53 c226 c3d3 c239 8553 a808 15d2
00000050: 5c05 fd52 62bb 3454 503d d4d2 97eb fa53
00000060: d25b 9552 19a0 ba53 50b0 2853 696c c552
00000070: da9e 91d2 0700 5553 e6eb fc53 f021 8653
00000080: 47ea 96d3 86ff c553 356b 35d2 68d7 09d4
00000090: 1821 0cd3 d0f2 05d3 7fdf 5fd2 660b 2654
000000a0: 9e4d e153 c01d 68d1 1011 aad3 471e 38d4
000000b0: cede 4554 37cd c253 1e5c 4f53 e27c 9853
000000c0: f3a2 4051 cd59 b753

bn1.running_var f4 [50]
3.7618993e+17 1.4025737e+18 1.7779393e+17 1.343515e+18 6.252445e+17 6.720924e+16 1.05909715e+18 1.269247e+18
4.138289e+16 9.9309265e+17 1.9741376e+17 1.3667017e+18 1.3081158e+18 1.614416e+18 1.0813018e+18 1.4762106e+18
4.341824e+18 7.2226005e+17 1.2561274e+18 1.31561634e+17 1.376004e+18 2.1296946e+18 1.1537099e+18 1.0769155e+19
1.1168455e+17 1.9974029e+18 1.8708838e+17 1.8473142e+18 1.329294e+18 6.626079e+17 3.239643e+18 1.1713874e+18
1.2520153e+18 6.789284e+17 5.2020317e+17 8.954737e+17 1.1881765e+18 1.0493131e+18 2.009005e+18 8.02713e+18
1.8108188e+18 5.184997e+17 8.3769935e+17 1.2966638e+18 1.7785278e+19 5.4769027e+18 5.9429834e+17 1.9215685e+18
1.176851e+18 5.4838126e+18
00000000: d80f a75c 8bb7 9b5d a9e9 1d5c fe28 955d
00000010: 09d5 0a5d 73c6 6e5b b42a 6b5d 2bea 8c5d
00000020: 8505 135b c882 5c5d b156 2f5c 00bc 975d
00000030: e33a 915d 763c b35d e418 705d 6ee4 a35d
00000040: 0805 715e bb5f 205d 4a75 8b5d 4eb3 e95b
00000050: 63c4 985d 9071 ec5d 6816 805d b973 155f
00000060: 4164 c65b 9bc1 dd5d f92a 265c d417 cd5d
00000070: cf94 935d e620 135d 19d6 335e d50c 825d
00000080: 6a00 8b5d 9dc0 165d 4104 e75c c9d5 465d
00000090: 02ea 835d 8bfe 685d 5b0b df5d 30cc de5e
000000a0: 910a c95d 9742 e65c b201 3a5d 67f5 8f5d
000000b0: 00d2 765f bc03 985e f3f5 035d 4356 d55d
000000c0: 1ea8 825d d534 985e

standardizer_sequence.mu f4 [231]
-0.56764495 -1.1105695 -0.8675315 -1.2972096 -2.0033617 -0.4589359 -0.80869305 -1.5812868
-1.1043066 -1.395062 -1.315883 -0.6497978 -0.7685427 -1.7752494 -1.4182678 -0.43600047
-0.45656204 -2.4958315 -1.1297867 -1.186555 -0.58053166 -1.1246699 -0.88232046 -1.2816174
-2.0112143 -0.44325858 -0.7749913 -1.6213175 -1.0982598 -1.3927678 -1.3062575 -0.65515304
-0.7620091 -1.7923621 -1.3519708 -0.44993153 -0.44563538 -2.5192375 -1.1482507 -1.1828134
-0.5948821 -1.1283052 -0.8578872 -1.2637509 -2.0282948 -0.46078807 -0.80560255 -1.5919225
-1.1016757 -1.3985277 -1.312509 -0.6618336 -0.7696756 -1.7788049 -1.3918283 -0.44866258
-0.46151683 -2.493917 -1.1306999 -1.1991239 -0.5793639 -1.1458707 -0.848594 -1.2272094
-2.0221817 -0.4414479 -0.7713873 -1.5518427 -1.1109912 -1.429311 -1.3555197 -0.65761244
-0.8052233 -1.8345704 -1.3289218 -0.43198326 -0.45913258 -2.5366602 -1.1738608 -1.2203368
-0.5828181 -1.1417819 -0.86125046 -1.2668701 -2.0080204 -0.44936094 -0.791541 -1.5857006
-1.1218978 -1.3972945 -1.3197985 -0.66773456 -0.7740822 -1.8055162 -1.3617687 -0.43976134
-0.44545162 -2.5137837 -1.1631486 -1.1899618 -0.57395214 -1.148326 -0.8743663 -1.2997402
-1.9769508 -0.4579937 -0.8294857 -1.5773026 -1.1339785 -1.3656421 -1.2978742 -0.665582
-0.7580862 -1.799695 -1.397362 -0.4396792 -0.44057837 -2.5203164 -1.1672683 -1.1633168
-0.57926923 -1.1245335 -0.86627144 -1.2926903 -1.9950777 -0.4372053 -0.7988622 -1.6030039
-1.1150839 -1.382004 -1.2977023 -0.6533411 -0.747262 -1.7950526 -1.3885362 -0.43232495
-0.43871623 -2.5097597 -1.1548164 -1.1750351 -0.58022326 -1.1164207 -0.86237746 -1.2911991
-1.9990695 -0.44054213 -0.794897 -1.5894216 -1.0937661 -1.395085 -1.307621 -0.6598525
-0.75520146 -1.7884941 -1.4093254 -0.43869895 -0.44454923 -2.5012286 -1.1409831 -1.184195
-0.64007634 -1.1604638 -0.943205 -1.3724004 -2.0141625 -0.50094163 -0.8645913 -1.6793041
-1.1136875 -1.3129914 -1.2056711 -0.70985913 -0.68860346 -1.6499112 -1.462804 -0.5306345
-0.49814594 -2.4031217 -1.0427004 -1.1384689 0.0010410274 0.00095825497 0.0008388892 0.0008777633
0.00073145505 0.00091736094 0.0009753254 0.0010376804 0.0007436426 0.0009851095 0.0011491465 0.0009616489
0.0009504798 0.00082958763 0.0010016768 0.0010199071 0.0009650022 0.00056435406 0.0007530222 0.0009983318
0.001033872 0.0009523973 0.00083806115 0.0008783792 0.00072283484 0.00091753615 0.00096930505 0.0010197181
0.0007412139 0.000984159 0.0011574109 0.00096088427 0.00095560425 0.0008449377 0.0009949084 0.0010166271
0.00096117693 0.0005721674 0.0007666551 0.0009941846 0.0724869 0.2806043 0.0724869 0.2806043
0.0 0.15968299 0.18830942 0.16708335 0.16538326 0.16263314 0.15690784
00000000: 2e51 11bf 2427 8ebf 8b16 5ebf f70a a6bf
00000010: 1437 00c0 a5f9 eabe 8206 4fbf 9b67 cabf
00000020: eb59 8dbf 6491 b2bf db6e a8bf 2659 26bf
00000030: 37bf 44bf 5f3b e3bf cd89 b5bf 743b dfbe
00000040: 80c2 e9be b4bb 1fc0 da9c 90bf 09e1 97bf
00000050: b99d 14bf 2ff5 8fbf c1df 61bf 0a0c a4bf
00000060: bcb7 00c0 caf2 e2be d465 46bf 5587 cfbf
00000070: c793 8cbf 3746 b2bf 7233 a7bf 1cb8 27bf
00000080: 0713 43bf 1f6c e5bf 610d adbf 6d5d e6be
00000090: 522a e4be 303b 21c0 e1f9 92bf 6e66 97bf
000000a0: 314a 18bf 4e6c 90bf 7f9e 5bbf 97c2 a1bf
000000b0: 95cf 01c0 6aec ebbe f83b 4ebf 1ec4 cbbf
000000c0: b603 8dbf f502 b3bf 4b00 a8bf ed6d 29bf
000000d0: 7609 45bf e1af e3bf 6e27 b2bf 1ab7 e5be
000000e0: ef4b ecbe 569c 1fc0 c6ba 90bf e47c 99bf
000000f0: 3151 14bf e4ab 92bf 753d 59bf 3315 9dbf
00000100: 6d6b 01c0 7605 e2be a379 45bf c8a2 c6bf
00000110: f634 8ebf aaf3 b6bf ab81 adbf 4a59 28bf
00000120: 1d23 4ebf 34d3 eabf 1c1a aabf e92c ddbe
00000130: 6d13 ebbe a458 22c0 1241 96bf ff33 9cbf
00000140: 9133 15bf e925 92bf e97a 5cbf cd28 a2bf
00000150: 6883 00c0 a312 e6be 6ea2 4abf 3df8 cabf
00000160: 599a 8fbf 8cda b2bf 28ef a8bf a7f0 2abf
00000170: 402a 46bf 281b e7bf 704e aebf 6628 e1be
00000180: 3c12 e4be d5e1 20c0 0ee2 94bf ab50 98bf
00000190: 87ee 12bf 59fc 92bf 78d6 5fbf e35d a6bf
000001a0: b90c fdbf 267e eabe 2d59 54bf 0de5 c9bf
000001b0: 3526 91bf 5ccd aebf be20 a6bf 9563 2abf
000001c0: f011 42bf 685c e6bf c2dc b2bf a21d e1be
000001d0: 7d93 e1be dd4c 21c0 0c69 95bf 91e7 94bf
000001e0: fd4a 14bf b7f0 8fbf f7c3 5dbf e076 a5bf
000001f0: b55e ffbf 60d9 dfbe 3c82 4cbf 3b2f cdbf
00000200: 12bb 8ebf 82e5 b0bf 1c1b a6bf 5d41 27bf
00000210: 904c 3fbf 49c4 e5bf 8ebb b1bf b259 ddbe
00000220: 6a9f e0be e79f 20c0 06d1 93bf 8d67 96bf
00000230: 8389 14bf e0e6 8ebf c5c4 5cbf 0346 a5bf
00000240: 82e1 ffbf bd8e e1be 5f7e 4bbf 2b72 cbbf
00000250: 8700 8cbf 2592 b2bf 2060 a7bf 18ec 28bf
00000260: e254 41bf 60ed e4bf c664 b4bf 269d e0be
00000270: f59b e3be 2114 20c0 bc0b 92bf b493 97bf
00000280: 0bdc 23bf 148a 94bf e275 71bf d1aa afbf
00000290: 0ae8 00c0 b63d 00bf db55 5dbf 70f3 d6bf
000002a0: 508d 8ebf 1a10 a8bf 6e53 9abf 54b9 35bf
000002b0: 5148 30bf 4a30 d3bf 293d bbbf aad7 07bf
000002c0: fc0c ffbe bfcc 19c0 3577 85bf 59b9 91bf
000002d0: 1573 883a 6733 7b3a e7e8 5b3a b319 663a
000002e0: 1ebf 3f3a 0d7b 703a fbac 7f3a c702 883a
000002f0: 03f1 423a ca1e 813a f59e 963a 2a17 7c3a
00000300: 9f29 793a af78 593a b24a 833a 67ae 853a
00000310: 34f8 7c3a 29f1 133a 7766 453a 75da 823a
00000320: fd82 873a 4daa 793a 55b1 5b3a 0843 663a
00000330: a07c 3d3a cf86 703a f618 7e3a 10a8 853a
00000340: 064e 423a e5fe 803a 44b4 973a dae3 7b3a
00000350: 8481 7a3a cf7e 5d3a 9667 823a 5840 853a
00000360: 7ef7 7b3a 81fd 153a 5af9 483a 4d4f 823a
00000370: 0374 943d 5eab 8f3e 0374 943d 5eab 8f3e
00000380: 0000 0000 f083 233e 2fd4 403e e617 2b3e
00000390: 3b5a 293e 4d89 263e 73ac 203e

standardizer_sequence.sigma f4 [231]
1.9447762 3.031474 2.3833277 3.1527684 3.0863872 2.3288345 2.7081556 3.3282926
2.4776504 3.5455883 3.5364285 2.6635346 2.5072412 3.611153 3.206233 2.2718556
1.6931683 3.573117 2.588201 3.082185 1.997267 3.090769 2.4575222 3.2351193
3.126494 2.4093733 2.834221 3.424791 2.577613 3.6400886 3.645535 2.7071214
2.6034772 3.689893 3.40042 2.3439362 1.7503817 3.6219976 2.638458 3.1747417
2.031043 3.1784513 2.5717397 3.381448 3.1951094 2.4409065 2.8428602 3.4665327
2.6064234 3.7109337 3.7050025 2.8071733 2.6634817 3.7742321 3.40563 2.377186
1.7697461 3.7220037 2.6895902 3.2607796 2.0028393 3.179237 2.5128834 3.341706
3.2509625 2.4988556 2.9214108 3.5487232 2.5912418 3.7957358 3.7619982 2.7913086
2.7136695 3.8228528 3.4739347 2.3488379 1.78181 3.728053 2.7026393 3.3455262
2.019722 3.186543 2.5849915 3.3770072 3.2255733 2.521961 2.931836 3.5374486
2.6424787 3.7682135 3.7449584 2.815104 2.6936476 3.782 3.4686723 2.419973
1.8102819 3.72533 2.68949 3.3076286 2.0177917 3.2300944 2.5589554 3.3576508
3.2486746 2.5601988 2.9029343 3.5835776 2.6791208 3.7501426 3.7074072 2.8739817
2.6565187 3.7470179 3.440935 2.4070816 1.8122822 3.682294 2.6681297 3.2981732
1.9971051 3.1582627 2.5364277 3.2971265 3.1855955 2.4954255 2.8637505 3.5046413
2.6116579 3.7113602 3.6971533 2.8052154 2.6553648 3.7013187 3.3992407 2.4027348
1.7812487 3.6543834 2.6328132 3.2501926 1.9732047 3.09768 2.460288 3.212077
3.151095 2.4364743 2.802814 3.4413204 2.5736897 3.6522567 3.6346889 2.7222722
2.5909588 3.6705313 3.3132844 2.3330882 1.7646328 3.6460319 2.6081488 3.1886697
1.9606493 3.0728478 2.53806 3.309617 3.0994818 2.3719423 2.783241 3.4358108
2.5581925 3.5036232 3.5492146 2.7684143 2.5223825 3.5634875 3.345793 2.336049
1.6857065 3.59933 2.626661 3.0634758 0.0022916412 0.00213029 0.0018424107 0.001954881
0.0016297185 0.002001605 0.0021538988 0.0023604878 0.0016289566 0.0022017837 0.002599797 0.0021147518
0.0020924797 0.0018607603 0.002257412 0.002229608 0.002107401 0.0012439631 0.0016604622 0.0022181133
0.0022810104 0.0021144554 0.0018410101 0.001955438 0.0016089906 0.0019996827 0.00214156 0.002317663
0.0016206825 0.0022036773 0.0026202628 0.0021101655 0.0021053061 0.0018968186 0.002244344 0.0022258717
0.002102193 0.0012669843 0.0016920917 0.0022137535 0.1508272 0.8935375 0.1508272 0.8935375
1e-12 0.13038062 0.7045894 0.08354168 0.06486865 0.043465532 1e-12
00000000: 6dee f83f ac03 4240 7188 1840 f5c6 4940
00000010: 5e87 4540 a00b 1540 6c52 2d40 bf02 5540
00000020: d391 1e40 ebea 6240 d854 6240 5a77 2a40
00000030: a476 2040 211d 6740 ec32 4d40 1566 1140
00000040: bdb9 d83f f3ad 6440 16a5 2540 8542 4540
00000050: 72a6 ff3f 29cf 4540 0b48 1d40 320c 4f40
00000060: 7a18 4840 2c33 1a40 e063 3540 c72f 5b40
00000070: 9df7 2440 36f7 6840 7250 6940 7a41 2d40
00000080: 5f9f 2640 3527 6c40 7ba0 5940 0d03 1640
00000090: 820c e03f cfce 6740 7fdc 2840 f82e 4b40
000000a0: 9cfc 0140 bf6b 4b40 6297 2440 a569 5840
000000b0: ac7c 4c40 d037 1c40 6cf1 3540 acdb 5d40
000000c0: a4cf 2640 f07f 6d40 c31e 6d40 baa8 3340
000000d0: 7c76 2a40 058d 7140 d8f5 5940 d123 1840
000000e0: 0a87 e23f 4f35 6e40 3f22 2c40 9db0 5040
000000f0: 852e 0040 9e78 4b40 15d3 2040 83de 5540
00000100: c50f 5040 40ed 1f40 65f8 3a40 481e 6340
00000110: e8d6 2540 56ed 7240 94c4 7040 cda4 3240
00000120: c3ac 2d40 9fa9 7440 f254 5e40 5c53 1640
00000130: 5a12 e43f 6c98 6e40 0bf8 2c40 1a1d 5640
00000140: 2043 0140 52f0 4b40 8070 2540 e320 5840
00000150: cb6f 4e40 cf67 2140 33a3 3b40 8f65 6240
00000160: 5f1e 2940 692a 7140 66ad 6f40 aa2a 3440
00000170: b964 2c40 4a0c 7240 bafe 5d40 d6e0 1a40
00000180: 51b7 e73f cf6b 6e40 9b20 2c40 30b0 5340
00000190: 8023 0140 deb9 4e40 edc5 2340 c0e3 5640
000001a0: 49ea 4f40 4cda 2340 adc9 3940 5659 6540
000001b0: b776 2b40 5602 7040 2946 6d40 51ef 3740
000001c0: 6704 2a40 24cf 6f40 4738 5c40 a00d 1a40
000001d0: ddf8 e73f b4aa 6b40 a3c2 2a40 4515 5340
000001e0: 24a1 ff3f fa20 4a40 d554 2240 1f04 5340
000001f0: cce0 4b40 0db5 1f40 b047 3740 0b4c 6040
00000200: 6725 2740 ed86 6d40 299e 6c40 a688 3340
00000210: 7ff1 2940 68e2 6c40 298d 5940 68c6 1940
00000220: f5ff e33f 6be1 6940 0380 2840 2803 5040
00000230: f991 fc3f 6440 4640 5c75 1d40 ab92 4d40
00000240: 8aab 4940 32ef 1b40 4e61 3340 983e 5c40
00000250: 55b7 2440 93be 6940 be9e 6840 b539 2e40
00000260: 45d2 2540 fce9 6a40 da0c 5440 5151 1540
00000270: 7ddf e13f 9658 6940 e9eb 2640 2a13 4c40
00000280: 8ef6 fa3f 8aa9 4440 936f 2240 c4d0 5340
00000290: e95d 4640 e7cd 1740 9f20 3240 53e4 5b40
000002a0: 6db9 2340 5d3b 6040 5526 6340 b32d 3140
000002b0: b76e 2140 2e10 6440 7921 5640 d481 1540
000002c0: 3bc5 d73f 6c5b 6640 371b 2840 fd0f 4440
000002d0: 5c2f 163b 569c 0b3b 0b7d f13a 761d 003b
000002e0: 479c d53a 5c2d 033b 6d28 0d3b 6ab2 1a3b
000002f0: b782 d53a cd4b 103b 5b61 2a3b a697 0a3b
00000300: fc21 093b c1e4 f33a 17f1 133b 9d1e 123b
00000310: 521c 0a3b 7a0c a33a dea3 d93a c45d 113b
00000320: 017d 153b ad92 0a3b 0c4e f13a ce26 003b
00000330: c4e4 d23a 1c0d 033b 6a59 0c3b efe3 173b
00000340: 156d d43a 926b 103b b7b8 2b3b b44a 0a3b
00000350: 2df9 093b ac9e f83a d815 133b eedf 113b
00000360: f2c4 093b f010 a63a 2dc9 dd3a 9f14 113b
00000370: 7272 1a3e e0be 643f 7272 1a3e e0be 643f
00000380: ccbc 8c2b 7f82 053e f95f 343f e617 ab3d
00000390: dbd9 843d ea08 323d ccbc 8c2b

standardizer_features.mu f4 [680]
-2.0 -1.0 -2.0 -3.0 -3.0 -1.0 -2.0 -3.0
2.0 -1.0 -1.0 -2.0 0.0 4.0 -3.0 -2.0
-2.0 2.0 8.0 -1.0 -1.601505 -1.280989 -1.0425022 -1.4054703
-2.5732036 -0.9141707 -1.1926847 -2.3951197 1.4901245 -1.7545127 -1.4785489 -1.5892044
-0.8159408 1.6682084 -2.4464474 -0.69445974 -1.0428271 -0.62188107 3.5133758 -1.6953598
2.9226213 -1.660408 -0.5093505 -1.3624932 -1.1463573 -0.7500375 -0.80269015 -0.6178309
-1.7989899 -1.2561628 -1.9165708 -0.79898995 -1.1036052 -2.7160609 -1.0969049 1.6469073
0.99552476 -3.20001 -1.9515476 -0.35306767 -0.41287065 -1.4891244 -0.7719886 -1.5847793
-2.418346 -0.25048754 -0.64455724 0.2777389 -1.0723786 -1.4454223 -0.99917495 -0.8277914
0.9091955 -2.0283513 -2.0072503 -0.6878594 -0.7785139 -2.178884 -1.2784889 -1.4966998
-2.0 -0.9983999 -1.9951998 -2.9968 -3.0 -0.9967998 -1.9967998 -2.9984
2.0128007 -1.0048002 -1.0032002 -1.9967998 -0.00160008 3.9919996 -2.9984 -1.9984
-2.0 1.9919996 7.9903994 -1.0048002 -1.6271564 4.638432 -0.79096454 -1.4183959
-3.6755838 1.3346168 0.3460173 -1.8819191 -0.15760788 -3.760763 -2.8091905 2.122056
-1.7776389 -3.1030552 -2.5611281 -0.8507925 -1.0945797 -2.7753637 -1.2720636 -3.0022752
-1.0 -0.1500075 1.1615081 1.7764888 -2.8156407 1.9578478 4.5500274 -2.4254713
0.19290964 -3.639382 -3.0339017 0.8499925 -1.8022901 -3.2058103 -1.1972599 -0.6098305
-0.8285414 -3.0253513 -1.9140457 -2.9096954 -1.0117756 -0.64068204 0.52912647 -1.4446223
-2.380619 -0.43724686 -1.1938097 -2.30034 -1.3074404 0.0899795 -1.3048402 1.0145757
-0.44912246 -2.437347 -2.042427 -0.93149656 -0.7565628 -3.2434373 -1.600505 -0.2859643
-0.48354918 -1.9652983 -1.8655432 -2.977774 -0.8618931 -1.5870544 -2.1571329 -2.643032
-0.96119803 0.12633131 -0.48907447 -2.0642533 0.22668633 0.759988 -2.6952097 -0.73911196
-0.62865645 -1.2483125 1.9852743 0.5177259 0.93229663 0.6655333 -0.40762037 -0.51525074
-2.3541927 -0.2498875 -0.1658583 -0.93844694 -1.2434121 -2.4683235 -2.4914496 0.13890694
-1.7589879 -3.1066303 -1.6038802 0.3584929 0.26923847 -3.2129107 -1.8905696 -1.6317816
-0.8873694 0.13658182 1.9694234 0.20303515 -2.4642732 2.9327466 0.7115356 -1.3852192
1.8570429 -2.919996 -2.657183 1.0106006 -0.9478724 -3.3312416 -1.4071454 0.46124807
-0.23686184 -2.4968247 -1.0202761 -2.7826142 0.5221761 -1.3179909 -0.42559627 -1.4255962
-1.181009 -1.0848043 -1.1974849 -1.8382169 -2.0852542 -0.84826744 -1.0819541 -1.1287564
-0.89691985 -1.8955197 -1.2258613 1.459173 3.6323566 -2.3832192 -1.759963 0.040877044
-2.179034 -1.8413421 0.011300565 2.7554379 -3.361743 -0.86849344 0.1260813 -2.0258012
0.3417671 -2.6475325 -2.401545 -1.6867594 -2.2428873 -0.5025001 -2.0264764 -1.0231012
00000000: 0000 00c0 0000 80bf 0000 00c0 0000 40c0
00000010: 0000 40c0 0000 80bf 0000 00c0 0000 40c0
00000020: 0000 0040 0000 80bf 0000 80bf 0000 00c0
00000030: 0000 0000 0000 8040 0000 40c0 0000 00c0
00000040: 0000 00c0 0000 0040 0000 0041 0000 80bf
00000050: 1efe ccbf 73f7 a3bf b670 85bf 73e6 b3bf
00000060: 5eaf 24c0 1707 6abf e4a9 98bf a449 19c0
00000070: 66bc be3f df93 e0bf 1741 bdbf 0d6b cbbf
00000080: 7fe1 50bf da87 d53f 9892 1cc0 1dc8 31bf
00000090: 5c7b 85bf 9933 1fbf 26db 6040 8d01 d9bf
000000a0: 3a0c 3b40 4088 d4bf cb64 02bf 2d66 aebf
000000b0: d6bb 92bf 7502 40bf 1a7d 4dbf 2a2a 1ebf
000000c0: 4d45 e6bf f1c9 a0bf 3152 f5bf 9b8a 4cbf
000000d0: ef42 8dbf f1d3 2dc0 6167 8cbf dccd d23f
000000e0: b6da 7e3f f7cc 4cc0 50cc f9bf 49c5 b4be
000000f0: c863 d3be a19b bebf 0ba1 45bf 0cda cabf
00000100: 2ec6 1ac0 e73f 80be b401 25bf cb33 8e3e
00000110: b443 89bf 9903 b9bf eec9 7fbf 23ea 53bf
00000120: 09c1 683f 82d0 01c0 ca76 00c0 8e17 30bf
00000130: b04c 47bf d672 0bc0 86a5 a3bf dc93 bfbf
00000140: 0000 00c0 2397 7fbf b562 ffbf 92cb 3fc0
00000150: 0000 40c0 462e 7fbf 2397 ffbf c9e5 3fc0
00000160: bad1 0040 4b9d 80bf dd68 80bf 2397 ffbf
00000170: c7b9 d1ba ec7c 7f40 c9e5 3fc0 92cb ffbf
00000180: 0000 00c0 d8f9 fe3f 5ab1 ff40 4b9d 80bf
00000190: a946 d0bf 096e 9440 a77c 4abf ff8d b5bf
000001a0: c43c 6bc0 b9d4 aa3f 2e29 b13e bae2 f0bf
000001b0: f663 21be 57b0 70c0 c7c9 33c0 c4cf 0740
000001c0: ac89 e3bf 7598 46c0 86e9 23c0 8acd 59bf
000001d0: 301b 8cbf 8f9f 31c0 fbd2 a2bf 4725 40c0
000001e0: 0000 80bf 919b 19be 4cac 943f fc63 e33f
000001f0: 7533 34c0 c29a fa3f d399 9140 ec3a 1bc0
00000200: 1b8a 453e a2eb 68c0 722b 42c0 1c99 593f
00000210: 71b1 e6bf ff2b 4dc0 d03f 99bf da1d 1cbf
00000220: 4a1b 54bf 5b9f 41c0 73ff f4bf 7338 3ac0
00000230: dd81 81bf bd03 24bf d574 073f 62e9 b8bf
00000240: 105c 18c0 d2de dfbe c2ce 98bf c538 13c0
00000250: 355a a7bf 2c47 b83d 0105 a7bf 9edd 813f
00000260: 61f3 e5be 7efd 1bc0 20b7 02c0 8f76 6ebf
00000270: 1aae 41bf 7a94 4fc0 59dd ccbf ea69 92be
00000280: c293 f7be e58e fbbf 1fca eebf d993 3ec0
00000290: 07a5 5cbf 9924 cbbf 770e 0ac0 7027 29c0
000002a0: 1311 76bf ff5c 013e f867 fabe ba1c 04c0
000002b0: 7620 683e 938e 423f 517e 2cc0 7136 3dbf
000002c0: a1ef 20bf b4c8 9fbf 781d fe3f af89 043f
000002d0: feaa 6e3f 6460 2a3f 9eb3 d0be 79e7 03bf
000002e0: 18ab 16c0 82e2 7fbe c2d6 29be 0f3e 70bf
000002f0: 2128 9fbf 03f9 1dc0 e973 1fc0 9f3d 0e3e
00000300: 8426 e1bf 08d3 46c0 f24b cdbf 628c b73e
00000310: a0d9 893e 54a0 4dc0 2ffe f1bf 38de d0bf
00000320: a42a 63bf 1bdc 0b3e 1116 fc3f 72e8 4f3e
00000330: a7b6 1dc0 1fb2 3b40 3227 363f dd4e b1bf
00000340: 95b3 ed3f 37e1 3ac0 490f 2ac0 5c5b 813f
00000350: c4a7 72bf 1033 55c0 571d b4bf b528 ec3e
00000360: e98b 72be facb 1fc0 6898 82bf 5a16 32c0
00000370: 55ad 053f edb3 a8bf c1e7 d9be f079 b6bf
00000380: 4e2b 97bf deda 8abf 2f47 99bf b14a ebbf
00000390: ce74 05c0 0e28 59bf 797d 8abf 177b 90bf
000003a0: 8a9c 65bf 64a0 f2bf 06e9 9cbf 2ec6 ba3f
000003b0: 8878 6840 aa86 18c0 7846 e1bf b06e 273d
000003c0: 4b75 0bc0 19b1 ebbf 0126 393c 1859 3040
000003d0: cc26 57c0 9655 5ebf 751b 013e baa6 01c0
000003e0: 19fc ae3e 2c71 29c0 eab2 19c0 bbe7 d7bf
000003f0: 778b 0fc0 d9a3 00bf cab1 01c0 fbf4 82bf

standardizer_features.sigma f4 [680]
1e-12 1e-12 1e-12 1e-12 1e-12 1e-12 1e-12 1e-12
1e-12 1e-12 1e-12 1e-12 1e-12 1e-12 1e-12 1e-12
1e-12 1e-12 1e-12 1e-12 1.2058026 0.89401644 1.9418905 3.481498
0.9005948 1.4802777 1.7604998 1.2650971 3.4423106 1.6209255 1.66279 1.3275057
1.3394277 4.133791 1.0649546 2.5358148 1.7881432 2.7987566 4.4161315 1.4642181
2.419874 0.78287274 0.96987045 1.2285187 0.47206157 0.8785851 1.6720692 1.1783148
0.7410974 1.7085915 1.0750928 0.7410974 0.8211585 0.7028749 0.42944086 1.9726398
1.836009 0.40000784 0.21472043 1.375208 1.3163153 1.5927492 0.9866933 2.1992612
0.7142106 1.4588503 3.0651717 4.752174 0.9528817 2.645944 2.966004 2.1796653
4.368517 2.081831 0.8579542 1.2372661 1.7829009 1.23252 2.08836 2.1502478
1e-12 0.03996902 0.11990705 0.07993804 1e-12 0.07993804 0.07993804 0.03996902
0.31975216 0.11990705 0.07993804 0.07993804 0.03996902 0.19984509 0.03996902 0.03996902
1e-12 0.19984509 0.2398141 0.11990705 0.6503779 3.725452 0.66502196 1.2562684
0.51509523 2.1582234 2.0801086 3.2121513 0.8136001 0.9350341 1.2789949 1.690222
1.0125023 0.7442841 0.8122716 0.51517177 0.2926338 0.6129727 0.62225807 0.6810241
1e-12 0.65453875 2.677403 0.84064364 0.38777718 1.6831279 2.555195 1.139737
0.64320225 1.0767641 0.75224996 0.65453875 0.6778912 0.564146 0.42912704 0.81133187
0.3769095 0.680464 0.28029677 0.7899226 0.10787467 3.1348214 3.8922644 2.344036
0.5092149 2.1767738 2.266143 1.5640339 2.1765926 3.9086914 2.6576054 3.926902
1.9489216 1.942526 0.86877155 1.696174 0.4291571 0.4291571 0.489795 3.4106128
1.9512211 1.0313587 1.3925238 1.4257405 3.8258703 1.2724359 0.76109487 1.4820741
2.3574204 2.4792407 1.8219192 1.1038046 2.0930283 3.303409 0.97096926 2.5581641
1.3820038 2.617594 4.475756 2.6136136 3.0640988 3.927841 0.9370162 3.063689
1.4174917 1.0766588 1.813136 2.551989 0.912796 1.498199 0.9493213 1.8264524
0.9650203 0.79393834 0.8859952 1.1168611 2.157123 0.61505353 0.6514388 1.6976663
1.0000708 1.1645348 3.0026832 1.2330784 0.72858673 3.378856 1.1463466 0.92801297
3.4989922 0.81693584 0.97792214 1.6321995 0.87937355 1.1384315 0.49429604 1.1641761
1.8308803 1.280532 1.3303216 1.0839657 1.8627064 0.7866663 1.0481215 1.0481215
0.7488767 0.5900225 0.69303787 0.9280609 0.5248298 1.3162609 0.7991664 0.8375314
0.5936061 1.2500961 0.7280224 1.5899847 2.4403439 3.2600996 0.93477553 1.194206
0.39380383 0.79086107 2.444541 5.8058105 0.7726929 1.5546002 2.1512017 1.2163925
2.817563 1.717884 1.9798225 1.1969479 1.9348197 5.325138 1.2155453 1.2252934
00000000: ccbc 8c2b ccbc 8c2b ccbc 8c2b ccbc 8c2b
00000010: ccbc 8c2b ccbc 8c2b ccbc 8c2b ccbc 8c2b
00000020: ccbc 8c2b ccbc 8c2b ccbc 8c2b ccbc 8c2b
00000030: ccbc 8c2b ccbc 8c2b ccbc 8c2b ccbc 8c2b
00000040: ccbc 8c2b ccbc 8c2b ccbc 8c2b ccbc 8c2b
00000050: bd57 9a3f 43de 643f de8f f83f ddd0 5e40
00000060: 618d 663f bd79 bd3f 0f58 e13f b4ee a13f
00000070: d14e 5c40 7d7a cf3f 4dd6 d43f b5eb a93f
00000080: 5e72 ab3f 0448 8440 6f50 883f ca4a 2240
00000090: e0e1 e43f d41e 3340 f350 8d40 806b bb3f
000000a0: 37df 1a40 596a 483f 6e49 783f 1a40 9d3f
000000b0: 0eb2 f13e f4ea 603f 5d06 d63f 05d3 963f
000000c0: 8fb8 3d3f 20b3 da3f a49c 893f 8fb8 3d3f
000000d0: 7237 523f 9cef 333f acdf db3e 767f fc3f
000000e0: 5802 eb3f d4cd cc3e acdf 5b3e d106 b03f
000000f0: 057d a83f 35df cb3f ef97 7c3f b2c0 0c40
00000100: 82d6 363f 9bbb ba3f c62b 4440 cf11 9840
00000110: 0ef0 733f 2657 2940 02d3 3d40 a37f 0b40
00000120: e4ca 8b40 b83c 0540 e3a2 5b3f bc5e 9e3f
00000130: 1936 e43f 37c3 9d3f b1a7 0540 a99d 0940
00000140: ccbc 8c2b 8eb6 233d d491 f53d 8eb6 a33d
00000150: ccbc 8c2b 8eb6 a33d 8eb6 a33d 8eb6 233d
00000160: 8eb6 a33e d491 f53d 8eb6 a33d 8eb6 a33d
00000170: 8eb6 233d 31a4 4c3e 8eb6 233d 8eb6 233d
00000180: ccbc 8c2b 31a4 4c3e d491 753e d491 f53d
00000190: 2b7f 263f ce6d 6e40 e13e 2a3f 67cd a03f
000001a0: 48dd 033f 5520 0a40 8020 0540 e393 4d40
000001b0: 1948 503f 655e 6f3f 1bb6 a33f 3259 d83f
000001c0: ad99 813f 6789 3e3f 08f1 4f3f 4ce2 033f
000001d0: 19d4 953e c7eb 1c3f 4e4c 1f3f 9857 2e3f
000001e0: ccbc 8c2b da8f 273f 925a 2b40 6c34 573f
000001f0: bb8a c63e bc70 d73f 5188 2340 e7e2 913f
00000200: e7a8 243f 68d3 893f 7493 403f da8f 273f
00000210: 478a 2d3f df6b 103f 8ab6 db3e 72b3 4f3f
00000220: 48fa c03e e432 2e3f 0f83 8f3e 5e38 4a3f
00000230: 65ed dc3d eaa0 4840 dc1a 7940 b004 1640
00000240: e85b 023f 4350 0b40 7d08 1140 4332 c83f
00000250: 4b4d 0b40 0028 7a40 3516 2a40 5d52 7b40
00000260: 4376 f93f b1a4 f83f d067 5e3f 3b1c d93f
00000270: 7bba db3e 7bba db3e 69c6 fa3e 7b47 5a40
00000280: 9dc1 f93f 9003 843f 383e b23f aa7e b63f
00000290: 0fdb 7440 2edf a23f 1dd7 423f 9bb4 bd3f
000002a0: fadf 1640 e1ab 1e40 a634 e93f 7849 8d3f
000002b0: 2df4 0540 0e6b 5340 7191 783f f6b8 2340
000002c0: 80e5 b03f a986 2740 6539 8f40 7245 2740
000002d0: 321a 4440 bf61 7b40 4be0 6f3f 7b13 4440
000002e0: 5e70 b53f f5cf 893f d714 e83f ca53 2340
000002f0: 00ad 693f fcc4 bf3f b906 733f 31c9 e93f
00000300: 920b 773f 8b3f 4b3f 95d0 623f 4ef5 8e3f
00000310: 4e0e 0a40 2674 1d3f b1c4 263f 214d d93f
00000320: 5202 803f 7a0f 953f f62b 4040 83d5 9d3f
00000330: a984 3a3f 2d3f 5840 7cbb 923f 4292 6d3f
00000340: 7def 5f40 b522 513f 1b59 7a3f eaeb d03f
00000350: a01e 613f 20b8 913f 5f14 fd3e b903 953f
00000360: 495a ea3f 79e8 a33f fa47 aa3f 63bf 8a3f
00000370: 2a6d ee3f f662 493f d828 863f d828 863f
00000380: 62b6 3f3f b70b 173f ee6a 313f 6695 6d3f
00000390: 3f5b 063f 3d7b a83f 2b96 4c3f 7568 563f
000003a0: 92f6 173f 2603 a03f ad5f 3a3f 9e84 cb3f
000003b0: 982e 1c40 79a5 5040 734d 6f3f bedb 983f
000003c0: a8a0 c93e df75 4a3f 5c73 1c40 33c9 b940
000003d0: 34cf 453f 24fd c63f 4aad 0940 c0b2 9b3f
000003e0: f452 3440 9fe3 db3f d36a fd3f 9735 993f
000003f0: 2ca8 f73f 8867 aa40 fd96 9b3f 6ad6 9c3f
