output/random_DRB4_0101/CSL_mhc_nostd_burn_60nh_ran_DRB4_0101_KFold_4_231030_1852_None/checkpoint_best_kcv_train_all5_DRB4_0101_f04_CSL_mhc_nostd_burn_60nh_ran_DRB4_0101_KFold_4_231030_1852_None.pt (torch, 210635 bytes, 7 tensors)

in_layer.weight f4 [60, 860]
0.003516575 0.00026013385 -0.017971095 -0.013030505 -0.021888494 -0.017530462 0.012846894 0.007010015
-0.0012289092 0.032968156 0.0034668448 -0.0038941107 0.026066242 0.0023952483 -0.0004773985 0.0056088893
0.0033114173 -0.009452436 -0.014990081 -0.019578133 -0.00042625793 0.010982623 -0.008043956 -0.015516399
0.0053582275 0.003789044 -0.0023502836 -0.008032053 0.014345822 -0.011664951 0.018839842 0.02483214
-0.014097633 0.0037669681 0.014358038 -0.015454877 -0.02431542 0.013349164 0.0012737674 -4.9931667e-05
-0.0032983436 0.01189735 0.010846366 -0.023294106 -0.019656997 0.016069738 0.0013410724 -0.013986301
-0.009118502 0.023816474 -0.0095052 0.008187187 0.017775565 -0.018027797 -0.017233377 0.0013782748
0.0046923263 0.018250922 0.007114254 0.012184273 -0.0035591505 0.009133889 -0.019417822 0.009674159
4.6232584e-05 0.035807326 0.009705243 -0.012690939 -0.00972089 0.011093713 0.0059266267 -0.017614935
-0.0061196825 -0.017323159 -0.016873624 0.024004376 0.012236142 0.008068202 -0.018542364 -0.014006836
0.007550808 0.02492576 0.008455299 -0.018370442 -0.00806637 -0.0040383707 0.0048165494 0.0055987053
-0.029375447 -0.010596155 0.010327786 0.007188211 0.01211351 0.0041491156 0.011082751 -0.0071535823
-0.014652049 0.0034700737 0.010461552 -0.004229456 -0.008565269 0.015254575 0.01746082 -0.0064376066
-0.020683352 0.00646738 -0.030745372 -0.010844293 -0.0023467015 0.0017514548 0.009715004 -0.0019031101
-0.013755825 -0.0072047096 0.00472494 0.017492939 -0.001287546 -0.01188346 0.0024726691 0.014812562
0.009274263 -0.020037489 0.0013533119 0.0061296825 0.0021639732 0.00053931936 -0.004331642 -0.0015325078
-0.00580624 0.016566267 0.00456405 0.010846239 0.0060891 -0.004394206 0.002481421 -0.004410156
0.0136523275 -0.005591738 0.008727024 -0.0077023464 0.0036277315 0.006470818 -0.013505231 0.013321428
0.011627272 0.014661229 -0.0012988711 -0.003007074 0.008834838 0.006970864 -0.019184701 0.009260813
-0.021927297 -0.009793766 -0.0077229976 -0.008795306 -0.025285052 0.008966758 -0.004948511 -0.0014540231
0.0019324194 -0.01025986 -0.018369904 0.00016044539 -0.020862835 -0.0024912197 0.007393767 0.015382985
0.0034856813 -0.028060634 0.022811083 0.0066509303 0.020209536 -0.0055480814 -0.01295722 0.006741611
0.00296406 -0.0015887198 -0.00982954 0.02107291 8.443974e-08 7.774113e-08 -3.8144583e-27 -6.15757e-40
2.860242e-07 2.3287694e-07 -1.8037457e-07 -1.0767914e-07 -1.0163967e-07 1.5258111e-07 1.1938978e-07 -1.7593304e-07
1.0352078e-19 1.2522449e-07 -1.8522896e-07 -5.7229e-41 -1.9508464e-07 7.136827e-08 5.148083e-08 1.1045588e-07
5.6889295e-08 1.26144785e-24 3.3431e-41 -1.09168205e-07 2.3413433e-07 -2.0982184e-06 -2.2337458e-07 4.443686e-07
-1.8399e-41 3.0762914e-07 2.1669004e-07 -2.4619258e-09 1.9326734e-07 1.2187233e-07 9.494341e-08 1.0178014e-07
7.966335e-08 2.4868308e-07 3.1230307e-08 1.12390886e-07 1.1498122e-07 1.10493396e-07 1.2368243e-07 1.118872e-07
1.6376272e-07 2.8430404e-07 2.1300384e-07 1.16923715e-07 -2.0129148e-07 -1.812431e-39 -8.2906965e-08 3.327922e-07
-4.70828e-40 -2.8714365e-07 2.591805e-07 -2.9608232e-06 -6.0419484e-07 -3.118541e-08 -3.950088e-07 2.6664747e-08
1.4720472e-07 2.249803e-07 4.0671117e-07 2.524876e-07 1.795721e-07 1.638272e-07 1.6146124e-07 -7.850925e-07
4.372645e-08 1.15624e-40 -8.292828e-08 -6.3698445e-07 3.16472e-30 -5.276818e-07 1.2700589e-07 1.1861739e-07
00000000: 5776 663b 9362 8839 1e38 93bc e67d 55bc
00000010: 804f b3bc 0b9c 8fbc c77b 523c 45b4 e53b
00000020: 5a13 a1ba 9e09 073d 0134 633b 5634 7fbb
00000030: df88 d53c 99f9 1c3b 584b fab9 c6ca b73b
00000040: 5d04 593b 64de 1abc f598 75bc 5262 a0bc
00000050: 5f7b dfb9 76f0 333c ccca 03bc 7f38 7ebc
00000060: 1294 af3b 9c51 783b 3707 1abb df98 03bc
00000070: bd0a 6b3c 5a1e 3fbc 0356 9a3c c66c cb3c
00000080: c2f9 66bc 3ddf 763b fa3d 6b3c 7436 7dbc
00000090: 2231 c7bc 74b6 5a3c 8bf4 a63a b86d 51b8
000000a0: 0629 58bb 1aed 423c f5b4 313c 48d3 bebc
000000b0: b607 a1bc afa4 833c ecc6 af3a cc26 65bc
000000c0: c565 15bc c41a c33c b3bb 1bbc 8d23 063c
000000d0: 109e 913c 08af 93bc 032d 8dbc 3aa7 b43a
000000e0: 16c2 993b f582 953c b01e e93b 8ca0 473c
000000f0: a340 69bb 4fa6 153c 2012 9fbc 5d80 1e3c
00000100: dce9 4138 b4aa 123d bd02 1f3c a8ed 4fbc
00000110: 5e44 1fbc 68c2 353c 2634 c23b 324d 90bc
00000120: 9e87 c8bb 4ce9 8dbc 8e3a 8abc d3a4 c43c
00000130: 197a 483c 7e30 043c 28e6 97bc ee7c 65bc
00000140: c56c f73b 1c31 cc3c 1888 0a3c 9c7d 96bc
00000150: cf28 04bc 4f54 84bb 25d4 9d3b 5875 b73b
00000160: c7a4 f0bc 7f9b 2dbc e035 293c 168b eb3b
00000170: be77 463c 4ef5 873b 6d94 353c 9968 eabb
00000180: 260f 70bc 2d6a 633b ee66 2b3c 4097 8abb
00000190: 5855 0cbc 53ee 793c fe09 8f3c 8ff2 d2bb
000001a0: 2270 a9bc 51ec d33b b8dd fbbc 43ac 31bc
000001b0: 1ecb 19bb 1291 e53a ae2b 1f3c c771 f9ba
000001c0: 1d60 61bc 7c15 ecbb abd3 9a3b 5a4d 8f3c
000001d0: e0c2 a8ba d8b2 42bc 810c 223b 63b0 723c
000001e0: 14f3 173c a925 a4bc 9d61 b13a 81db c83b
000001f0: 72d1 0d3b 1c61 0d3a 72f0 8dbb 6ede c8ba
00000200: 4542 bebb fbb5 873c 078e 953b 6cb4 313c
00000210: 1387 c73b 46fd 8fbb 569f 223b 1283 90bb
00000220: 03ae 5f3c e63a b7bb cbfb 0e3c f763 fcbb
00000230: 3cbf 6d3b 2809 d43b 0b45 5dbc 1e42 5a3c
00000240: 5080 3e3c a735 703c e23e aaba 5412 45bb
00000250: ffbf 103c d86b e43b 3c29 9dbc aaba 173c
00000260: e0a0 b3bc 0876 20bc 3311 fdbb 301a 10bc
00000270: 9922 cfbc 4fe9 123c 1e27 a2bb eb94 beba
00000280: 3c49 fd3a f918 28bc 7b7c 96bc 3b3d 2839
00000290: 89e8 aabc bb43 23bb 6a47 f23b ea08 7c3c
000002a0: 0770 643b 6adf e5bc 4fde ba3c 0cf0 d93b
000002b0: 788e a53c aecc b5bb 854a 54bc bbe8 dc3b
000002c0: ad40 423b 973c d0ba 140c 21bc 18a1 ac3c
000002d0: 3d55 b533 a3f2 a633 341b 9793 7bb4 0680
000002e0: de8e 9934 ba0c 7a34 fcac 41b4 3c3d e7b3
000002f0: 0045 dab3 2dd5 2334 9d31 0034 1be8 3cb4
00000300: 796e f41f 7275 0634 59e3 46b4 889f 0080
00000310: 7578 51b4 1f43 9933 c51b 5d33 c333 ed33
00000320: 7156 7433 1933 c317 315d 0000 db6f eab3
00000330: 5b66 7b34 1ecf 0cb6 bdd8 6fb4 8e91 ee34
00000340: 4a33 0080 3a28 a534 4eab 6834 a82e 29b1
00000350: ec84 4f34 03dc 0234 b1e3 cb33 3992 da33
00000360: 6413 ab33 be82 8534 1622 0633 8b5b f133
00000370: 98eb f633 6348 ed33 91cd 0434 a446 f033
00000380: c1d6 2f34 73a2 9834 0db6 6434 7e17 fb33
00000390: 9522 58b4 52bc 1380 960a b2b3 9daa b234
000003a0: 7a20 0580 b928 9ab4 7f25 8b34 8eb2 46b6
000003b0: f42f 22b5 b9f0 05b3 9911 d4b4 660c e532
000003c0: 530f 1e34 1d92 7134 f559 da34 a28d 8734
000003d0: 67d0 4034 7ae8 2f34 215e 2d34 25bf 52b5
000003e0: bdcd 3b33 5042 0100 4e16 b2b3 3dfd 2ab5
000003f0: 5560 800e 04a6 0db5 1d5f 0834 9aba fe33

in_layer.bias f4 [60]
-6.870182e-09 5.792673e-10 3.6419203e-09 2.346351e-20 -9.575658e-10 2.6652227e-22 5.0926685e-10 3.4649834e-16
1.1070411e-11 2.2597706e-09 -6.8745676e-10 -1.0354127e-08 -2.1156736e-09 -1.1872381e-09 5.6342e-41 -2.6316027e-08
-3.7242172e-09 1.8039981e-09 -2.7055196e-09 -6.9198403e-09 3.6878307e-09 -8.325627e-10 -6.3121547e-15 -3.5051269e-09
2.9131743e-12 2.9670535e-09 -8.119235e-10 1.3824499e-09 -1.0707353e-09 4.8770055e-10 3.919165e-08 -1.6855981e-09
-2.0040542e-14 2.137555e-23 4.5921364e-09 -6.319018e-10 1.4318894e-08 -1.4231842e-09 -2.5298474e-20 -9.420787e-09
4.886658e-10 1.2613868e-09 1.0741262e-09 -1.486188e-17 5.144637e-09 -4.0787898e-09 4.82062e-40 -3.212449e-09
2.6074304e-10 -1.0955835e-08 -3.42815e-40 7.582587e-09 5.106758e-12 1.5959398e-38 3.015859e-10 2.0880156e-19
5.6317248e-18 1.0020466e-08 -1.3904795e-09 1.2490889e-35
00000000: c30e ecb1 503a 1f30 5745 7a31 499b dd1e
00000010: 5a9b 83b0 531a a11b 78fc 0b30 21be c725
00000020: b3c0 422d 4e4a 1b31 78f7 3cb0 efe1 31b2
00000030: 5363 11b1 3a2c a3b0 0f9d 0000 8e0d e2b2
00000040: 1fed 7fb1 8af0 f730 01ec 39b1 8fc3 edb1
00000050: 016d 7d31 64da 64b0 5a6b e3a7 d8de 70b1
00000060: 15ff 4c2c f5e4 4b31 092e 5fb0 a200 be30
00000070: 2629 93b0 e00e 0630 ad53 2833 b6aa e7b0
00000080: 5882 b4a8 4cbb ce19 dcc8 9d31 23b2 2db0
00000090: 29ff 7532 d899 c3b0 f5ef ee9e 0fd9 21b2
000000a0: cc52 0630 1a5d ad30 75a0 9330 9f13 89a3
000000b0: b5c4 b031 6a25 8cb1 cb3f 0500 00c2 5cb1
000000c0: 5258 8f2f 4638 3cb2 a1bb 0380 9244 0232
000000d0: 96ad b32c 4fc8 ad00 71cc a52f 6682 7620
000000e0: 23c6 cf22 7a26 2c32 261b bfb0 6fd3 8405

out_layer.weight f4 [1, 60]
0.06473756 -0.117471784 0.06103113 0.018125001 -0.08920449 0.0021461141 -0.0084024845 0.017558744
0.028425118 0.08115684 0.10814136 -0.1359669 -0.11274167 0.10804861 1.4507286e-15 0.11520629
0.099439405 -0.09021676 -0.057281647 -0.06301826 -0.11841733 0.07034902 0.0010872723 -0.09510939
0.010150317 0.067906156 -0.028062357 -0.10209935 0.021233397 -0.0045944727 0.11122624 0.058281966
-0.0039153346 0.0082411 -0.16432886 -0.0059281625 -0.10785981 -0.09176227 -7.88921e-06 -0.16464463
0.028770395 -0.09844467 0.045719992 -0.00024240049 -0.10174545 0.029863361 0.0007901544 0.11758038
-0.0042458293 -0.13171132 0.0021868502 -0.13098672 0.00082597026 0.0067645786 -0.13857758 0.0035313503
0.0018113605 -0.13204484 -0.016192546 -0.07485216
00000000: 2095 843d 0c95 f0bd c7fb 793d e27a 943c
00000010: d8b0 b6bd d2a5 0c3b 93aa 09bc 5bd7 8f3c
00000020: cbdb e83c 8f35 a63d 3879 dd3d e83a 0bbe
00000030: 1be5 e6bd 9748 dd3d 7012 d126 46f1 eb3d
00000040: e3a6 cb3d 91c3 b8bd 29a0 6abd b80f 81bd
00000050: c984 f2bd 2613 903d ce82 8e3a b6c8 c2bd
00000060: 844d 263c 6212 8b3d 07e3 e5bc 7719 d1bd
00000070: a9f1 ad3c 3b8d 96bb 95ca e33d 12b9 6e3d
00000080: 354c 80bb ae05 073c d345 28be 0841 c2bb
00000090: 9be5 dcbd dbed bbbd e65b 04b7 9a98 28be
000000a0: e4af eb3c 5c9d c9bd e344 3b3d e32c 7eb9
000000b0: eb5f d0bd 02a4 f43c 5d22 4f3a fbcd f03d
000000c0: 9920 8bbb 55df 06be 4251 0f3b 6221 06be
000000d0: ed85 583a 66a9 dd3b 48e7 0dbe 3a6e 673b
000000e0: 2c6b ed3a c336 07be 3ba6 84bc 174c 99bd

bn1.weight f4 [60]
0.7648053 0.76619154 0.76412857 0.7631292 0.76519233 0.76271886 0.76259065 0.7626874
0.7626006 0.7647541 0.7721397 0.767012 0.76533705 0.7647582 0.76255506 0.76762986
0.7643541 0.76445687 0.7642126 0.76385736 0.7668673 0.7645919 0.7626632 0.76475096
0.76263946 0.76383525 0.76293916 0.7649213 0.7624012 0.76260483 0.77030843 0.7653816
0.7625494 0.7628592 0.7657354 0.76261294 0.7649956 0.76471287 0.7625551 0.76769483
0.7625618 0.7650361 0.76300967 0.7625551 0.7655006 0.7629427 0.7625536 0.7702509
0.76271665 0.76574075 0.76256454 0.76697344 0.7625549 0.7627231 0.7662553 0.7627258
0.7625708 0.76746887 0.7627022 0.76358503
00000000: 48ca 433f 2125 443f ee9d 433f 6f5c 433f
00000010: a5e3 433f 8b41 433f 2439 433f 7b3f 433f
00000020: cb39 433f edc6 433f f3aa 453f e65a 443f
00000030: 21ed 433f 32c7 433f cf36 433f 6483 443f
00000040: b6ac 433f 72b3 433f 70a3 433f 288c 433f
00000050: 6a51 443f 4bbc 433f e53d 433f b8c6 433f
00000060: 573c 433f b58a 433f fb4f 433f e2d1 433f
00000070: ba2c 433f 123a 433f ef32 453f 0cf0 433f
00000080: 7036 433f be4a 433f 3c07 443f 9a3a 433f
00000090: c0d6 433f 39c4 433f d036 433f a687 443f
000000a0: 4037 433f 68d9 433f 9a54 433f d036 433f
000000b0: d9f7 433f 3650 433f b636 433f 2a2f 453f
000000c0: 6641 433f 9607 443f 6e37 433f 5f58 443f
000000d0: cc36 433f d241 433f 4f29 443f ff41 433f
000000e0: d737 433f d778 443f 7440 433f 4f7a 433f

bn1.bias f4 [60]
-0.0025236288 0.0074211005 -0.0024883852 -3.4922087e-07 -0.0016888393 3.5029008e-16 0.0006342216 -0.00033013913
-0.00015233194 -0.0035385573 -0.002985012 0.010896564 0.008895148 -0.0035173604 -2.1413423e-36 -0.0039616954
-0.004825471 0.007188639 0.0048656734 0.0048039677 0.00493033 -0.0038453517 -1.12153575e-08 0.0012731428
-4.817781e-06 -0.002531858 0.0023687875 0.0026681507 -0.00024329571 0.0003411703 -0.0033093472 -0.0028338942
-7.6575873e-10 1.6857182e-17 0.014239442 0.0004491218 0.0049014324 0.0018194547 -3.782866e-33 0.013017958
-0.002213851 0.0050223228 -0.0016429872 1.2432444e-11 0.006567386 -0.0013906931 -5.099566e-37 -0.0027910934
0.0003224534 0.008943806 -6.70119e-40 0.0089224735 8.639768e-08 -1.1956906e-14 0.009001801 -4.1595474e-09
-3.159868e-13 0.0077660675 0.0013089005 0.0005698643
00000000: 7763 25bb b42c f33b 2d14 23bb 8d7c bbb4
00000010: 0b5c ddba b1ed c925 e441 263a 8616 adb9
00000020: 4bbb 1fb9 24e7 67bb 31a0 43bb 8187 323c
00000030: f4bc 113c 8483 66bb 4e2a 3684 1cd1 81bb
00000040: fc1e 9ebb ad8e eb3b 3a70 9f3b 9a6a 9d3b
00000050: 9b8e a13b 4c02 7cbb aaad 40b2 95df a63a
00000060: 6ca8 a1b6 87ed 25bb a93d 1b3b 24dc 2e3b
00000070: 321d 7fb9 1adf b239 a2e1 58bb dbb8 39bb
00000080: 7b7d 52b0 e57a 9b23 8c4c 693c 1c78 eb39
00000090: 329c a03b c57a ee3a 5522 9d89 4649 553c
000000a0: 4216 11bb 4c92 a43b 8159 d7ba c0b6 5a2d
000000b0: 3a33 d73b eb47 b6ba 7c87 2d83 c7ea 36bb
000000c0: f60e a939 0b89 123c 054c 0780 912f 123c
000000d0: a089 b933 7f65 57a8 4a7c 133c c4eb 8eb1
000000e0: 7fe2 b1aa 7f7a fe3b 6a8f ab3a f262 153a

bn1.running_mean f4 [60]
0.22692959 -0.29398686 0.23729809 0.95148975 0.035123013 0.094993986 -0.72344846 0.5505657
0.7478082 0.13430013 0.14460325 -0.4660388 -0.5913359 0.14905258 1.979604e-11 0.09198726
0.26513052 -0.9309414 -0.9389889 -0.32403722 -0.15844497 0.19954512 0.07432815 -0.28125978
0.39015153 0.28370962 -0.52198607 -0.22866164 0.11766407 -0.707237 0.34020883 0.31154275
0.05987683 0.42438108 -0.51358825 -0.66126055 -0.39768538 -0.16808501 0.03881099 -0.58834624
-1.7652432 -0.34693778 0.2575639 1.7665236e-05 -0.35651255 0.032169573 3.2394248e-06 0.16383615
-0.56446964 -0.46958888 2.5015232e-05 -0.5380647 0.106276505 0.026605047 -0.4366446 0.11226235
0.18118283 -0.4197829 -0.5890689 1.1018263
00000000: 3b60 683e 7285 96be 45fe 723e d594 733f
00000010: 26dd 0f3d 358c c23d eb33 39bf e0f1 0c3f
00000020: 5c70 3f3f f985 093e e012 143e a39c eebe
00000030: ca61 17bf 3da1 183e b820 ae2d d163 bc3d
00000040: 30bf 873e 2d52 6ebf 9461 70bf 35e8 a5be
00000050: 663f 22be 8e55 4c3e 5b39 983d 4801 90be
00000060: f1c1 c73e 6342 913e e1a0 05bf 4726 6abe
00000070: dcf9 f03d 7c0d 35bf da2f ae3e 8882 9f3e
00000080: 6841 753d 7a48 d93e 857a 03bf 5f48 29bf
00000090: 6b9d cbbe 7a1e 2cbe 46f8 1e3d dc9d 16bf
000000a0: 7df3 e1bf d4a1 b1be 6adf 833e ce2f 9437
000000b0: d088 b6be 3ec4 033d e564 5936 aac4 273e
000000c0: 1581 10bf f46d f0be cdd7 d137 9cbe 09bf
000000d0: 7fa7 d93d d4f2 d93c e28f dfbe cee9 e53d
000000e0: fe87 393e c9ed d6be 38cd 16bf a508 8d3f

bn1.running_var f4 [60]
0.07910083 0.104561105 0.058335457 0.30653778 0.11218535 0.0038810852 0.1629815 0.10963847
0.20869525 0.049153373 0.17302197 0.12013168 0.14829439 0.07613915 1.674186e-22 0.10860493
0.12610896 0.23513757 0.31753653 0.05091345 0.038337372 0.07183527 0.0025000265 0.08089724
0.050120004 0.06680842 0.0808544 0.043068744 0.038642265 0.20590475 0.09997179 0.05448388
0.0014000962 0.063675 0.19251817 0.1392407 0.0998435 0.07456088 0.0005574059 0.1580021
1.5771582 0.055119567 0.087733984 2.2225873e-10 0.07532813 0.031720396 3.867556e-12 0.1033786
0.100163184 0.14047152 1.7767741e-10 0.08752152 0.012606279 0.00025765604 0.109149 0.0041700318
0.012081411 0.10242467 0.10681075 0.64726907
00000000: 9eff a13d 2224 d63d 29f1 6e3d 85f2 9c3e
00000010: 6fc1 e53d ce59 7e3b 9fe4 263e 228a e03d
00000020: 35b4 553e 0c55 493d ac2c 313e 9907 f63d
00000030: 7cda 173e d8ee 9b3d 8c65 4a1b 436c de3d
00000040: b522 013e e7c7 703e 2694 a23e 9f8a 503d
00000050: a607 1d3d 5f1e 933d 7cd7 233b 74ad a53d
00000060: a24a 4d3d dad2 883d fe96 a53d da68 303d
00000070: 5a47 1e3d b2d8 523e 03be cc3d 7d2a 5f3d
00000080: 6f83 b73a 0a68 823d 7c23 453e 1d95 0e3e
00000090: c07a cc3d 60b3 983d e01e 123a 4dcb 213e
000000a0: 52e0 c93f 0ec5 613d e0ad b33d 4560 742f
000000b0: a245 9a3d 3fed 013d d913 882c 29b8 d33d
000000c0: 5b22 cd3d c4d7 0f3e bf5b 432f 7c3e b33d
000000d0: 918a 4e3c 0216 8739 8389 df3d c3a4 883b
000000e0: 1cf1 453c 06c4 d13d 98bf da3d 6db3 253f
