output/230525_NOSTD_FixedPadding_MHCII_DRB1_0301_kcvs/230525_FixedPadding_DRB1_NOSTD_230525_135134_40N6x/checkpoint_best_kcv_drb1_0301_f3_230525_FixedPadding_DRB1_NOSTD_230525_135134_40N6x.pt (torch, 41675 bytes, 14 tensors)

nnalign.in_layer.weight f4 [50, 180]
00000000: a8f6 8e3b 166f d33b d428 e0ba 5ff5 673b
00000010: a49c 393c 5183 07bb 9489 b63b 3167 603b
00000020: 7103 443b 73bd 23bc d799 ffbb 3183 bb3b
00000030: a719 0fbb f80f 27bc f4af 293b 5c9e 8d3b
00000040: c91b 253c 7ba9 213c 4892 353c a5b8 eabb
00000050: ccd8 23bc 0cee 99bb e57f 5dbc c6e6 4b3b
00000060: e8c9 073c a035 2cbc fd24 8dbb a864 7e3b
00000070: 00ce 853c f883 1fbc cd9d e53a b376 7b3a
00000080: 3c14 d23b 17b3 14bb f992 633c 2e5c b83b
00000090: e040 02bb 2a82 88ba d3ab 66bb 2744 b8bb
000000a0: d0e8 6d3b d5c8 0abb 9bb4 75ba f922 d63b
000000b0: df0a 3b3c e465 10ba a779 a1bb d33d 263a
000000c0: 746c 903b 659f 04bc 3540 4c3b c289 57ba
000000d0: 85db 5dbb ff72 b83b 7b17 d3bb 6be1 e6bb
000000e0: 9632 a93b 80bb de3b 00a5 dcba 1f08 27bc
000000f0: ce63 f3bb c645 c03b 9feb 4c3b a30e 1abd
00000100: 0559 8b3b a294 f83b 146e 25bc 4c26 393c
00000110: a4d8 c73b b7a3 88b9 cb2b de3a 7bfc 033c
00000120: 4f95 633a 426a a2ba 4564 f53b dc14 3ebc
00000130: a58d 3a3c 4002 083b 21fd ea38 074c 3ebb
00000140: e573 17bc b894 233b 6e96 a7bb 2a2a 123b
00000150: c558 343c 10f0 0f3c 55a1 4dbc 421f 4ebb
00000160: d862 e6bb 0807 be3a 2a4c 2fbb 331e c73b
00000170: c437 86bb bb95 3e3b fb9b 2fba 2b35 9839
00000180: 14c3 f9ba cb67 713b d8e0 863b 592e 27bb
00000190: 6280 13bc 0d9e adbb 8964 403a 35d0 3b3c
000001a0: 6a88 0c3c b83f 8fba 7b03 b23b 858b 593b
000001b0: 14f2 15bc caff cfbb 9328 9db9 9347 a3bc
000001c0: 1e9e 5c3c c487 d53b 5ef6 ddbb 9487 da3b
000001d0: 93e0 c9bb ce44 b93b 797b d83b 2307 1dbc
000001e0: 244e f2bb a726 003c e169 9dbb 0881 8e3c
000001f0: 341e 453c 4850 80bc f4a5 f3bb 7eb1 fcbb
00000200: 3349 b13a 23b5 67bb f45f ccbc 8dfa 19bb
00000210: 26da a03c f8cc e7bb 8693 01bb f344 333b
00000220: 4b29 5a3b 7e81 403c b8e1 623b 6efb 9abb
00000230: f30a 60bb b8d8 26bc 8fde 83bb 06bc cbba
00000240: e57d 143c fe8f e1bb 2d57 843b 5c88 efbb
00000250: ef1f 4cbb 821e 0d3c d5d3 dbbc a074 6e3c
00000260: a1b5 a93b bb1b 743c 67e0 8cbb 96ba 053c
00000270: 0e7b 00bc 2c9b 743c 3846 54bc 8264 b43b
00000280: 5cd8 61bc a2fa 80bc 6a52 973c 303d 1239
00000290: 60d8 973c 5a9c b83a 5911 5a3b 79dc ff3b
000002a0: 182e 163b dca1 bf3c bbf7 62bc 1a31 0c3c
000002b0: 7345 91bc d32f 7f3c 03dd 233c dd7e 19bc
000002c0: dff5 013c 11a2 a63c 8667 02bd 9df4 643c
000002d0: 5f49 2c3a 5c62 c9ba 8a8c dfba 0a7a cbbb
000002e0: 118c 05bc 2876 7b3c d780 aaba 3715 70ba
000002f0: 4157 79b9 555c 183c beb6 6cbc d13b 7fbb
00000300: 9689 cebc aee5 d43c 893b 8bbb 8799 f73a
00000310: 229f 41ba 737f 6ebc 09ca 73bc 2a36 ae3b
00000320: fee5 453b bcff 253a fafe 453c 2713 59bb
00000330: dd7a 8ebb 252b 343c 54dc a1bb 5348 233b
00000340: e05e 223a 171e c3bb aa1b 183b 6f2f 21bc
00000350: 2823 8fbc c450 db3a 8807 5fbb 9b7d 48bb
00000360: 8acc c53b 3497 80bb 901e 7f3c 089f 1f39
00000370: 0a85 06bd e947 c23a f2b7 613c 313f cbbb
00000380: 906e 9ebb 18e5 a9bb 4e72 c83a 1a6f 543b
00000390: 63ac e2ba 9d53 6f3c 0e00 9ebc 4130 523c
000003a0: 67e0 40ba 8937 90bb 6c61 773b 2ced f6b9
000003b0: 4ab5 b4ba a46a dbba 1e27 643c 1de7 703c
000003c0: 4f9a 98bc 0768 ec3b d5c4 1abd 2cfc ba3c
000003d0: 58e1 833a dc8b 68bb d9ef bcba aa83 aa3b
000003e0: a99f 203a 7faa e33b ceda c338 054a 7bba
000003f0: 9049 09ba dd0c 59bb d3a0 02bb 31ed c13c
0.0043629 0.0064524515 -0.0017102011 0.0035394055 0.01132885 -0.0020677636 0.0055706 0.0034241194
0.0029909278 -0.009993899 -0.0078003216 0.0057224263 -0.0021835358 -0.010196678 0.002589223 0.0043218564
0.010077425 0.009867067 0.011082239 -0.0071631246 -0.010000419 -0.004697567 -0.013519262 0.0031112893
0.008287884 -0.010510832 -0.004307388 0.003881732 0.01633358 -0.009736054 0.0017518342 0.00095925777
0.0064111035 -0.0022689754 0.0138900215 0.005626223 -0.0019875094 -0.0010414768 -0.003519763 -0.005623359
0.0036302097 -0.0021176834 -0.00093729206 0.006534931 0.011416166 -0.0005508347 -0.004927832 0.000634161
0.00440746 -0.008094643 0.00311662 -0.00082221266 -0.0033852768 0.005628943 -0.006442008 -0.007045915
0.005163501 0.006797254 -0.0016833842 -0.010194807 -0.007427669 0.0058676926 0.003126837 -0.037611615
0.0042525553 0.007586078 -0.010097045 0.011300635 0.0060988236 -0.00026061918 0.0016950307 0.0080558015
0.00086816115 -0.0012391286 0.0074887597 -0.011601653 0.01138631 0.0020753294 0.000112051384 -0.0029037015
-0.00924394 0.002496047 -0.005114368 0.0022302964 0.011007492 0.008785263 -0.012550672 -0.0031451737
-0.007030826 0.0014497945 -0.0026748278 0.006076598 -0.0040960032 0.0029080946 -0.0006698963 0.00029031312
-0.001905533 0.0036835547 0.004116159 -0.0025509803 -0.009002777 -0.005298382 0.00073391997 0.011463215
0.0085774455 -0.0010929024 0.005432544 0.0033194732 -0.009151954 -0.006347631 -0.00029975604 -0.01993159
0.013465432 0.0065164287 -0.006773754 0.006668994 -0.0061608045 0.005653954 0.006606516 -0.009584221
-0.007394569 0.007821715 -0.0048038815 0.017395511 0.012031127 -0.015663281 -0.0074355546 -0.0077115884
0.0013525843 -0.0035355769 -0.024948098 -0.0023495287 0.019635271 -0.0070739947 -0.0019771769 0.002735433
0.0033288773 0.011749623 0.0034619402 -0.00472968 -0.0034186214 -0.010183506 -0.004024334 -0.0015543706
0.009063219 -0.0068836203 0.0040387125 -0.0073099565 -0.0031146964 0.008613231 -0.026834408 0.014554173
0.0051791226 0.01489919 -0.004299212 0.008162161 -0.0078418385 0.014929574 -0.012956195 0.0055051455
-0.013784494 -0.015744511 0.018471915 0.00013946439 0.018535793 0.0014084682 0.00332745 0.007808265
0.0022915658 0.02339261 -0.013853009 0.008556629 -0.017733311 0.015575367 0.010001424 -0.0093686255
0.007932155 0.020340951 -0.03183701 0.013974336 0.00065722124 -0.0015364396 -0.0017055434 -0.0062096165
-0.00815107 0.015347995 -0.0013008368 -0.00091584347 -0.00023778995 0.009299357 -0.014447866 -0.0038945565
-0.02521209 0.025988426 -0.0042490405 0.0018890359 -0.00073860784 -0.014556753 -0.014879712 0.0053165155
0.00301969 0.0006332358 0.012084717 -0.0033122988 -0.0043481425 0.010996615 -0.0049395952 0.0024914935
0.0006193947 -0.0059545147 0.0023209848 -0.009837969 -0.017472818 0.0016732444 -0.0034031589 -0.0030592445
0.006036346 -0.003924275 0.0155712515 0.00015222665 -0.03284172 0.0014822456 0.013776766 -0.0062026014
-0.0048349574 -0.005184781 0.0015292855 0.0032414855 -0.0017293807 0.014607337 -0.019287135 0.012828887
-0.00073576573 -0.0044011516 0.0037747277 -0.00047097483 -0.0013786939 -0.0016740155 0.013925342 0.014703539
-0.018628268 0.0072145495 -0.03778537 0.022825323 0.0010061665 -0.0035483753 -0.0014414742 0.005203684
0.0006127307 0.006947815 9.33908e-05 -0.000958592 -0.0005237097 -0.003311924 -0.0019932284 0.023672672

nnalign.in_layer.bias f4 [50]
00000000: 9b31 30b6 8cc7 b635 e620 bc35 558b 9db5
00000010: 1ce6 75b5 069e eeb4 b368 2436 3cf3 8e35
00000020: c2eb 9335 b6fb 3a36 54b6 02b6 ae83 e034
00000030: 0059 3d33 ca9d 44b3 369c 0bb5 8ebd a1b5
00000040: 2740 5436 2ce9 1bb6 7490 6036 8059 79b6
00000050: 341a a235 0ae7 f235 04d1 efb4 6ab8 c5b5
00000060: 5cca 92b5 7d4a 19b5 b8dc a634 1aac 9c35
00000070: 7a77 7136 e9e9 db36 6518 9136 f92b 08b6
00000080: 9d01 8b34 9e5f 06b5 be29 0536 89d2 7f34
00000090: 7eb7 0a34 cc0f 3636 19eb 86b6 e2fc 6c35
000000a0: b21d 8eb6 4b43 8fb5 34e4 a635 5c59 ddb6
000000b0: 2586 4cb5 4668 4336 5217 ae35 be8f 4db5
000000c0: adf1 8e35 3447 d9b4
-2.6254918e-06 1.3618132e-06 1.4016666e-06 -1.1737962e-06 -9.1604466e-07 -4.4445932e-07 2.4498847e-06 1.0650615e-06
1.1020968e-06 2.7862675e-06 -1.9477638e-06 4.181906e-07 4.4085937e-08 -4.5778314e-08 -5.200885e-07 -1.2050602e-06
3.1627803e-06 -2.3232524e-06 3.3462684e-06 -3.7155987e-06 1.2077567e-06 1.8097646e-06 -4.4669298e-07 -1.4731315e-06
-1.0936742e-06 -5.7105336e-07 3.1080504e-07 1.1672994e-06 3.5981343e-06 6.5539393e-06 4.3241766e-06 -2.0291175e-06
2.589194e-07 -5.005803e-07 1.9842842e-06 2.3825318e-07 1.2919006e-07 2.7129308e-06 -4.02088e-06 8.8284844e-07
-4.2353868e-06 -1.0673915e-06 1.243438e-06 -6.596716e-06 -7.619113e-07 2.911796e-06 1.2970797e-06 -7.6577624e-07
1.0650161e-06 -4.0471207e-07

nnalign.out_layer.weight f4 [1, 50]
00000000: c116 88be 4398 d23e 1c31 d23e 2c0e 6ebe
00000010: 22b1 76be db35 b83e e94c e9bd 197d b9bd
00000020: d9b3 ba3e f584 d23e 9bd1 d13e 132c 67be
00000030: 7255 81be 7c3e b93e 358d 59be f9e2 98b4
00000040: b975 81be 2d7e d73e 9a71 cc3e 38a9 72be
00000050: 2520 7ebe c7a2 5dbe 59a7 c73e 949b 58be
00000060: 74d7 29be f4c1 c63e f4c8 54be 036c cc3e
00000070: 5873 61be 6e0c fabd d8ef d03e 5d88 c03e
00000080: 8738 cc3e e029 e7bd a4bb c93e eacb c33e
00000090: d9fd 6bbe c25a 63be f795 c93e 5a28 63be
000000a0: 5529 5abe aa61 d33e b6fb cdbd 986b ca3e
000000b0: 7535 85be 19c5 c63e ed4f 42be 0725 5fbe
000000c0: a0fe 43be b2e9 68be
-0.2657986 0.4113179 0.41053092 -0.23247594 -0.24091008 0.35978588 -0.113916226 -0.090570636
0.36465338 0.41117063 0.4098023 -0.22575407 -0.25260502 0.36180484 -0.21245272 -2.847735e-07
-0.25285128 0.42088452 0.3993042 -0.23697364 -0.2481695 -0.21644126 0.38994864 -0.21153098
-0.16586095 0.3881985 -0.20779783 0.39926156 -0.22016656 -0.12209402 0.40807986 0.37604037
0.39886877 -0.11287284 0.3940097 0.38241512 -0.23046054 -0.2220259 0.39372227 -0.22183362
-0.2130483 0.4128545 -0.10057776 0.39535213 -0.26017347 0.3882225 -0.18975802 -0.21791469
-0.191401 -0.22745398

nnalign.bn1.weight f4 [50]
00000000: fa12 3c3e da82 aa3e ac50 823e 20cd 253e
00000010: 1e8a 2a3e a18a 613e 3850 a13d 726d 803d
00000020: e19b 623e e031 823e c3a3 823e d1a2 1d3e
00000030: 6482 323e 3c93 673e fec0 173e 8ad9 57a4
00000040: 78e7 333e 4880 843e 1d78 7a3e d41d 273e
00000050: 0bf5 2e3e 6782 1c3e 0f86 753e 973d 163e
00000060: 1426 ef3d 261a 763e 8883 123e 17bb 7b3e
00000070: 78eb 1c3e 7083 b03d f616 813e b0dc 6b3e
00000080: ee87 7b3e 5d54 a13d fa95 793e a6cf 6d3e
00000090: 6ce0 263e 9093 1e3e 28f9 783e 949d 1e3e
000000a0: 864e 173e 65cb 833e 5745 933d 7a3f 7d3e
000000b0: 0374 383e ce90 753e e3d2 063e 2a3d 1a3e
000000c0: 76b4 073e 428d 213e
0.18366614 0.33302957 0.25452173 0.1619153 0.1665425 0.22025539 0.07876629 0.06270875
0.22129776 0.25428677 0.25515565 0.15394141 0.17432553 0.22614759 0.14819714 -4.6804956e-17
0.17568767 0.2587912 0.24459882 0.16319972 0.17085664 0.1528412 0.2397692 0.14671932
0.11677185 0.24033412 0.14307988 0.24583088 0.15324199 0.0861882 0.2521283 0.23033404
0.24563572 0.07877419 0.24373618 0.23223743 0.16296548 0.15485978 0.24313796 0.15489799
0.14776048 0.25741115 0.0719096 0.24731246 0.18013005 0.2398102 0.13166384 0.15062395
0.13252434 0.15776542

nnalign.bn1.bias f4 [50]
00000000: f6a2 3b3e 15a4 8abe f115 93be e54a 253e
00000010: ee75 2b3e 9c8e 84be c083 ad3d 2695 8c3d
00000020: 8f1c 86be be95 93be 0647 92be 5f25 223e
00000030: ada1 313e e41e 83be 957e 193e 567f 9534
00000040: 1a97 313e 8b9d 97be d9d1 90be d7be 283e
00000050: 14ee 2e3e a2c7 1c3e 97c0 8dbe 2606 193e
00000060: 5838 f73d a5e0 8bbe 53bc 153e 8805 90be
00000070: 57ad 1e3e 1814 ba3d 88b0 92be a597 87be
00000080: 2efa 8ebe a10c ad3d 9ea3 8dbe 75fa 8cbe
00000090: cf8a 233e 2662 1f3e e9d3 8dbe 6a9e 1c3e
000000a0: 3928 183e 32b9 91be 8f8a 983d 9a75 8abe
000000b0: c784 363e ca88 8cbe eae1 093e 6f5e 1c3e
000000c0: 3dd5 0b3e c51f 223e
0.18323883 -0.2707831 -0.28727677 0.16141851 0.16744205 -0.25890052 0.08472395 0.06864385
-0.26193663 -0.28825182 -0.28569812 0.15834568 0.1734683 -0.25609505 0.14989693 2.7846062e-07
0.17342797 -0.29612383 -0.282851 0.1647905 0.17083007 0.15310529 -0.27685997 0.14943752
0.120712936 -0.27319828 0.14622621 -0.2812922 0.15495811 0.09085864 -0.28650308 -0.26482883
-0.27925247 0.084496744 -0.27663893 -0.27534834 0.1597092 0.15564784 -0.27700737 0.15294805
0.14859094 -0.28461605 0.07448303 -0.27042848 0.17824088 -0.27448112 0.13465086 0.15270399
0.13655563 0.15832432

nnalign.bn1.running_mean f4 [50]
00000000: 7690 e2be cd2a 413e 2b9c 243f 6c88 d2be
00000010: e71b d0be edb0 133f 1bb9 5ebe 3e3d 41be
00000020: 7980 143f 0147 2d3f 743c 393f e9b0 b2be
00000030: 7589 e8be 8af8 103f 30b5 b2be b187 c033
00000040: f17b d2be f971 363f 41c5 1e3f 4936 cbbe
00000050: 9ca2 dabe cc44 aebe 0537 2b3f 9a52 94be
00000060: 81b4 85be eee8 2c3f 3dff b1be ad24 2c3f
00000070: 5112 b7be 17d3 67be 1413 203f 6c39 273f
00000080: a3f3 273f e0fd 49be ca5b 293f bc4b 263f
00000090: 3cff cebe 3f7b d1be 2324 2d3f 1e03 cfbe
000000a0: bb80 d3be c553 253f be74 20be e521 253f
000000b0: 5ba1 f1be 1225 293f 49f2 abbe 0277 b6be
000000c0: f127 aebe 797d c5be
-0.4425084 0.18863983 0.64300793 -0.41119707 -0.40646288 0.5769184 -0.217503 -0.18871018
0.58008534 0.6768647 0.7235787 -0.34900597 -0.4541737 0.5662924 -0.3490386 8.965379e-08
-0.41110185 0.7126766 0.62019736 -0.39689854 -0.42702186 -0.34036863 0.6688083 -0.2896927
-0.26114276 0.6754292 -0.34765044 0.6724346 -0.35756162 -0.22639118 0.6252911 0.65321994
0.65606135 -0.19725752 0.66155684 0.6495931 -0.40429103 -0.40914342 0.67633265 -0.40432066
-0.4130915 0.6458095 -0.15669534 0.64504844 -0.47193417 0.6607219 -0.33583286 -0.3563767
-0.34014848 -0.3857229

nnalign.bn1.running_var f4 [50]
00000000: 41f9 d63d 7d9b 2f3d 912a 4f3e caf5 db3d
00000010: 8002 9e3d 2493 433e 388f 0f3d 5849 003d
00000020: 7ea1 643e 9892 613e 9f16 623e c74f 6c3d
00000030: e3a0 cb3d 14f4 1c3e bace a53d fafa 9b1a
00000040: 8cce a63d c49e 7c3e d94b 683e c689 ac3d
00000050: 73f8 af3d 944c b73d 8b10 7d3e f440 983d
00000060: e555 7b3d 4816 813e 2885 a23d 4654 573e
00000070: 2c80 c53d 926e 1a3d 5efe 623e 625c 593e
00000080: be9a 503e f148 0a3d eed5 683e 02ac 893e
00000090: 0805 c23d 715b be3d 1bbd 473e 78f2 d43d
000000a0: 0a41 c13d 10dc 333e e50a ec3c 1e8c 243e
000000b0: 3baa d93d 96b1 5b3e a1ec 853d ed41 9d3d
000000c0: b93b 9c3d 5010 b83d
0.1049676 0.042872895 0.20231082 0.1074024 0.077153206 0.19099098 0.035048693 0.031319946
0.2232723 0.22028577 0.22078942 0.05769327 0.09942796 0.15327483 0.080960706 6.451197e-23
0.081448644 0.2466994 0.22685184 0.08424716 0.0859231 0.08950153 0.24713342 0.07434264
0.061361212 0.25212312 0.07935554 0.21028242 0.096435875 0.037703104 0.22167346 0.21226647
0.2037153 0.03376097 0.22737858 0.26889044 0.09473616 0.09294785 0.19505732 0.1039781
0.09436233 0.17564416 0.028813789 0.16069075 0.10628172 0.21454462 0.06539274 0.0767859
0.07628579 0.08987486

in_layer.weight f4 [50, 180]
00000000: a8f6 8e3b 166f d33b d428 e0ba 5ff5 673b
00000010: a49c 393c 5183 07bb 9489 b63b 3167 603b
00000020: 7103 443b 73bd 23bc d799 ffbb 3183 bb3b
00000030: a719 0fbb f80f 27bc f4af 293b 5c9e 8d3b
00000040: c91b 253c 7ba9 213c 4892 353c a5b8 eabb
00000050: ccd8 23bc 0cee 99bb e57f 5dbc c6e6 4b3b
00000060: e8c9 073c a035 2cbc fd24 8dbb a864 7e3b
00000070: 00ce 853c f883 1fbc cd9d e53a b376 7b3a
00000080: 3c14 d23b 17b3 14bb f992 633c 2e5c b83b
00000090: e040 02bb 2a82 88ba d3ab 66bb 2744 b8bb
000000a0: d0e8 6d3b d5c8 0abb 9bb4 75ba f922 d63b
000000b0: df0a 3b3c e465 10ba a779 a1bb d33d 263a
000000c0: 746c 903b 659f 04bc 3540 4c3b c289 57ba
000000d0: 85db 5dbb ff72 b83b 7b17 d3bb 6be1 e6bb
000000e0: 9632 a93b 80bb de3b 00a5 dcba 1f08 27bc
000000f0: ce63 f3bb c645 c03b 9feb 4c3b a30e 1abd
00000100: 0559 8b3b a294 f83b 146e 25bc 4c26 393c
00000110: a4d8 c73b b7a3 88b9 cb2b de3a 7bfc 033c
00000120: 4f95 633a 426a a2ba 4564 f53b dc14 3ebc
00000130: a58d 3a3c 4002 083b 21fd ea38 074c 3ebb
00000140: e573 17bc b894 233b 6e96 a7bb 2a2a 123b
00000150: c558 343c 10f0 0f3c 55a1 4dbc 421f 4ebb
00000160: d862 e6bb 0807 be3a 2a4c 2fbb 331e c73b
00000170: c437 86bb bb95 3e3b fb9b 2fba 2b35 9839
00000180: 14c3 f9ba cb67 713b d8e0 863b 592e 27bb
00000190: 6280 13bc 0d9e adbb 8964 403a 35d0 3b3c
000001a0: 6a88 0c3c b83f 8fba 7b03 b23b 858b 593b
000001b0: 14f2 15bc caff cfbb 9328 9db9 9347 a3bc
000001c0: 1e9e 5c3c c487 d53b 5ef6 ddbb 9487 da3b
000001d0: 93e0 c9bb ce44 b93b 797b d83b 2307 1dbc
000001e0: 244e f2bb a726 003c e169 9dbb 0881 8e3c
000001f0: 341e 453c 4850 80bc f4a5 f3bb 7eb1 fcbb
00000200: 3349 b13a 23b5 67bb f45f ccbc 8dfa 19bb
00000210: 26da a03c f8cc e7bb 8693 01bb f344 333b
00000220: 4b29 5a3b 7e81 403c b8e1 623b 6efb 9abb
00000230: f30a 60bb b8d8 26bc 8fde 83bb 06bc cbba
00000240: e57d 143c fe8f e1bb 2d57 843b 5c88 efbb
00000250: ef1f 4cbb 821e 0d3c d5d3 dbbc a074 6e3c
00000260: a1b5 a93b bb1b 743c 67e0 8cbb 96ba 053c
00000270: 0e7b 00bc 2c9b 743c 3846 54bc 8264 b43b
00000280: 5cd8 61bc a2fa 80bc 6a52 973c 303d 1239
00000290: 60d8 973c 5a9c b83a 5911 5a3b 79dc ff3b
000002a0: 182e 163b dca1 bf3c bbf7 62bc 1a31 0c3c
000002b0: 7345 91bc d32f 7f3c 03dd 233c dd7e 19bc
000002c0: dff5 013c 11a2 a63c 8667 02bd 9df4 643c
000002d0: 5f49 2c3a 5c62 c9ba 8a8c dfba 0a7a cbbb
000002e0: 118c 05bc 2876 7b3c d780 aaba 3715 70ba
000002f0: 4157 79b9 555c 183c beb6 6cbc d13b 7fbb
00000300: 9689 cebc aee5 d43c 893b 8bbb 8799 f73a
00000310: 229f 41ba 737f 6ebc 09ca 73bc 2a36 ae3b
00000320: fee5 453b bcff 253a fafe 453c 2713 59bb
00000330: dd7a 8ebb 252b 343c 54dc a1bb 5348 233b
00000340: e05e 223a 171e c3bb aa1b 183b 6f2f 21bc
00000350: 2823 8fbc c450 db3a 8807 5fbb 9b7d 48bb
00000360: 8acc c53b 3497 80bb 901e 7f3c 089f 1f39
00000370: 0a85 06bd e947 c23a f2b7 613c 313f cbbb
00000380: 906e 9ebb 18e5 a9bb 4e72 c83a 1a6f 543b
00000390: 63ac e2ba 9d53 6f3c 0e00 9ebc 4130 523c
000003a0: 67e0 40ba 8937 90bb 6c61 773b 2ced f6b9
000003b0: 4ab5 b4ba a46a dbba 1e27 643c 1de7 703c
000003c0: 4f9a 98bc 0768 ec3b d5c4 1abd 2cfc ba3c
000003d0: 58e1 833a dc8b 68bb d9ef bcba aa83 aa3b
000003e0: a99f 203a 7faa e33b ceda c338 054a 7bba
000003f0: 9049 09ba dd0c 59bb d3a0 02bb 31ed c13c
0.0043629 0.0064524515 -0.0017102011 0.0035394055 0.01132885 -0.0020677636 0.0055706 0.0034241194
0.0029909278 -0.009993899 -0.0078003216 0.0057224263 -0.0021835358 -0.010196678 0.002589223 0.0043218564
0.010077425 0.009867067 0.011082239 -0.0071631246 -0.010000419 -0.004697567 -0.013519262 0.0031112893
0.008287884 -0.010510832 -0.004307388 0.003881732 0.01633358 -0.009736054 0.0017518342 0.00095925777
0.0064111035 -0.0022689754 0.0138900215 0.005626223 -0.0019875094 -0.0010414768 -0.003519763 -0.005623359
0.0036302097 -0.0021176834 -0.00093729206 0.006534931 0.011416166 -0.0005508347 -0.004927832 0.000634161
0.00440746 -0.008094643 0.00311662 -0.00082221266 -0.0033852768 0.005628943 -0.006442008 -0.007045915
0.005163501 0.006797254 -0.0016833842 -0.010194807 -0.007427669 0.0058676926 0.003126837 -0.037611615
0.0042525553 0.007586078 -0.010097045 0.011300635 0.0060988236 -0.00026061918 0.0016950307 0.0080558015
0.00086816115 -0.0012391286 0.0074887597 -0.011601653 0.01138631 0.0020753294 0.000112051384 -0.0029037015
-0.00924394 0.002496047 -0.005114368 0.0022302964 0.011007492 0.008785263 -0.012550672 -0.0031451737
-0.007030826 0.0014497945 -0.0026748278 0.006076598 -0.0040960032 0.0029080946 -0.0006698963 0.00029031312
-0.001905533 0.0036835547 0.004116159 -0.0025509803 -0.009002777 -0.005298382 0.00073391997 0.011463215
0.0085774455 -0.0010929024 0.005432544 0.0033194732 -0.009151954 -0.006347631 -0.00029975604 -0.01993159
0.013465432 0.0065164287 -0.006773754 0.006668994 -0.0061608045 0.005653954 0.006606516 -0.009584221
-0.007394569 0.007821715 -0.0048038815 0.017395511 0.012031127 -0.015663281 -0.0074355546 -0.0077115884
0.0013525843 -0.0035355769 -0.024948098 -0.0023495287 0.019635271 -0.0070739947 -0.0019771769 0.002735433
0.0033288773 0.011749623 0.0034619402 -0.00472968 -0.0034186214 -0.010183506 -0.004024334 -0.0015543706
0.009063219 -0.0068836203 0.0040387125 -0.0073099565 -0.0031146964 0.008613231 -0.026834408 0.014554173
0.0051791226 0.01489919 -0.004299212 0.008162161 -0.0078418385 0.014929574 -0.012956195 0.0055051455
-0.013784494 -0.015744511 0.018471915 0.00013946439 0.018535793 0.0014084682 0.00332745 0.007808265
0.0022915658 0.02339261 -0.013853009 0.008556629 -0.017733311 0.015575367 0.010001424 -0.0093686255
0.007932155 0.020340951 -0.03183701 0.013974336 0.00065722124 -0.0015364396 -0.0017055434 -0.0062096165
-0.00815107 0.015347995 -0.0013008368 -0.00091584347 -0.00023778995 0.009299357 -0.014447866 -0.0038945565
-0.02521209 0.025988426 -0.0042490405 0.0018890359 -0.00073860784 -0.014556753 -0.014879712 0.0053165155
0.00301969 0.0006332358 0.012084717 -0.0033122988 -0.0043481425 0.010996615 -0.0049395952 0.0024914935
0.0006193947 -0.0059545147 0.0023209848 -0.009837969 -0.017472818 0.0016732444 -0.0034031589 -0.0030592445
0.006036346 -0.003924275 0.0155712515 0.00015222665 -0.03284172 0.0014822456 0.013776766 -0.0062026014
-0.0048349574 -0.005184781 0.0015292855 0.0032414855 -0.0017293807 0.014607337 -0.019287135 0.012828887
-0.00073576573 -0.0044011516 0.0037747277 -0.00047097483 -0.0013786939 -0.0016740155 0.013925342 0.014703539
-0.018628268 0.0072145495 -0.03778537 0.022825323 0.0010061665 -0.0035483753 -0.0014414742 0.005203684
0.0006127307 0.006947815 9.33908e-05 -0.000958592 -0.0005237097 -0.003311924 -0.0019932284 0.023672672

in_layer.bias f4 [50]
00000000: 9b31 30b6 8cc7 b635 e620 bc35 558b 9db5
00000010: 1ce6 75b5 069e eeb4 b368 2436 3cf3 8e35
00000020: c2eb 9335 b6fb 3a36 54b6 02b6 ae83 e034
00000030: 0059 3d33 ca9d 44b3 369c 0bb5 8ebd a1b5
00000040: 2740 5436 2ce9 1bb6 7490 6036 8059 79b6
00000050: 341a a235 0ae7 f235 04d1 efb4 6ab8 c5b5
00000060: 5cca 92b5 7d4a 19b5 b8dc a634 1aac 9c35
00000070: 7a77 7136 e9e9 db36 6518 9136 f92b 08b6
00000080: 9d01 8b34 9e5f 06b5 be29 0536 89d2 7f34
00000090: 7eb7 0a34 cc0f 3636 19eb 86b6 e2fc 6c35
000000a0: b21d 8eb6 4b43 8fb5 34e4 a635 5c59 ddb6
000000b0: 2586 4cb5 4668 4336 5217 ae35 be8f 4db5
000000c0: adf1 8e35 3447 d9b4
-2.6254918e-06 1.3618132e-06 1.4016666e-06 -1.1737962e-06 -9.1604466e-07 -4.4445932e-07 2.4498847e-06 1.0650615e-06
1.1020968e-06 2.7862675e-06 -1.9477638e-06 4.181906e-07 4.4085937e-08 -4.5778314e-08 -5.200885e-07 -1.2050602e-06
3.1627803e-06 -2.3232524e-06 3.3462684e-06 -3.7155987e-06 1.2077567e-06 1.8097646e-06 -4.4669298e-07 -1.4731315e-06
-1.0936742e-06 -5.7105336e-07 3.1080504e-07 1.1672994e-06 3.5981343e-06 6.5539393e-06 4.3241766e-06 -2.0291175e-06
2.589194e-07 -5.005803e-07 1.9842842e-06 2.3825318e-07 1.2919006e-07 2.7129308e-06 -4.02088e-06 8.8284844e-07
-4.2353868e-06 -1.0673915e-06 1.243438e-06 -6.596716e-06 -7.619113e-07 2.911796e-06 1.2970797e-06 -7.6577624e-07
1.0650161e-06 -4.0471207e-07

out_layer.weight f4 [1, 50]
00000000: c116 88be 4398 d23e 1c31 d23e 2c0e 6ebe
00000010: 22b1 76be db35 b83e e94c e9bd 197d b9bd
00000020: d9b3 ba3e f584 d23e 9bd1 d13e 132c 67be
00000030: 7255 81be 7c3e b93e 358d 59be f9e2 98b4
00000040: b975 81be 2d7e d73e 9a71 cc3e 38a9 72be
00000050: 2520 7ebe c7a2 5dbe 59a7 c73e 949b 58be
00000060: 74d7 29be f4c1 c63e f4c8 54be 036c cc3e
00000070: 5873 61be 6e0c fabd d8ef d03e 5d88 c03e
00000080: 8738 cc3e e029 e7bd a4bb c93e eacb c33e
00000090: d9fd 6bbe c25a 63be f795 c93e 5a28 63be
000000a0: 5529 5abe aa61 d33e b6fb cdbd 986b ca3e
000000b0: 7535 85be 19c5 c63e ed4f 42be 0725 5fbe
000000c0: a0fe 43be b2e9 68be
-0.2657986 0.4113179 0.41053092 -0.23247594 -0.24091008 0.35978588 -0.113916226 -0.090570636
0.36465338 0.41117063 0.4098023 -0.22575407 -0.25260502 0.36180484 -0.21245272 -2.847735e-07
-0.25285128 0.42088452 0.3993042 -0.23697364 -0.2481695 -0.21644126 0.38994864 -0.21153098
-0.16586095 0.3881985 -0.20779783 0.39926156 -0.22016656 -0.12209402 0.40807986 0.37604037
0.39886877 -0.11287284 0.3940097 0.38241512 -0.23046054 -0.2220259 0.39372227 -0.22183362
-0.2130483 0.4128545 -0.10057776 0.39535213 -0.26017347 0.3882225 -0.18975802 -0.21791469
-0.191401 -0.22745398

bn1.weight f4 [50]
00000000: fa12 3c3e da82 aa3e ac50 823e 20cd 253e
00000010: 1e8a 2a3e a18a 613e 3850 a13d 726d 803d
00000020: e19b 623e e031 823e c3a3 823e d1a2 1d3e
00000030: 6482 323e 3c93 673e fec0 173e 8ad9 57a4
00000040: 78e7 333e 4880 843e 1d78 7a3e d41d 273e
00000050: 0bf5 2e3e 6782 1c3e 0f86 753e 973d 163e
00000060: 1426 ef3d 261a 763e 8883 123e 17bb 7b3e
00000070: 78eb 1c3e 7083 b03d f616 813e b0dc 6b3e
00000080: ee87 7b3e 5d54 a13d fa95 793e a6cf 6d3e
00000090: 6ce0 263e 9093 1e3e 28f9 783e 949d 1e3e
000000a0: 864e 173e 65cb 833e 5745 933d 7a3f 7d3e
000000b0: 0374 383e ce90 753e e3d2 063e 2a3d 1a3e
000000c0: 76b4 073e 428d 213e
0.18366614 0.33302957 0.25452173 0.1619153 0.1665425 0.22025539 0.07876629 0.06270875
0.22129776 0.25428677 0.25515565 0.15394141 0.17432553 0.22614759 0.14819714 -4.6804956e-17
0.17568767 0.2587912 0.24459882 0.16319972 0.17085664 0.1528412 0.2397692 0.14671932
0.11677185 0.24033412 0.14307988 0.24583088 0.15324199 0.0861882 0.2521283 0.23033404
0.24563572 0.07877419 0.24373618 0.23223743 0.16296548 0.15485978 0.24313796 0.15489799
0.14776048 0.25741115 0.0719096 0.24731246 0.18013005 0.2398102 0.13166384 0.15062395
0.13252434 0.15776542

bn1.bias f4 [50]
00000000: f6a2 3b3e 15a4 8abe f115 93be e54a 253e
00000010: ee75 2b3e 9c8e 84be c083 ad3d 2695 8c3d
00000020: 8f1c 86be be95 93be 0647 92be 5f25 223e
00000030: ada1 313e e41e 83be 957e 193e 567f 9534
00000040: 1a97 313e 8b9d 97be d9d1 90be d7be 283e
00000050: 14ee 2e3e a2c7 1c3e 97c0 8dbe 2606 193e
00000060: 5838 f73d a5e0 8bbe 53bc 153e 8805 90be
00000070: 57ad 1e3e 1814 ba3d 88b0 92be a597 87be
00000080: 2efa 8ebe a10c ad3d 9ea3 8dbe 75fa 8cbe
00000090: cf8a 233e 2662 1f3e e9d3 8dbe 6a9e 1c3e
000000a0: 3928 183e 32b9 91be 8f8a 983d 9a75 8abe
000000b0: c784 363e ca88 8cbe eae1 093e 6f5e 1c3e
000000c0: 3dd5 0b3e c51f 223e
0.18323883 -0.2707831 -0.28727677 0.16141851 0.16744205 -0.25890052 0.08472395 0.06864385
-0.26193663 -0.28825182 -0.28569812 0.15834568 0.1734683 -0.25609505 0.14989693 2.7846062e-07
0.17342797 -0.29612383 -0.282851 0.1647905 0.17083007 0.15310529 -0.27685997 0.14943752
0.120712936 -0.27319828 0.14622621 -0.2812922 0.15495811 0.09085864 -0.28650308 -0.26482883
-0.27925247 0.084496744 -0.27663893 -0.27534834 0.1597092 0.15564784 -0.27700737 0.15294805
0.14859094 -0.28461605 0.07448303 -0.27042848 0.17824088 -0.27448112 0.13465086 0.15270399
0.13655563 0.15832432

bn1.running_mean f4 [50]
00000000: 7690 e2be cd2a 413e 2b9c 243f 6c88 d2be
00000010: e71b d0be edb0 133f 1bb9 5ebe 3e3d 41be
00000020: 7980 143f 0147 2d3f 743c 393f e9b0 b2be
00000030: 7589 e8be 8af8 103f 30b5 b2be b187 c033
00000040: f17b d2be f971 363f 41c5 1e3f 4936 cbbe
00000050: 9ca2 dabe cc44 aebe 0537 2b3f 9a52 94be
00000060: 81b4 85be eee8 2c3f 3dff b1be ad24 2c3f
00000070: 5112 b7be 17d3 67be 1413 203f 6c39 273f
00000080: a3f3 273f e0fd 49be ca5b 293f bc4b 263f
00000090: 3cff cebe 3f7b d1be 2324 2d3f 1e03 cfbe
000000a0: bb80 d3be c553 253f be74 20be e521 253f
000000b0: 5ba1 f1be 1225 293f 49f2 abbe 0277 b6be
000000c0: f127 aebe 797d c5be
-0.4425084 0.18863983 0.64300793 -0.41119707 -0.40646288 0.5769184 -0.217503 -0.18871018
0.58008534 0.6768647 0.7235787 -0.34900597 -0.4541737 0.5662924 -0.3490386 8.965379e-08
-0.41110185 0.7126766 0.62019736 -0.39689854 -0.42702186 -0.34036863 0.6688083 -0.2896927
-0.26114276 0.6754292 -0.34765044 0.6724346 -0.35756162 -0.22639118 0.6252911 0.65321994
0.65606135 -0.19725752 0.66155684 0.6495931 -0.40429103 -0.40914342 0.67633265 -0.40432066
-0.4130915 0.6458095 -0.15669534 0.64504844 -0.47193417 0.6607219 -0.33583286 -0.3563767
-0.34014848 -0.3857229

bn1.running_var f4 [50]
00000000: 41f9 d63d 7d9b 2f3d 912a 4f3e caf5 db3d
00000010: 8002 9e3d 2493 433e 388f 0f3d 5849 003d
00000020: 7ea1 643e 9892 613e 9f16 623e c74f 6c3d
00000030: e3a0 cb3d 14f4 1c3e bace a53d fafa 9b1a
00000040: 8cce a63d c49e 7c3e d94b 683e c689 ac3d
00000050: 73f8 af3d 944c b73d 8b10 7d3e f440 983d
00000060: e555 7b3d 4816 813e 2885 a23d 4654 573e
00000070: 2c80 c53d 926e 1a3d 5efe 623e 625c 593e
00000080: be9a 503e f148 0a3d eed5 683e 02ac 893e
00000090: 0805 c23d 715b be3d 1bbd 473e 78f2 d43d
000000a0: 0a41 c13d 10dc 333e e50a ec3c 1e8c 243e
000000b0: 3baa d93d 96b1 5b3e a1ec 853d ed41 9d3d
000000c0: b93b 9c3d 5010 b83d
0.1049676 0.042872895 0.20231082 0.1074024 0.077153206 0.19099098 0.035048693 0.031319946
0.2232723 0.22028577 0.22078942 0.05769327 0.09942796 0.15327483 0.080960706 6.451197e-23
0.081448644 0.2466994 0.22685184 0.08424716 0.0859231 0.08950153 0.24713342 0.07434264
0.061361212 0.25212312 0.07935554 0.21028242 0.096435875 0.037703104 0.22167346 0.21226647
0.2037153 0.03376097 0.22737858 0.26889044 0.09473616 0.09294785 0.19505732 0.1039781
0.09436233 0.17564416 0.028813789 0.16069075 0.10628172 0.21454462 0.06539274 0.0767859
0.07628579 0.08987486
