output/CSL_nomhc_nostd_burn_10nh_230919_2144_47PSy/checkpoint_best_CSL_nomhc_nostd_burn_10nh_230919_2144_47PSy.pt (torch, 10315 bytes, 7 tensors)

in_layer.weight f4 [10, 180]
00000000: 1aec 4baa 36c1 8ea7 2e23 1c2b feb3 8d2e
00000010: c443 82a8 92ab b6a9 929b 7734 6ea1 212b
00000020: b0ec ee33 1611 74b4 868a 4635 8a2b 4134
00000030: 872b 312f 7792 fca6 fe3a cea7 a85f 0e33
00000040: b9f3 b635 1cc5 c2a9 481f bdaf 87d5 41b1
00000050: 2ed7 0828 7099 57b4 b853 34ab 5041 75b5
00000060: 10b0 71a9 6407 0400 5406 89a8 a809 03a8
00000070: 8b23 e427 0e7e 932d f3b2 0180 1c38 ca32
00000080: fe5d a8b1 2f59 b527 7e5a 0eb1 7edb 8db0
00000090: 1a9e bfa7 05e2 142d 28f5 8531 84e6 eb2b
000000a0: 8fdb 08b2 77c7 8c30 2afc 1da9 8c41 93b2
000000b0: c4f8 a7b0 6a1e ce2a 4ab1 0727 1272 0780
000000c0: ace3 68b1 f806 fa36 004f 0180 4f09 a032
000000d0: ca4e 3bb5 b2cd a9b0 24db 0c2d c0bc 0d2c
000000e0: 409e 8c35 981f 90b5 fbfa e6b6 05e9 0600
000000f0: 13c3 2f31 2445 2c2c f272 0280 fc87 4332
00000100: 8428 332f c3c2 0400 2638 a2ae 1e51 c62e
00000110: ef2f 0580 17b0 f135 8222 da30 389d a734
00000120: d161 0500 ee2d 0428 082d cca7 8022 23ac
00000130: 604d b3b3 aaa6 a6b3 fa5c bcb6 109f 65a8
00000140: 2c59 25b4 0bd3 15b6 7b56 9c34 a59a f9aa
00000150: f4a0 8828 faef 0680 1ad8 06b1 ac56 0bb1
00000160: 2ff1 0dad b49b 2f30 cf58 bd35 a0df 712b
00000170: 5a2e 0bb4 1640 a332 601c 2134 7837 8c2a
00000180: 8e07 06ac 9849 6634 6d2c b22f 60dc 59a7
00000190: 36ef a036 2696 2ca6 1f12 61a9 90e1 87ad
000001a0: 727e e330 c826 b228 8438 d42f c9f6 0200
000001b0: d074 4fb4 beb9 a32b 12ee dc26 d21b 92b1
000001c0: b694 3fb6 693f 9bab df4f 0780 c0ea 6c34
000001d0: 24d3 0080 b158 2233 26ca 89ac d5e2 0db3
000001e0: 981f dd29 f401 0480 ff2f 1d2f 61c4 61a8
000001f0: 907a 0600 fed2 37af 75ae d42d 4c6c b62e
00000200: b07d 5c32 30c0 0400 c4f2 8435 4c00 78b6
00000210: 9035 31af 962a 96ac f449 01b7 2ef9 e627
00000220: 5895 13b1 b791 0080 7915 1f27 533c 0928
00000230: a828 28b1 d04e 4c27 3d73 0700 9d0e 9da6
00000240: ca39 0480 d008 cab5 7025 362a 5b7c 56b6
00000250: 5312 3ab5 0015 62ad 3afc b8b2 20f7 9130
00000260: 0e5b 8c28 40e4 f42d 040c 77b7 3e00 fe2f
00000270: 785b 9727 3fc7 262a 9b1a cc28 30f9 b0ae
00000280: 7d5a 9e31 fa18 70ab 1f07 aeb4 707a 052b
00000290: e8a5 25af fa11 0ba8 b084 812b af14 0680
000002a0: e852 2d2f 2ad5 052f f407 0ab5 ac35 74af
000002b0: 14dd 0380 c275 8eac 0c80 d430 a79c ecb5
000002c0: e550 0580 a46c da34 0002 0400 8eda 0080
000002d0: 66a5 9e3a 1456 48bb 29fe 2e3b 1f5f 2fbb
000002e0: b46d 223b 0833 35b8 eeb2 8bba 18b4 dcba
000002f0: 5169 77bc 2f19 2cbb 8122 12bb 3baf 183c
00000300: 64d6 32bc f83a 1d3d 8365 dcba f634 923b
00000310: 10d3 47bc 2684 3dbb 9d87 783c 8c32 44bc
00000320: d8ce 3aba dc66 d83b a550 8538 5116 11bb
00000330: fb38 72bb f620 193c 582c b3bc c9f3 aabb
00000340: 312e b6ba 95d8 b83c cba3 833c efd4 c03c
00000350: 3301 53bc 260a 813c 28dd 81bb 5294 033a
00000360: 89e4 45bc 0be9 d8bb c434 a2bb 58e8 90bc
00000370: 572f 033d e374 043c 6270 8bbb e645 50bc
00000380: 7c4d 7dbb 25cb 0fbb f75b 07bc ceed 23bc
00000390: ff2b a1ba 43a2 6abc 29e5 ea3b 7e67 9b3b
000003a0: ace1 7c3c aa4b f8bb fc0d 97bb b013 59b8
000003b0: a2fd 98ba 639e 97bb 13dc 113b 1057 7e3b
000003c0: c242 f63c 84d3 ae39 8dd5 073d 6813 363a
000003d0: 0c46 16bc 9f56 c8b9 845e 30bc 1ec9 babc
000003e0: 474b 00bc 4cbd dabb 718f 063c 0f69 2fbc
000003f0: 3898 773c 077d 033c 6887 bcbb 90ef a03c
-1.8111936e-13 -3.9622397e-15 5.5471155e-13 6.443911e-11 -1.4462288e-14 -8.112186e-14 2.3060264e-07 5.742272e-13
1.1125792e-07 -2.2730487e-07 7.3962326e-07 1.7990365e-07 1.611352e-10 -1.7525712e-15 -5.7240445e-15 3.314895e-08
1.3630989e-06 -8.649524e-14 -3.4401126e-10 -2.8206573e-09 7.596176e-15 -2.0079256e-07 -6.406503e-13 -9.1364655e-07
-5.366546e-14 3.69993e-40 -1.52128e-14 -7.274055e-15 6.332125e-15 1.6767945e-11 -1.5603e-40 2.354141e-08
-4.900129e-09 5.0334285e-15 -2.0715158e-09 -1.0321484e-09 -5.3184563e-15 8.463012e-12 3.8986805e-09 1.6761735e-12
-7.966164e-09 1.0243032e-09 -3.507972e-14 -1.714286e-08 -1.2221553e-09 3.6614055e-13 1.8831122e-15 -6.83769e-40
-3.388986e-09 7.451392e-06 -1.20175e-40 1.8630685e-08 -6.977758e-07 -1.235483e-09 8.006738e-12 2.0142082e-12
1.047687e-06 -1.0738031e-06 -6.883752e-06 6.34605e-40 2.5576739e-09 2.448105e-12 -2.24906e-40 1.1381413e-08
1.6294349e-10 4.3721e-40 -7.376881e-11 9.018407e-11 -4.76373e-40 1.8007148e-06 1.5871395e-09 3.1220566e-07
4.94267e-40 7.337431e-15 -5.6670197e-15 -2.3182845e-12 -8.3494115e-08 -7.7602934e-08 -5.6136605e-06 -1.2746545e-14
-1.5399263e-07 -2.2325573e-06 2.9120187e-07 -4.4338592e-13 1.5168835e-14 -6.371e-40 -1.9622406e-09 -2.027643e-09
-8.068476e-12 6.3885897e-10 1.4107444e-06 8.593074e-13 -1.2962246e-07 1.900484e-08 1.5004616e-07 2.4907485e-13
-1.904674e-12 2.1447192e-07 3.2409578e-10 -3.0234265e-15 4.7962194e-06 -5.9877977e-16 -4.9975754e-14 -1.5447893e-11
1.6552362e-09 1.9778789e-14 3.8602732e-10 2.72201e-40 -1.9320873e-07 1.16334e-12 1.5330096e-15 -4.252322e-09
-2.854778e-06 -1.1031012e-12 -6.71501e-40 2.2064614e-07 -7.5743e-41 3.779923e-08 -3.916217e-12 -3.3035423e-08
9.819852e-14 -3.68043e-40 1.4296118e-10 -1.2532592e-14 5.9498e-40 -1.6718713e-10 2.4179084e-11 8.295639e-11
1.2834263e-08 4.36286e-40 9.90542e-07 -3.6955053e-06 -1.6117085e-10 -4.2679844e-12 -7.706218e-06 6.4107985e-15
-2.1476207e-09 -5.2273e-41 2.2077323e-15 7.6181084e-15 -2.4470328e-09 2.8353411e-15 6.84188e-40 -1.0898024e-15
-3.88073e-40 -1.5052738e-06 1.6177836e-13 -3.196087e-06 -6.9317065e-07 -1.2851276e-11 -2.1535119e-08 1.0620376e-09
1.5582611e-14 2.7840952e-11 -1.4725145e-05 4.6202503e-10 4.201009e-15 1.4812889e-13 2.2660088e-14 -8.047818e-11
4.6086925e-09 -8.529979e-13 -3.2415207e-07 4.742101e-13 -1.5065604e-10 -7.719948e-15 9.20283e-13 -5.58433e-40
1.5763713e-10 1.217201e-10 -5.142058e-07 -2.2210739e-10 -3.54814e-40 -4.0489565e-12 1.5461423e-09 -1.7628962e-06
-4.88197e-40 4.068471e-07 3.6806e-40 -7.8403e-41 0.0012103736 -0.0030568885 0.0026701784 -0.0026759577
0.0024784626 -4.320129e-05 -0.0010658184 -0.001683834 -0.015100793 -0.0026260128 -0.0022298398 0.009319122
-0.0109153725 0.038386315 -0.0016814921 0.00446188 -0.012196317 -0.0028917878 0.0151690515 -0.011974942
-0.0007126159 0.0066040587 6.3569554e-05 -0.0022138546 -0.0036960233 0.009346237 -0.02187173 -0.0052170497
-0.0013899264 0.022564212 0.016069314 0.023539035 -0.012878704 0.01575191 -0.0039631315 0.0005019355
-0.012078413 -0.0066195778 -0.004950138 -0.017688915 0.03202757 0.008084509 -0.0042553404 -0.012711978
-0.003865092 -0.0021941152 -0.008261672 -0.0100054275 -0.0012296437 -0.014320913 0.0071684313 0.004742562
0.015434664 -0.0075773792 -0.0046098214 -5.1755167e-05 -0.0011672268 -0.0046270355 0.0022256419 0.0038809218
0.03006113 0.00033345458 0.033162642 0.0006945641 -0.009171974 -0.0003821151 -0.010764722 -0.022800978
-0.0078304475 -0.006675398 0.00821291 -0.0107062 0.015111975 0.008025414 -0.0057534464 0.019645482

in_layer.bias f4 [10]
00000000: e2ab e42a c862 6c35 e029 ac2d becf c335
00000010: 220f 80a8 b2b9 8633 ea77 1eb5 db4c a135
00000020: f4ab 08b6 22a3 33a9
4.0620204e-13 8.8060597e-07 1.9572732e-11 1.4589093e-06 -1.4217418e-14 6.273639e-08 -5.9034085e-07 1.2017803e-06
-2.036567e-06 -3.988748e-14

out_layer.weight f4 [1, 10]
00000000: 94ce 0480 8305 b13e 1ade 0100 436b 93be
00000010: 5d30 0280 4bae 0200 6f28 0600 9429 b5be
00000020: 118e 08bf 71c2 0280
-4.41448e-40 0.34574518 1.7151e-40 -0.28792772 -2.0102e-40 2.46196e-40 5.65518e-40 -0.35383284
-0.53341776 -2.53423e-40

bn1.weight f4 [10]
00000000: 60b1 0480 36b3 ae3e 3615 0080 51a9 883e
00000010: 0e0c 0180 f589 0180 2a94 0000 4896 a73e
00000020: ebb2 ff3e d5c8 0480
-4.30972e-40 0.34121102 -7.609e-42 0.26691678 -9.616e-41 -1.41325e-40 5.3151e-41 0.32731843
0.4994119 -4.39387e-40

bn1.bias f4 [10]
00000000: 109e 0300 354a 62bd ee45 0280 556a dd3d
00000010: f57b 0380 1b06 0180 2247 0080 4af2 083e
00000020: ab97 403e fe06 0300
3.32209e-40 -0.05524655 -2.08757e-40 0.10811297 -3.19974e-40 -9.4026e-41 -2.5518e-41 0.13373676
0.18807857 2.78015e-40

bn1.running_mean f4 [10]
00000000: ced7 82b7 6ede 403e 8b71 92ab dad4 ecbe
00000010: 7da3 5926 f31b 8bb7 a463 a3b2 62a0 28bf
00000020: ec68 01bf 1e4f 0b27
-1.55977e-05 0.1883485 -1.0405438e-12 -0.46256143 7.5508567e-16 -1.6583106e-05 -1.9021009e-08 -0.65869725
-0.50550723 1.9333015e-15

bn1.running_var f4 [10]
00000000: e824 7932 0fd0 223d 72b7 2b07 f189 1b3d
00000010: f48d 0000 03d4 6932 2e69 2f17 90cb b33d
00000020: e8ce a13d d623 0000
1.4502099e-08 0.0397492 1.291852e-34 0.037973348 5.0923e-41 1.3610591e-08 5.6678305e-25 0.08779061
0.07900792 1.2856e-41
