output/CSL_mhc_nostd_noburn_60nh_231002_1521_14ZHv/checkpoint_best_CSL_mhc_nostd_noburn_60nh_231002_1521_14ZHv.pt (torch, 210635 bytes, 7 tensors)

in_layer.weight f4 [60, 860]
0	0xbb147f38	-0.0022658836
1	0xb7e3a534	-2.7137437e-05
2	0xba1f7284	-0.0006082433
3	0x3aaf5f47	0.0013379835
4	0x3a6b9345	0.00089864834
5	0xb888c182	-6.521029e-05
6	0x3977baa5	0.00023625286
7	0xba0877d1	-0.00052058423
8	0x3a9a5db3	0.0011777192
9	0xba1abd08	-0.00059028016
10	0x383d1a84	4.5085806e-05
11	0xbb3c2dac	-0.0028713746
12	0xba85228d	-0.0010157392
13	0xba307605	-0.00067314535
14	0x3ab1624a	0.0013533321
15	0xba81a6d5	-0.0009891639
16	0x3a26b9f2	0.00063601055
17	0xb9ad1faf	-0.00033020737
18	0xba9edcc1	-0.0012120233
19	0x38cb57b8	9.696133e-05
20	0xbadb0067	-0.0016708494
21	0x3ab0df4f	0.0013494286
22	0x3a4c7aa1	0.00078002556
23	0x3ae582d5	0.0017510304
24	0x3a9cd3a9	0.0011964935
25	0x3a28bde7	0.0006436989
26	0x3acfb34c	0.0015846281
27	0x3a802c97	0.0009778914
28	0x3abd192a	0.0014427055
29	0xbadcb4cd	-0.0016838551
30	0xbae27398	-0.0017276881
31	0x3a4b39ef	0.0007752468
32	0xba58bd7b	-0.0008267981
33	0xbb47b9b5	-0.003047568
34	0x3af3f7ec	0.0018613315
35	0x3a206c63	0.00061196665
36	0x3b269970	0.0025421046
37	0xb5a5c550	-1.2350883e-06
38	0xbaae515c	-0.0013299393
39	0xb97e1880	-0.00024232455
40	0xb99a6ebc	-0.00029455672
41	0xb929408d	-0.00016141143
42	0xb881e720	-6.19425e-05
43	0x3ac8cb5d	0.0015319396
44	0x3a76efe3	0.0009419901
45	0xba9902cf	-0.0011673811
46	0x3ac8d959	0.0015323564
47	0xb9eb15f2	-0.00044839043
48	0xbaad2483	-0.0013209734
49	0x39a28998	0.00031001563
50	0x3a257910	0.000631229
51	0x3a480501	0.000763014
52	0x3a078e71	0.0005171067
53	0xbab94b4a	-0.0014136818
54	0x3aef8a08	0.001827539
55	0xba09a4d8	-0.0005250699
56	0x3aa15871	0.0012309683
57	0x39d9c73f	0.00041537915
58	0x3a28e5c7	0.0006442931
59	0x3aa382ce	0.0012474896
60	0xbb1b6a40	-0.0023714453
61	0xba98a2f5	-0.0011645245
62	0x3ac22996	0.0014813419
63	0x3b451210	0.003007058
64	0x3aed6966	0.0018113076
65	0x399382c8	0.00028135465
66	0x3ad5652f	0.0016280765
67	0x3ae6bb03	0.0017603341
68	0x3a4994a3	0.000768969
69	0xba25fd3e	-0.00063319865
70	0xbaa4e53b	-0.0012580523
71	0xb9d27e9d	-0.00040148656
72	0xbb05ab03	-0.002039612
73	0x38ee82e6	0.00011373106
74	0xb9810206	-0.00024606305
75	0xb9661912	-0.00021943849
76	0x3a656583	0.0008750783
77	0x3916d5e4	0.00014384795
78	0xb91f0f3d	-0.00015169098
79	0xb970fac2	-0.00022981598
80	0xbb620a3b	-0.003449096
81	0x3ab0205f	0.0013437382
82	0x3a12014b	0.00055696507
83	0x3a95c3a4	0.0011426103
84	0xb92287f8	-0.00015500176
85	0x3aa5fb95	0.0012663478
86	0x3b1a1533	0.002351117
87	0x3a8fb8e2	0.0010965134
88	0x3aaf84d9	0.0013391032
89	0xb9e195fe	-0.00043027097
90	0xba0aebdd	-0.00052994286
91	0x3aa8863d	0.0012857389
92	0xbabb3dbe	-0.0014285368
93	0x3a5fb8a6	0.00085342897
94	0x3b118426	0.002220401
95	0xba4075d4	-0.00073417765
96	0x3ab4a34f	0.001378158
97	0x39e5b650	0.00043814117
98	0x3ac501ad	0.0015030407
99	0xb7a2e3ec	-1.941804e-05
100	0x3a608ac5	0.00085656
101	0x399b57df	0.00029629373
102	0x3b0549df	0.002033822
103	0x3a42aa38	0.0007425877
104	0x3b07ef05	0.0020741832
105	0x3a3f259a	0.0007291675
106	0x3abacd3f	0.0014251842
107	0x3ab490e8	0.0013776096
108	0x3b039c54	0.0020082192
109	0x3a9585f7	0.0011407722
110	0xb984ee15	-0.00025354387
111	0x3aaafcc7	0.0013045304
112	0x3a86b5ee	0.0010277608
113	0x396ffaf7	0.00022886308
114	0x3a309c36	0.00067371444
115	0xb9375453	-0.00017483653
116	0xb8a791eb	-7.99036e-05
117	0x3ae34868	0.0017340304
118	0x3a8b4468	0.0010625245
119	0x3a8ea087	0.0010881581
120	0xba82db32	-0.0009983538
121	0x3a39e644	0.0007091502
122	0xb90e13df	-0.00013549578
123	0x3a8ccb04	0.0010741656
124	0x3b08d0b4	0.002087635
125	0x39beb562	0.00036374765
126	0x3b1aff13	0.0023650571
127	0x3ac60221	0.0015106836
128	0x3ad76609	0.0016433607
129	0x3b0a03db	0.0021059427
130	0x3aec9097	0.0018048462
131	0x3a12db3f	0.0005602128
132	0x3a501e0d	0.0007939048
133	0x3afa96c0	0.0019118413
134	0xb95af031	-0.00020879578
135	0xba63329b	-0.00086669036
136	0x3aa1d748	0.0012347484
137	0x3acbe1e9	0.0015554997
138	0x3abe57b8	0.0014521992
139	0x3b22bb39	0.0024830832
140	0x39831867	0.00025004448
141	0x3a407de4	0.0007342978
142	0x380ff18e	3.4318822e-05
143	0x3b78aa0d	0.0037943155
144	0x3b3878aa	0.0028148093
145	0x3b326c13	0.0027225062
146	0x3b77aebf	0.0037793366
147	0x3b815bdc	0.003947718
148	0x3ab6ceef	0.0013947169
149	0x3b132abf	0.0022455899
150	0x3b0edcbb	0.0021799046
151	0x3b489d97	0.003061151
152	0x3a9369f0	0.0011246782
153	0xb8d8304e	-0.0001030868
154	0x3b2c91d6	0.0026332042
155	0x3a9722c2	0.0011530744
156	0x3b4654d3	0.0030262962
157	0x3b239622	0.0024961312
158	0x3b776515	0.0037749459
159	0x3b4f9e21	0.0031679946
160	0x3b160ff3	0.002289769
161	0x3af6d572	0.0018831922
162	0x3b3fb72c	0.0029253466
163	0x3ac4c69b	0.0015012802
164	0x3b9cec0d	0.0047888816
165	0x3b2d353a	0.002642943
166	0x3b2e9c69	0.002664352
167	0x3ba2d348	0.0049690343
168	0x3b3fe62a	0.0029281476
169	0x3b4eb0b3	0.0031538426
170	0x3b203c8e	0.0024450156
171	0x3b155683	0.002278716
172	0x3b13816f	0.0022507568
173	0x3b912809	0.0044298214
174	0x3b6e80de	0.0036392729
175	0x3b41566e	0.002950098
176	0x3b93e8b8	0.004513826
177	0x3b7936a4	0.0038026953
178	0x3b8e709d	0.0043469206
179	0x3b29ef3f	0.0025929955
180	0xb8a81fd8	-8.0167956e-05
181	0xb9c66896	-0.00037843426
182	0xb980fd24	-0.00024602667
183	0xb9e22b58	-0.00043138373
184	0x39bc231a	0.00035884307
185	0xba7ebac2	-0.000971716
186	0xba0a686f	-0.0005279844
187	0xb9405858	-0.00018343457
188	0xb923e188	-0.00015628908
189	0x38f10170	0.00011492043
190	0xb803ff01	-3.1470325e-05
191	0xba0a647f	-0.00052792573
192	0xb9196362	-0.0001462824
193	0x3a60247c	0.00085503585
194	0xb9a9de28	-0.0003239971
195	0xb93f9716	-0.00018271463
196	0xb8a7dd50	-8.004403e-05
197	0x3857dec0	5.1467447e-05
198	0x3a700282	0.0009155647
199	0x393ea6e6	0.00018181987
200	0x39af3cdd	0.00033423948
201	0xb7f96bdc	-2.9733339e-05
202	0x3aca5038	0.0015435284
203	0x3a270811	0.00063717464
204	0x3901d2d5	0.0001238094
205	0xb9834fc6	-0.00025045703
206	0xba06d52f	-0.0005143461
207	0x3a46a8d3	0.00075782574
208	0x39601b5a	0.00021372494
209	0xba1de8dc	-0.00060237735
210	0xba95a461	-0.0011416787
211	0x393eb094	0.00018185592
212	0xbaac5538	-0.0013147956
213	0xba5b9692	-0.0008376624
214	0x39177e79	0.00014447597
215	0x3a55ad9c	0.0008151175
216	0x395df15a	0.00021166113
217	0xba35e87a	-0.0006939244
218	0xb9f9eb87	-0.00047668463
219	0xba03eacd	-0.00050322415
220	0x3a1d08fd	0.0005990414
221	0x3a55c9ae	0.0008155358
222	0x3a55e9a4	0.00081601203
223	0x3a55e6d3	0.00081597007
224	0xba1ce3b4	-0.0005984858
225	0x3a850d53	0.0010151066
226	0x3a1d0dad	0.00059911126
227	0x3a1d096f	0.00059904804
228	0x3a84fdd2	0.0010146445
229	0xba1cae6b	-0.0005976918
230	0xba55f3dc	-0.0008161643
231	0x3a55f50f	0.0008161822
232	0x80050654	-4.61448e-40
233	0xba9fd792	-0.0012194982
234	0x3a1d0dd9	0.0005991138
235	0x3a1d04ad	0.00059897715
236	0x30f68da0	1.7939108e-09
237	0x3a1d0d8e	0.00059910945
238	0x3a9fdaf4	0.001219599
239	0x31735e60	3.54148e-09
240	0x3925b2be	0.00015802213
241	0x3a075c5a	0.0005163603
242	0x3a5df648	0.000846718
243	0x3a32b7b8	0.00068175374
244	0xb925be14	-0.00015806436
245	0x3a5df7ef	0.0008467426
246	0x3a075d34	0.00051637297
247	0x39b4aaaa	0.0003445943
248	0x3afcb446	0.00192798
249	0xba32b874	-0.0006817647
250	0xba32b864	-0.00068176375
251	0x3a32b794	0.00068175164
252	0xb925e7a1	-0.00015821915
253	0xbac6b298	-0.0015159426
254	0x39b4aafd	0.00034459672
255	0x39b4aab7	0.00034459468

in_layer.bias f4 [60]
0	0xb29086cf	-1.682511e-08
1	0x000144f1	1.16567e-40
2	0xb1e01d1a	-6.5225665e-09
3	0xb0dfaa7b	-1.6273839e-09
4	0xb15acf0b	-3.1840865e-09
5	0xaf678e6a	-2.1059923e-10
6	0x322e951c	1.01620365e-08
7	0xb19c51ed	-4.5495114e-09
8	0x314cf93b	2.9827578e-09
9	0x2f473640	1.8118218e-10
10	0xb060accc	-8.1736284e-10
11	0x323b48bd	1.0901371e-08
12	0x2f4a742a	1.8413063e-10
13	0xb2c539a2	-2.2960027e-08
14	0x80051b6b	-4.69013e-40
15	0x31fa4fcc	7.2850295e-09
16	0xb1ad8312	-5.0498636e-09
17	0xb1bbc712	-5.465048e-09
18	0x31d3e00d	6.16638e-09
19	0x3075478a	8.9232144e-10
20	0xb26a310a	-1.3631743e-08
21	0xb0f40380	-1.7754331e-09
22	0xb3377be6	-4.2720693e-08
23	0x8003b3d8	-3.40022e-40
24	0xb261fbdf	-1.3153993e-08
25	0x32754c1e	1.4278184e-08
26	0x31576e88	3.1349447e-09
27	0xb080e988	-9.379599e-10
28	0xadd9d25f	-2.4763467e-11
29	0xb1a716dc	-4.8629385e-09
30	0x322fecea	1.0240209e-08
31	0x31a5a8ae	4.8213087e-09
32	0xb1885bc0	-3.9685517e-09
33	0xb14675d0	-2.887976e-09
34	0x31229d30	2.3663453e-09
35	0x111d6cb0	1.2418608e-28
36	0x8182ba6e	-4.802197e-38
37	0x322ef67d	1.0184178e-08
38	0xb118358f	-2.2149356e-09
39	0x0004bc39	4.34864e-40
40	0xb0392bd0	-6.736487e-10
41	0xaca2a051	-4.6221156e-12
42	0xb20f687d	-8.347453e-09
43	0x0004c7d7	4.39031e-40
44	0x307aa492	9.118334e-10
45	0x3024d3a6	5.9963623e-10
46	0x3179f91c	3.6375871e-09
47	0xb1ba7037	-5.42607e-09
48	0x30d7061a	1.5645043e-09
49	0x31d43366	6.1758554e-09
50	0xb1e01ba8	-6.522402e-09
51	0x2eb01882	8.007907e-11
52	0x2e97ddea	6.906105e-11
53	0xb1abb50d	-4.997338e-09
54	0x2f1306dd	1.337201e-10
55	0xb32be04a	-4.001803e-08
56	0x0017f4f5	2.20009e-39
57	0x32b85dd7	2.1463093e-08
58	0xaf4e7d02	-1.8780003e-10
59	0xb1c73040	-5.7971477e-09

out_layer.weight f4 [1, 60]
0	0xbd0089a3	-0.03138126
1	0x18cd288a	5.3032192e-24
2	0xbddba8fd	-0.10725591
3	0xbde6cc67	-0.112694554
4	0xbdda669d	-0.10664103
5	0xbc8d5d2d	-0.017256344
6	0x3d8368cc	0.06416473
7	0xbdea4756	-0.114393875
8	0xbdb64777	-0.089003496
9	0xbd5dcbb1	-0.054149333
10	0xbe04c558	-0.12965906
11	0xbdca7a3e	-0.09886597
12	0xbb827ee1	-0.0039824103
13	0xbdccad0b	-0.09993943
14	0x123a47a4	5.8779555e-28
15	0xbdce1545	-0.100626506
16	0xbe123c7b	-0.14280884
17	0x3de3dc46	0.11125998
18	0x3ddb1991	0.10698236
19	0x3d8c1657	0.068401985
20	0x3da92531	0.08259047
21	0x3dc1052c	0.094248146
22	0xbddb22aa	-0.10699971
23	0xb7836521	-1.5663509e-05
24	0xbdbc35be	-0.09189938
25	0xbde0336c	-0.10947308
26	0xbe08dafb	-0.13364784
27	0xbd2de078	-0.0424504
28	0xba0b9e0d	-0.00053259806
29	0x3dd15ea3	0.10223129
30	0xbd8a6651	-0.067577966
31	0x3d9e937c	0.07742974
32	0xbd4d4808	-0.050117522
33	0xbd8cbe07	-0.06872182
34	0x3d4e7797	0.05040702
35	0x3993b80c	0.0002817515
36	0x959a480b	-6.231377e-26
37	0xbdca8db8	-0.09890312
38	0xbd808936	-0.06276171
39	0xbb24c8d1	-0.002514411
40	0x3d990d75	0.0747327
41	0xba14f131	-0.0005681692
42	0xbdf6e1ba	-0.12054773
43	0xba240b6c	-0.00062578055
44	0xbcd3cce4	-0.025854535
45	0xbda31a7e	-0.07964037
46	0xbe06dcb4	-0.13170129
47	0xbdf25000	-0.11831665
48	0xbdc009c6	-0.09376864
49	0xbdf4ee50	-0.11959517
50	0xbe0699ea	-0.13144651
51	0xbb0d4eee	-0.0021561938
52	0xba4640ec	-0.00075627747
53	0xbdb1eaf5	-0.086873926
54	0x3dec41b0	0.115359664
55	0xbe12ff98	-0.14355314
56	0x29cedfc2	9.1870535e-14
57	0x3d2f3177	0.042771783
58	0xbd42d3f9	-0.047565434
59	0x3d8b5b69	0.068045445

bn1.weight f4 [60]
0	0x3f0309c3	0.5118677
1	0x3f02cc19	0.5109268
2	0x3f03ecd7	0.51533264
3	0x3f03bf76	0.5146402
4	0x3f03dbff	0.5150756
5	0x3f02e02a	0.511233
6	0x3f03e2c3	0.51517886
7	0x3f040f4f	0.5158586
8	0x3f03b68b	0.51450413
9	0x3f032619	0.5123001
10	0x3f046361	0.5171414
11	0x3f03bcec	0.51460147
12	0x3f02cc3f	0.51092905
13	0x3f03e173	0.51515883
14	0x3f02cc05	0.5109256
15	0x3f04e858	0.5191703
16	0x3f04b769	0.5184236
17	0x3f049e06	0.51803625
18	0x3f060f4f	0.5236711
19	0x3f036c99	0.5133758
20	0x3f03a042	0.5141641
21	0x3f04fdc2	0.51949704
22	0x3f04263c	0.5162084
23	0x3f02cbe3	0.51092356
24	0x3f03ab6a	0.5143343
25	0x3f03d54d	0.51497346
26	0x3f0410ae	0.5158795
27	0x3f034589	0.5127798
28	0x3f02cc62	0.51093113
29	0x3f04f4a0	0.5193577
30	0x3f03312c	0.51246905
31	0x3f0462a1	0.51712996
32	0x3f031d6c	0.5121677
33	0x3f0369f2	0.51333535
34	0x3f032e69	0.5124269
35	0x3f02cb76	0.51091707
36	0x3f02cbc7	0.5109219
37	0x3f0414e7	0.51594394
38	0x3f033b1d	0.51262075
39	0x3f02c8df	0.51087755
40	0x3f03c458	0.5147147
41	0x3f02cc37	0.5109286
42	0x3f044c2b	0.51678723
43	0x3f02cb87	0.5109181
44	0x3f02fc7d	0.51166517
45	0x3f036598	0.51326895
46	0x3f042af0	0.5162802
47	0x3f0490c9	0.51783425
48	0x3f03a48e	0.51422966
49	0x3f044c87	0.5167927
50	0x3f0416c2	0.51597226
51	0x3f02cb7f	0.5109176
52	0x3f02cba6	0.5109199
53	0x3f03bb70	0.5145788
54	0x3f04385f	0.51648515
55	0x3f04d23b	0.51883286
56	0x3f02cb88	0.51091814
57	0x3f03109f	0.51197237
58	0x3f032e31	0.5124236
59	0x3f03cb40	0.5148201

bn1.bias f4 [60]
0	0x3b1717b6	0.0023054904
1	0x80020b11	-1.87641e-40
2	0x3b71307d	0.0036802583
3	0x3b9d3261	0.0047972654
4	0x3aa15bf4	0.0012310729
5	0x3aa83a69	0.001283479
6	0xbb1d4166	-0.002399528
7	0x3b522a5c	0.0032068705
8	0x3ac775cf	0.0015217605
9	0x395a5bac	0.0002082425
10	0x3bcff58b	0.0063464097
11	0x3aecbecd	0.0018062234
12	0x39ada7e5	0.00033122223
13	0x3b95c1ec	0.0045702364
14	0x00039f18	3.32579e-40
15	0x3b8981ce	0.004196382
16	0x3bf5ca06	0.0075008897
17	0xbb9cfb1d	-0.004790677
18	0xbb527400	-0.0032112598
19	0xbb3791c3	-0.0028010465
20	0xbb6979dd	-0.0035625615
21	0xbb4a3350	-0.0030853339
22	0x3ac1e7bd	0.0014793795
23	0x80062bb7	-5.66695e-40
24	0x3b169ddb	0.0022982273
25	0x3b53e303	0.0032331354
26	0x3bd98e74	0.006639296
27	0x3b48aa30	0.0030619018
28	0xb7584168	-1.2889832e-05
29	0xbb8969c5	-0.004193517
30	0x3ad4f4dc	0.001624729
31	0xbb0ca5a4	-0.0021461034
32	0x3a07964f	0.0005172239
33	0xb9b04347	-0.00033619461
34	0xbb1bf0bd	-0.0023794614
35	0x1979b128	1.2908775e-23
36	0x8822227e	-4.8790647e-34
37	0x3aecf449	0.0018078174
38	0x3a165222	0.00057342846
39	0x0000b996	6.6576e-41
40	0xbb378427	-0.0028002353
41	0x38a8afc4	8.043603e-05
42	0x3b775903	0.0037742264
43	0x00026052	2.18224e-40
44	0x3afaeffc	0.0019145007
45	0x3b36d6d0	0.0027899034
46	0x3bd8803a	0.0066070827
47	0x3b987cb4	0.0046535376
48	0x3ac2cc0c	0.0014861836
49	0x3b20499b	0.0024457935
50	0x3bbf1081	0.005830825
51	0x3972e4ed	0.000231642
52	0x38eeef0e	0.00011393252
53	0x3a7a79b4	0.00095548783
54	0xbbd3ecd0	-0.0064674392
55	0x3b9791ca	0.0046255337
56	0x8002909d	-2.35548e-40
57	0xbb0254b7	-0.001988692
58	0x3a3b3739	0.00071417127
59	0xbb0f3cc9	-0.00218563

bn1.running_mean f4 [60]
0	0xbfcba19c	-1.5908694
1	0x2f7d1aa3	2.3019679e-10
2	0xbed9337f	-0.424221
3	0xbe080271	-0.13282181
4	0xbe84dbbd	-0.25948897
5	0xbfbcddf2	-1.4755232
6	0x3e7f6b86	0.2494336
7	0x3dcfca1a	0.1014597
8	0xbe1438de	-0.14474818
9	0xbf1dc2a8	-0.61625147
10	0x3d7f2359	0.06228957
11	0xbeb32baa	-0.3499425
12	0xbf846d02	-1.0345767
13	0xbee575f2	-0.44816548
14	0x166f500c	1.9331525e-25
15	0xbdcef0a6	-0.10104494
16	0xbee6aa79	-0.45051935
17	0x3f15f113	0.58570975
18	0x3eb60ffc	0.3555907
19	0x3e8d218e	0.27564663
20	0x3d5a4f1f	0.053298112
21	0x3f11ea93	0.56998557
22	0xbf1fdc94	-0.6244595
23	0x22c705db	5.3945258e-18
24	0xbea89a2b	-0.3293012
25	0xbef60658	-0.48051715
26	0xbef075dc	-0.4696492
27	0xbfd5e9e4	-1.6712003
28	0x3f11d88e	0.5697106
29	0x3f3a5fdf	0.7280254
30	0xbc68fce3	-0.014220449
31	0x3e80ea0c	0.25178564
32	0xbe42cde4	-0.19023854
33	0xbe83bdef	-0.25730845
34	0x3f34941a	0.70538485
35	0x2a04b6d8	1.1787392e-13
36	0x1bb5e857	3.0094084e-22
37	0xbeabc24d	-0.33546677
38	0xbe688323	-0.22706275
39	0x37b9e9e0	2.2162625e-05
40	0x3e9dc2ed	0.3081278
41	0xbefc2b6e	-0.49251884
42	0xbe3bd8ad	-0.18344374
43	0x3574a612	9.113875e-07
44	0xbfc6ad0d	-1.5521561
45	0xbecbb7be	-0.39788622
46	0xbe0ccfd8	-0.13751161
47	0xbf061368	-0.5237336
48	0xbe6e9bf6	-0.23301682
49	0xbee24519	-0.44193342
50	0xbf19f2c4	-0.60136056
51	0xbf4ddb76	-0.80412996
52	0xc015c7a5	-2.3403103
53	0xbdb13b96	-0.08653943
54	0x3e45b812	0.19308499
55	0xbf187c3e	-0.5956458
56	0x27c025e8	5.3331803e-15
57	0x3e8f1593	0.27946147
58	0xbec26265	-0.37965694
59	0x3e682bc6	0.22672948

bn1.running_var f4 [60]
0	0x3f30304a	0.68823683
1	0x1e903d6d	1.5271998e-20
2	0x3e07f1fe	0.13275906
3	0x3e0909fd	0.13382716
4	0x3e43deac	0.19127911
5	0x3f1f00fa	0.62110865
6	0x3dc98ac1	0.09840918
7	0x3ddd2c2c	0.10799441
8	0x3da8fab1	0.082509406
9	0x3e31c614	0.17360717
10	0x3e1faac2	0.15592483
11	0x3dc448ea	0.0958422
12	0x3eae1f1d	0.34008113
13	0x3e1b32c4	0.15156084
14	0x00000005	7e-45
15	0x3dcb838d	0.09937201
16	0x3e202fbd	0.1564321
17	0x3df5529c	0.11978647
18	0x3d9058d1	0.070481904
19	0x3d8333ca	0.06406362
20	0x3d9196dc	0.07108852
21	0x3e50f79c	0.20406955
22	0x3dd87434	0.10569039
23	0x0551949f	9.85443e-36
24	0x3dc7ef96	0.09762494
25	0x3e4cdaa4	0.2000528
26	0x3e6a6c26	0.22892818
27	0x3f3f3282	0.74686444
28	0x3e2aa31e	0.16663787
29	0x3e2ac7fb	0.16677849
30	0x3df2f8c0	0.118638515
31	0x3da5d1ad	0.08096633
32	0x3db13f9d	0.086547114
33	0x3e006e97	0.12542187
34	0x3e029463	0.12751918
35	0x149c579a	1.5786527e-26
36	0x00000021	4.6e-44
37	0x3df47024	0.119354516
38	0x3db4b211	0.08823026
39	0x2f79aba8	2.2707403e-10
40	0x3ddccef9	0.107816644
41	0x3daba27f	0.08380603
42	0x3dc8e8b1	0.09810007
43	0x2a8f27ef	2.5429612e-13
44	0x3f2a056e	0.66414535
45	0x3e0456c3	0.12923722
46	0x3e35d861	0.17758323
47	0x3e097bd5	0.13426144
48	0x3ddf3f49	0.109007426
49	0x3e066fce	0.13128588
50	0x3e49b863	0.19699244
51	0x3e5bde8f	0.21471618
52	0x4030e5f3	2.764035
53	0x3e238f69	0.15972675
54	0x3e54105b	0.20709364
55	0x3e16fdff	0.1474533
56	0x0f2a0d7a	8.3842426e-30
57	0x3d9dba06	0.07701497
58	0x3ddcdd20	0.10784364
59	0x3d88e9b0	0.06685197
