output/231116_complete_wd1e-6/CSL_complete_60nh_wd1e-6_all_KFold_4_231116_1628_None/checkpoint_best_kcv_train_all5_correct_f04_CSL_complete_60nh_wd1e-6_all_KFold_4_231116_1628_None.pt (torch, 221535 bytes, 3 tensors)

in_layer.weight f4 [60, 914]
-0.058125403 -0.02136519 -0.06468203 -0.046801146 -0.010872411 -0.057027027 -0.00235293 -0.014744395
0.00046046398 0.06277677 0.057850145 -0.034583498 0.09338044 0.06496394 -0.020885237 -0.015473777
-0.055225328 0.022165047 0.03121414 -0.06621733 0.06205378 0.0055802236 -0.0027528433 -0.08891681
0.022537952 0.04299703 -0.019229729 0.031936597 0.041494943 0.037873425 0.051595286 0.11216645
-0.012195828 0.02749288 0.011807267 -0.01391542 0.025335098 0.024977028 0.055405207 0.038886357
0.05249046 -0.0068166065 0.051014207 -0.0062891855 0.003536439 0.008854753 -0.00719466 -0.026627365
-0.00022443057 0.030766334 0.021361243 -0.051706124 0.04395295 -0.056376703 -0.023180835 0.08543566
0.01974613 -0.009802575 -0.0052572982 0.026716076 0.035858884 0.009290845 0.008427428 0.06306581
0.032779343 0.094732255 0.08975722 -0.020984976 0.019342475 -0.022437302 -0.020175612 0.012041633
-0.034826685 -0.08314974 -0.03987104 0.10688293 0.042069945 0.0057899943 -0.09169007 -0.05454281
0.06471852 0.029280908 0.025827112 -0.1016685 -0.00032558932 0.041601673 0.009597011 0.06385565
0.010033655 -0.049995206 -0.03484209 0.045468215 0.022010988 0.014199776 0.09403792 0.081248954
0.045002315 0.028074605 0.0013526416 -0.039028417 -0.08416994 0.030527173 0.03913887 -0.024786172
-0.040068086 0.030043926 -0.019429058 -0.06143033 0.0063963407 -0.018369807 0.030314814 0.0067704436
-0.053942133 0.011687248 0.053981356 0.04802118 0.08614855 -0.0011084599 0.008176313 0.010160218
-0.058764473 -0.047416348 0.049397223 0.019458508 0.018788774 -0.016571939 0.018953448 -0.041103702
-0.0058332845 0.048346393 0.05888753 0.028252726 0.047493592 -0.025986258 0.00977464 -0.021857942
0.046745062 -0.027378088 -0.028734837 0.009986595 0.052003436 0.033008937 0.0032393297 0.02469134
0.01340219 0.029795762 -0.016222408 0.016839677 0.019019287 -0.008536878 -0.018733691 0.066753425
-0.01824613 -0.06302641 0.0023402115 0.0030929884 -0.05697346 0.0047076666 -0.026505178 -0.028734898
-0.059219662 -0.03478667 0.02325818 0.044552725 -0.028377969 -0.036054716 0.029291011 -0.005525029
0.022387443 -0.05442173 0.053606343 -0.059592113 0.0586254 0.017172737 -0.015527687 -0.022482788
0.02206692 0.010633963 -0.016944205 0.011195136 0.09577196 0.5688304 0.04448407 -0.27881765
-0.09745948 0.23410636 -0.082855254 0.108387694 0.17458656 -0.09183039 -0.0075541227 0.60193676
0.11450631 -0.02031907 0.06603172 0.18917862 0.07656074 0.07384872 0.31790647 -0.056087714
0.17699605 0.37322885 0.023344036 -0.25394806 -0.09837453 0.06798347 -0.23800881 -0.20675631
0.18732211 0.06860821 0.10810089 0.376271 0.13294056 0.15361461 -0.08501376 0.10786822
0.060885966 0.1483268 0.15178517 0.17969896 0.16008633 -0.268433 0.031662926 -0.11508459
-0.015974244 0.009792254 -0.07804063 0.118187055 -0.12940606 -0.038130585 -0.50707936 -0.16460684
-0.05296515 -0.11303598 0.005661092 0.013731585 0.004984643 -0.019005965 -0.027638333 0.037331846
-0.016181936 0.01573256 -0.0008126978 0.009974272 0.014439356 0.029069303 0.13923132 -0.0030019782
-0.018097792 0.007723214 -0.017196799 0.015256067 -0.021234056 -0.009995163 -0.020518722 -0.026372176
00000000: e714 6ebd 0d06 afbc 0378 84bd 8fb2 3fbd
00000010: 3222 32bc 2c95 69bd 9d33 1abb 7a92 71bc
00000020: 6e6a f139 1b91 803d 46f4 6c3d 6da7 0dbd
00000030: 3e3e bf3d d00b 853d 8417 abbc ba85 7dbc
00000040: f433 62bd 7993 b53c ccb4 ff3c f49c 87bd
00000050: 1b2c 7e3d 4fda b63b 0c69 34bb 041a b6bd
00000060: 83a1 b83c a71d 303d aa87 9dbc f3cf 023d
00000070: 9af6 293d 2a21 1b3d 9455 533d 86b7 e53d
00000080: 03d1 47bc c038 e13c 4473 413c 80fd 63bc
00000090: 8d8b cf3c a09c cc3c 92f0 623d 4d47 1f3d
000000a0: 3d00 573d d75d dfbb 46f4 503d 8315 cebb
000000b0: 9ac3 673b 8713 113c 2fc1 ebbb a221 dabc
000000c0: 1f55 6bb9 ae09 fc3c c6fd ae3c cdc9 53bd
000000d0: 0208 343d 42eb 66bd bce5 bdbc e4f8 ae3d
000000e0: a3c2 a13c fb9a 20bc 6a45 acbb acdb da3c
000000f0: c4e0 123d a138 183c 3213 0a3c a628 813d
00000100: a243 063d fc02 c23d a2d2 b73d afe8 abbc
00000110: 1c74 9e3c 6fce b7bc 5347 a5bc 454a 453c
00000120: 6da6 0ebd 694a aabd d14f 23bd 70e5 da3d
00000130: 8951 2c3d feb9 bd3b 01c8 bbbd 4868 5fbd
00000140: 258b 843d 84de ef3c 6193 d33c 9337 d0bd
00000150: dcb3 aab9 8466 2a3d c83c 1d3c c0c6 823d
00000160: 3364 243c c6c7 4cbd 94b6 0ebd e13c 3a3d
00000170: 6350 b43c 2da6 683c f496 c03d da65 a63d
00000180: 5954 383d b7fc e53c 1f4b b13a 43dc 1fbd
00000190: 4a61 acbd 1f14 fa3c 1450 203d 5f0c cbbc
000001a0: 6f1e 24bd ae1e f63c b029 9fbc 5f9e 7bbd
000001b0: 6598 d13b 477c 96bc c656 f83c 99da dd3b
000001c0: 6df2 5cbd df7b 3f3c 8e1b 5d3d dbb1 443d
000001d0: a76e b03d be49 91ba f1f5 053c 0b77 263c
000001e0: 04b3 70bd a537 42bd be54 4a3d 7367 9f3c
000001f0: eaea 993c e0c1 87bc 4344 9b3c 5b5c 28bd
00000200: 2325 bfbb de06 463d 0d34 713d 4372 e73c
00000210: a488 423d 22e1 d4bc d025 203c 6d0f b3bc
00000220: c077 3f3d 0348 e0bc 5265 ebbc d19e 233c
00000230: 8e01 553d 6134 073d ef4a 543b 7e45 ca3c
00000240: dc94 5b3c 3e16 f43c dbe4 84bc 5df3 893c
00000250: 56ce 9b3c 43de 0bbc 6677 99bc 05b6 883d
00000260: e878 95bc fe13 81bd 3c5e 193b bcb3 4a3b
00000270: 015d 69bd c542 9a3b 6321 d9bc 7365 ebbc
00000280: 5190 72bd 787c 0ebd f087 be3c eb7c 363d
00000290: ea78 e8bc 1cae 13bd b4f3 ef3c 4d0b b5bb
000002a0: df65 b73c 52e9 5ebd 5392 5b3d dc16 74bd
000002b0: 3021 703d d7ad 8c3c d767 7ebc d32d b8bc
000002c0: afc5 b43c 133a 2e3c 93ce 8abc ce6b 373c
000002d0: 1724 c43d de9e 113f ee34 363d 30c1 8ebe
000002e0: d698 c7bd 94b9 6f3e 04b0 a9bd 5efa dd3d
000002f0: d2c6 323e 9211 bcbd 9388 f7bb 8718 1a3f
00000300: 4982 ea3d 2e74 a6bc a33b 873d 0ab8 413e
00000310: e1cb 9c3d ff3d 973d a3c4 a23e 3bbc 65bd
00000320: 743e 353e da17 bf3e fe3b bf3c 7b05 82be
00000330: 9678 c9bd eb3a 8b3d 95b8 73be edb7 53be
00000340: 5ed1 3f3e 7682 8c3d 0064 dd3d 98a6 c03e
00000350: 9221 083e 264d 1d3e b21b aebd 03ea dc3d
00000360: 9063 793d fbe2 173e 926d 1b3e 0103 383e
00000370: aced 233e 0d70 89be fcb0 013d 78b1 ebbd
00000380: 6bdc 82bc b16f 203c c4d3 9fbd 0e0c f23d
00000390: 0683 04be d12e 1cbd f4cf 01bf b28e 28be
000003a0: fcf1 58bd 687f e7bd ae80 b93b 71fa 603c
000003b0: 3756 a33b 66b2 9bbc c969 e2bc 47e9 183d
000003c0: fb8f 84bc 92e1 803c 3a0b 55ba 216b 233c
000003d0: 0c93 6c3c bf22 ee3c a892 0e3e d6bc 44bb
000003e0: d241 94bc 0413 fd3b 4de0 8cbc 95f4 793c
000003f0: 0bf3 adbc c1c2 23bc e116 a8bc 760a d8bc

in_layer.bias f4 [60]
0.026651867 -0.022659563 0.010116786 0.018388819 0.011011029 -0.02125527 0.014377748 0.022925643
-0.019590743 0.020854028 0.02165636 0.0016909012 6.0633894e-05 -0.027136236 -0.0088736825 -0.019324154
-0.016585402 -0.03249088 0.030374972 0.009501228 -0.005170804 -0.0061162272 -0.009956643 0.0064317384
-5.655497e-36 0.028834427 0.018340224 -0.015921986 -0.01731354 -5.6217002e-36 -5.7532043e-36 -0.0041582743
0.0020345238 -0.030096566 -0.0005969622 0.024085475 0.016748196 -0.031658597 0.009698806 -0.026023185
-0.018702338 0.002380681 0.0057562436 0.01893642 0.0013239217 0.020350592 -0.025333717 -0.02751153
0.0012524156 -0.030411208 -0.0041773776 0.028734539 -0.015508603 0.020784667 0.010961933 0.027566794
0.023283629 0.014461211 0.006890041 -0.01658857
00000000: 0455 da3c 8ca0 b9bc e0c0 253c 26a4 963c
00000010: 9a67 343c 881f aebc a590 6b3c 8fce bb3c
00000020: c47c a0bc 11d6 aa3c ae68 b13c 3ba1 dd3a
00000030: 2651 7e38 d04c debc ec62 11bc b04d 9ebc
00000040: 1cde 87bc 2815 05bd efd4 f83c 0aab 1b3c
00000050: d96f a9bb a26a c8bb 3021 23bc 55c1 d23b
00000060: e98e f084 2d36 ec3c 3d3e 963c d36e 82bc
00000070: 20d5 8dbc e51e ef84 d9b6 f484 2242 88bb
00000080: a555 053b 138d f6bc 757d 1cba e74e c53c
00000090: 8333 893c 72ac 01bd bee7 1e3c 932e d5bc
000000a0: a535 99bc 3305 1c3b df9e bc3b 8d20 9b3c
000000b0: 7187 ad3a 49b6 a63c a888 cfbc dc5f e1bc
000000c0: 1828 a43a ed20 f9bc 62e2 88bb b264 eb3c
000000d0: cc17 7ebc 9b44 aa3c ae99 333c c2d3 e13c
000000e0: 4fbd be3c b7ee 6c3c dac5 e13b c1e4 87bc

out_layer.weight f4 [1, 60]
0.11278168 -0.17963183 -0.123971 -0.12011415 0.12867798 -0.13364723 0.07727374 0.11601374
-0.18251918 0.117402725 0.18851832 -0.10265456 0.1677736 -0.13372114 -0.13899703 0.15469776
-0.16429225 -0.16018058 -0.20788047 0.2137443 0.1362885 -0.017390221 0.11786246 -0.067150764
5.700922e-36 -0.09015279 0.16919413 0.11632783 0.12838829 -5.6768987e-36 5.7032358e-36 -0.1972132
-0.10661693 -0.133591 0.12173864 0.12592837 -0.11756325 0.13120534 -0.15642652 -0.19146545
0.16037749 -0.12256191 0.19281806 -0.2305981 -0.14212386 0.21578948 0.11007599 0.14778456
-0.17050053 -0.08894192 -0.16750166 -0.17486246 -0.051674698 -0.1084589 -0.081412725 -0.1550259
-0.17659727 -0.18046175 -0.13441351 0.12483262
00000000: 15fa e63d 68f1 37be 82e4 fdbd 68fe f5bd
00000010: 29c4 033e d2da 08be b241 9e3d 9d98 ed3d
00000020: 4fe6 3abe d770 f03d f20a 413e 8e3c d2bd
00000030: d8cc 2b3e 32ee 08be 3d55 0ebe 1769 1e3e
00000040: 3a3c 28be 6106 24be 9ede 54be c9df 5a3e
00000050: 368f 0b3e f075 8ebc e061 f13d 5786 89bd
00000060: 8b7d f204 07a2 b8bd 3a41 2d3e 493d ee3d
00000070: 3878 033e f477 f184 bd96 f204 42f2 49be
00000080: fa59 dabd 14cc 08be 1c52 f93d 5ef3 003e
00000090: 00c5 f0bd b15a 063e 462e 20be 850f 44be
000000a0: ff39 243e bd01 fbbd 1972 453e e921 6cbe
000000b0: eb88 11be ebf7 5c3e 856f e13d d654 173e
000000c0: b197 2ebe 2e27 b6bd 8e85 2bbe 250f 33be
000000d0: d9a8 53bd b31f debd b7bb a6bd 1cbf 1ebe
000000e0: ead5 34be f7ca 38be b2a3 09be 3fa8 ff3d
