output/KFold_XX_240227_1757_None/checkpoint_best_KFold_XX_240227_1757_None.pt (torch, 9515 bytes, 3 tensors)

in_layer.weight f4 [10, 180]
-0.059548933 -0.09325936 -0.04934999 0.003463919 0.037890676 -0.029362027 0.023726713 -0.054994572
-0.055110984 -0.008890161 0.0603263 -0.015537388 0.014462922 -0.071615554 0.12696719 0.023983732
0.021531954 -0.023018597 -0.117574655 0.007937954 -0.039414495 -0.046795018 0.010122851 -0.006650731
0.07487945 0.011620999 -0.18565473 -0.050999667 0.02826797 0.07223796 -0.08071838 0.00781519
0.04552776 -0.0048295488 -0.082819074 -0.00020427967 -0.0063012782 -0.0050945436 -0.027131736 -0.038125824
-0.0093404865 -0.06574007 -0.11416213 -0.16649818 -0.00062312203 -0.03982783 0.03328063 -0.021501616
-0.009101987 -0.03716669 -0.01633427 0.003050761 -0.0022278312 -0.046134938 -0.02241995 -0.07179563
0.059147403 -0.06844654 -0.09952603 -0.06953711 -0.04038696 -0.025596624 0.06309441 -0.076102935
-0.0075551094 -0.0020336779 -0.046155702 -0.021421894 -0.0021747996 -0.06883331 0.036461767 -0.055358022
0.014899225 0.017339408 -0.06181045 0.016163416 -0.0068302825 0.010154111 0.026929738 -0.101162404
-0.01522222 -0.056072164 -0.08469069 -0.05102626 0.0066325986 -0.020691765 -0.009576148 -0.046259403
-0.015732665 -0.0009536572 -0.083911814 -0.04104899 0.06376599 -0.018064896 0.0022712394 -0.05485509
-0.04750815 0.04823515 0.08758769 -0.02371014 -0.0059949416 -0.048443124 -0.04909899 -0.0033763293
-0.06248614 -0.017127564 0.0015239725 -0.06345356 -0.042786643 -0.03783253 -0.0076126237 -0.02732365
0.047712874 -0.04166452 -0.0037704369 -0.004661479 0.0008000657 0.009656504 -0.05654637 -0.010257197
0.016459841 0.024216685 -0.023073182 0.029800896 -0.00797825 -0.0074386634 0.020565322 -0.037739344
-0.075898014 0.024798986 -0.051090095 0.026224198 0.035810806 -0.07346371 -0.013786245 6.0401188e-05
-0.04080122 -0.0090898555 0.04280687 -0.05558798 -0.056122664 -0.036253426 -0.021568283 0.01951563
-0.050186187 -0.018711671 0.015019186 0.03728172 -0.021656435 -0.05316433 0.0028634132 0.052200336
0.05931467 0.028831314 -0.03885597 -0.056369923 -0.034681674 0.03882919 0.010319439 -0.07521128
-0.03564427 0.023194145 -0.028194573 -0.007698953 -0.051075514 -0.040750995 0.038530838 0.04678789
-0.11830447 0.027694955 -0.12116447 -0.020689107 0.020109756 -0.04098825 -0.0016119136 -0.01307725
0.029672805 -0.100803494 -0.1325237 0.02021778 -0.07261926 0.04288206 -0.045225095 0.005136815
-0.022185458 0.010348722 -0.032619826 -0.020154862 -0.018227167 0.030514142 -0.048655283 0.03056491
-0.0137884775 -0.0648616 -0.02189088 -0.061324574 0.010899083 0.018480109 -0.045234136 0.025377622
-0.02598612 -0.095913686 0.023417955 0.045156185 0.021389412 0.011482031 -0.041404724 0.06031425
-0.0038948844 -0.059329547 -0.038828462 0.052620504 -0.033275757 -0.04775375 -0.08747317 -0.09155747
0.006437812 -0.003147576 -0.01928709 -0.008161822 -0.032067154 0.029001798 -0.051992185 -0.01760306
0.05257032 0.039063115 0.03192687 -0.05405294 -0.014620324 -0.05549497 0.008906687 -0.01905044
-0.02046941 -0.05324286 -0.008863708 -0.05972165 0.04127366 -0.0140053285 0.023948867 0.005850541
0.013383971 0.016479626 -0.012788548 -0.10357803 -0.020444518 -0.060300175 -0.10752042 -0.09193298
0.046599306 0.01192141 -0.06673298 -0.026826944 -0.0206125 0.012171853 -0.07686135 -0.06954784
00000000: 95e9 73bd c3fe bebd 3723 4abd eb02 633b
00000010: 4133 1b3d a288 f0bc 865e c23c fd41 61bd
00000020: 0ebc 61bd 0aa8 11bc b618 773d 8790 7ebc
00000030: e4f5 6c3c 2dab 92bd b003 023e 8879 c43c
00000040: c863 b03c 7f91 bcbc fbca f0bd 310e 023c
00000050: 1871 21bd 22ac 3fbd 50da 253c 60ee d9bb
00000060: 665a 993d 0166 3e3c 461c 3ebe 07e5 50bd
00000070: 3b92 e73c 7ff1 933d ae4f a5bd 480b 003c
00000080: 517b 3a3d 3141 9ebb 0c9d a9bd e833 56b9
00000090: f47a cebb 21f0 a6bb 6043 debc d329 1cbd
000000a0: d708 19bc bba2 86bd d6cd e9bd 807e 2abe
000000b0: 0359 23ba 8222 23bd 4551 083d 2824 b0bc
000000c0: 8020 15bc 193c 18bd 72cf 85bc 47ef 473b
000000d0: ce00 12bb fdf7 3cbd 0baa b7bc 9609 93bd
000000e0: 8c44 723d b32d 8cbd 4ed4 cbbd 7969 8ebd
000000f0: cc6c 25bd 03b0 d1bc a437 813d dbdb 9bbd
00000100: da90 f7bb 7447 05bb c30d 3dbd f87c afbc
00000110: 1587 0ebb 7af8 8cbd ef58 153d 18bf 62bd
00000120: e11b 743c 600b 8e3c f42c 7dbd 2469 843c
00000130: 90d0 dfbb 6e5d 263c c19b dc3c 3c2e cfbd
00000140: 9e66 79bc edab 65bd 5072 adbd e900 51bd
00000150: 4556 d93b c781 a9bc 47e5 1cbc 807a 3dbd
00000160: cae1 80bc dafe 79ba f5d9 abbd fc22 28bd
00000170: be97 823d d5fc 93bc 13d9 143b bbaf 60bd
00000180: e897 42bd 3892 453d 2d61 b33d c43b c2bc
00000190: 3771 c4bb 4c6c 46bd 061c 49bd 6845 5dbb
000001a0: 77f1 7fbd 1b4f 8cbc 08c0 c73a f1f3 81bd
000001b0: 0c41 2fbd 48f6 1abd 5173 f9bb d9d5 dfbc
000001c0: 936e 433d 6aa8 2abd 6f19 77bb 52bf 98bb
000001d0: 80bb 513a 5036 1e3c 2b9d 67bd cd0d 28bc
000001e0: cad6 863c 1262 c63c f803 bdbc 0221 f43c
000001f0: 35b7 02bc 08c0 f3bb 9b78 a83c 9294 1abd
00000200: 6b70 9bbd 3e27 cb3c d943 51bd 21d4 d63c
00000210: 5aae 123d 2474 96bd b4df 61bc 4857 7d38
00000220: 2e1f 27bd 9eed 14bc 4256 2f3d 39b0 63bd
00000230: e1e0 65bd 797e 14bd f8af b0bc 3edf 9f3c
00000240: 0890 4dbd 3849 99bc 0813 763c b8b4 183d
00000250: d668 b1bc d7c2 59bd 1aa8 3b3b 05d0 553d
00000260: f0f3 723d a62f ec3c 7027 1fbd 26e4 66bd
00000270: 5f0e 0ebd 5b0b 1f3d dd12 293c 5f08 9abd
00000280: baff 11bd a601 be3c 4ef8 e6bc 8047 fcbb
00000290: 8f34 51bd 84ea 26bd 83d2 1d3d a9a4 3f3d
000002a0: 9d49 f2bd 88e0 e23c 1425 f8bd 347c a9bc
000002b0: 37bd a43c 4ce3 27bd d846 d3ba f641 56bc
000002c0: 6214 f33c 1072 cebd 4bb4 07be c29f a53c
000002d0: 68b9 94bd 19a5 2f3d f33d 39bd ba52 a83b
000002e0: 47be b5bc b08d 293c 5e9c 05bd cf1b a5bc
000002f0: 2451 95bc cbf8 f93c c34a 47bd 4363 fa3c
00000300: 11e9 61bc 29d6 84bd 8154 b3bc 7a2f 7bbd
00000310: 1192 323c 9963 973c 6e47 39bd bbe4 cf3c
00000320: d8e0 d4bc 656e c4bd 03d7 bf3c b1f5 383d
00000330: d938 af3c 211f 3c3c 0098 29bd 130c 773d
00000340: 5141 7fbb 8a03 73bd 980a 1fbd 9988 573d
00000350: 294c 08bd 7099 43bd 2225 b3bd 7c82 bbbd
00000360: 48f4 d23b 9047 4ebb f6ff 9dbc 2ab9 05bc
00000370: d958 03bd 2e95 ed3c c2f5 54bd 4b34 90bc
00000380: fa53 573d a500 203d c0c5 023d 9e66 5dbd
00000390: 158a 6fbc b24e 63bd 5aed 113c ab0f 9cbc
000003a0: 77af a7bc 2f15 5abd 1639 11bc b09e 74bd
000003b0: 920e 293d 9b76 65bc 6a30 c43c e5b5 bf3b
000003c0: 7148 5b3c 4800 873c 0f87 51bc b820 d4bd
000003d0: 437b a7bc 51fd 76bd aa33 dcbd 5c47 bcbd
000003e0: eade 3e3d 0552 433c 4dab 88bd 2ec4 dbbc
000003f0: 8cdb a8bc 746c 473c 7c69 9dbd 196f 8ebd

in_layer.bias f4 [10]
0.01857806 0.017648611 -0.020400625 -0.08769659 0.092064194 -0.01833335 0.0793863 0.08171272
0.052546445 0.000114225964
00000000: 0431 983c d293 903c 361f a7bc 459a b3bd
00000010: 278c bc3d d22f 96bc 4995 a23d 0059 a73d
00000020: f13a 573d 998c ef38

out_layer.weight f4 [1, 10]
-0.113910556 -0.37733987 0.20291011 0.2545849 -0.21003503 0.16170701 -0.3566801 -0.1734383
-0.4649624 0.2100779
00000000: f049 e9bd b132 c1be abc7 4f3e f458 823e
00000010: 6c13 57be 8696 253e c69e b6be cf99 31be
00000020: 8d0f eebe a91e 573e
