output/231130_2hl_wd1e-4_bs256_ne1500_last/KF3/checkpoint_best_kcv_train_all5_correct_f03_CSL_hp_2hl_wd1e-4_bs256_ne1500_last_KFold_3_231130_2116_None.pt (torch, 229207 bytes, 5 tensors)

in_layer.weight f4 [60, 914]
0.0038054332 -0.027931789 -0.07309431 -0.0637541 0.024936937 -0.008745302 0.073525734 -0.00622052
0.019201623 -0.01821456 -0.001920541 0.044800762 -0.042071868 0.04404878 -0.012461048 -0.05461718
-0.1240048 0.011446523 0.0065897107 0.049153693 0.009546389 0.017315214 -0.06900846 0.038915474
-0.090582006 0.049268957 -0.030116677 0.003357843 0.008219445 0.063744076 -0.023448925 0.043484516
-0.016762692 -0.05129248 0.03210355 -0.04416897 -0.04370349 -0.051667236 -0.01866435 0.067023225
-0.06783389 -0.013539591 0.02450747 0.011915326 -0.114506476 -0.052901912 0.031829458 -0.024614098
0.064163215 0.035107836 -0.009644101 0.05461089 0.08269531 0.08846364 -0.036110453 -0.04304418
-0.103357226 0.044522323 0.009084962 0.021307044 -0.12408198 -0.043332264 -0.0016211628 -0.050980173
0.044451028 0.014247608 0.022688147 -0.040698644 -0.017233524 -0.00406345 -0.04422418 -0.004259576
0.04759774 0.07849594 0.06664767 0.07456978 -0.063159406 0.02387252 0.045126516 0.02407016
-0.07374976 -0.03465994 0.06795559 -0.0059118574 0.0008139324 -0.066254966 -0.016888773 0.021921923
0.02721426 0.045806736 -0.012605524 0.14696272 -0.06349869 0.07893159 -0.08066228 -0.026223775
0.081232466 0.037885953 0.023705458 -0.012673763 -0.06599704 -0.08959458 -0.011514224 0.02447455
0.006184395 -0.0063935113 0.009822016 0.014490346 -0.09289782 0.022584576 0.027808508 -0.08067563
0.029599536 0.08230607 -0.036102187 0.07224429 0.06326442 0.042438217 -0.003072587 -0.020679155
0.0060582543 -0.0023587886 -0.10521192 -0.024328483 -0.029918233 0.0072221304 0.037746016 -0.014197224
0.033893526 -0.014297268 0.0370914 -0.03006866 0.01241391 0.047264025 0.033489805 -0.059660956
-0.07944937 -0.040807974 0.030164087 -0.079453014 -0.060834706 0.04620652 0.070471846 -0.04997664
-0.06963833 -0.021565724 -0.0010715434 -0.0554175 0.0412234 0.064960666 -0.11468458 0.058147766
0.017262284 0.08641878 0.044000063 -0.073344305 0.09017588 0.073137596 -0.048463766 -0.03229506
-0.0060050394 -0.031730883 -0.0033944375 0.010987636 0.016396895 0.02805446 0.027975319 -0.041809183
0.009966339 0.026829148 -0.06254183 0.07319028 0.02820301 0.023666492 0.057214312 -0.008436945
0.019762496 0.0792656 0.004512319 -0.016791124 0.0010591033 -0.03929283 0.00013397548 0.040597793
0.01893775 -0.0002748927 0.015339526 0.0004829843 -0.0008100272 0.008934299 0.029462729 -0.030606756
0.010759194 0.013087188 -0.012053248 -0.008022646 -0.0028783558 0.0071136765 0.016253848 0.011888901
-0.038770024 -0.03424821 -0.004259712 0.035817664 0.018832786 -0.0046826983 0.015707737 -0.0019555176
-0.008133504 -0.02000231 -0.027493674 -0.0362729 -0.023645533 -0.010031107 0.0073836376 -0.034879845
-0.011081326 -0.007668581 -0.024750255 -0.026284222 0.059999056 -0.06109756 -0.11687944 0.114559114
-0.031915203 0.0039499546 0.025813786 -0.17484991 -0.022466902 0.010361478 0.055844486 0.01715491
0.046169914 0.070258304 0.0002398752 -0.0059072957 -0.001452923 -0.0041187354 0.027650712 0.0047215167
-0.002707425 0.0001247375 -0.007490893 -0.0021443933 -0.0017536735 -0.0022290323 -0.002924304 -0.004814348
-0.003966008 0.0002234551 0.00032375538 -0.011103904 -0.014087623 -0.00328794 -0.04101065 -0.00017781986
00000000: 9364 793b 35d1 e4bc 78b2 95bd 8291 82bd
00000010: 8c48 cc3c 7548 0fbc a994 963d 81d5 cbbb
00000020: b94c 9d3c b336 95bc aaba fbba 0181 373d
00000030: 8d53 2cbd 7e6c 343d 6c29 4cbc 44b6 5fbd
00000040: 3bf6 fdbd 328a 3b3c 80ee d73b 6255 493d
00000050: 7568 1c3c a3d8 8d3c 4f54 8dbd d565 1f3d
00000060: 0f83 b9bd 3fce 493d 40b7 f6bc 420f 5c3b
00000070: daaa 063c 418c 823d f617 c0bc d21c 323d
00000080: ea51 89bc 1018 52bd 037f 033d 86ea 34bd
00000090: 6e02 33bd 06a1 53bd fbe5 98bc 7943 893d
000000a0: 7fec 8abd 29d5 5dbc e4c3 c83c 8038 433c
000000b0: 5f82 eabd adaf 58bd 9b5f 023d 81a3 c9bc
000000c0: 0168 833d 3ccd 0f3d 4b02 1ebc abaf 5f3d
000000d0: 295c a93d 6d2c b53d 8ee8 13bd 184f 30bd
000000e0: f4ac d3bd 0a5d 363d 18d9 143c 1c8c ae3c
000000f0: b11e febd 2c7d 31bd 327d d4ba 96d0 50bd
00000100: 4812 363d cd6e 693c 7edc b93c 9fb3 26bd
00000110: 522d 8dbc b026 85bb 6a24 35bd ea93 8bbb
00000120: d9f5 423d 7bc2 a03d 937e 883d 0ab8 983d
00000130: b859 81bd 4e90 c33c 95d6 383d c92e c53c
00000140: 1d0a 97bd 95f7 0dbd 4d2c 8b3d 41b8 c1bb
00000150: 145e 553a afb0 87bd 535a 8abc 9b95 b33c
00000160: 71f0 de3c d89f 3b3d 6687 4ebc 657d 163e
00000170: 9a0b 82bd e3a6 a13d 4432 a5bd 3ed3 d6bc
00000180: 355d a63d 4d2e 1b3d f331 c23c 9da5 4fbc
00000190: 7529 87bd 5d7d b7bd 28a6 3cbc da7e c83c
000001a0: 77a6 ca3b a980 d1bb 85ec 203c eb68 6d3c
000001b0: 3641 bebd 4a03 b93c abce e33c 4439 a5bd
000001c0: ba7a f23c 1690 a83d e3df 13bd d0f4 933d
000001d0: c790 813d b2d3 2d3d 755d 49bb 5567 a9bc
000001e0: 5284 c63b e895 1abb 5979 d7bd 874c c7bc
000001f0: 1517 f5bc 9fa7 ec3b 919b 1a3d 799b 68bc
00000200: f0d3 0a3d 173f 6abc 27ed 173d 8d52 f6bc
00000210: b663 4b3c ec97 413d 9b2c 093d 0c5f 74bd
00000220: 5ab6 a2bd 4326 27bd ad1a f73c 43b8 a2bd
00000230: d02d 79bd 0c43 3d3d 8b53 903d 4eb4 4cbd
00000240: 8a9e 8ebd 9aaa b0bc 0873 8cba 76fd 62bd
00000250: ded9 283d 190a 853d c0df eabd 5a2c 6e3d
00000260: a269 8d3c 54fc b03d 6939 343d 8a35 96bd
00000270: 22ae b83d 2ac9 953d f181 46bd d347 04bd
00000280: ecc5 c4bb 3ef8 01bd 3675 5ebb 7c05 343c
00000290: c852 863c 78d2 e53c 7f2c e53c 1b40 2bbd
000002a0: db49 233c cdc8 db3c ee15 80bd c9e4 953d
000002b0: 000a e73c 3be0 c13c 8e59 6a3d 1d3b 0abc
000002c0: f5e4 a13c 0156 a23d 13dc 933b 8a8d 89bc
000002d0: 9cd1 8a3a 85f1 20bd c57b 0c39 df49 263d
000002e0: 5723 9b3c 791f 90b9 a352 7b3c 0e39 fd39
000002f0: 0158 54ba 2b61 123c d25b f13c 05bb fabc
00000300: 5547 303c a56b 563c fc7a 45bc 6b71 03bc
00000310: cca2 3cbb d819 e93b ca26 853c aac9 423c
00000320: 51cd 1ebd da47 0cbd 0e95 8bbb 8bb5 123d
00000330: 3747 9a3c 5271 99bb 83ad 803c 2428 00bb
00000340: 6342 05bc e2db a3bc 6a3a e1bc e492 14bd
00000350: 47b4 c1bc 8359 24bc 71f2 f13b 2bde 0ebd
00000360: 738e 35bc b848 fbbb 0cc1 cabc 0252 d7bc
00000370: 92c1 753d 6f41 7abd 7d5e efbd f89d ea3d
00000380: 84b9 02bd 9f6e 813b 6f77 d33c db0b 33be
00000390: 820c b8bc 30c3 293c 30bd 643d 7488 8c3c
000003a0: aa1c 3d3d 96e3 8f3d 0287 7b39 fd91 c1bb
000003b0: 0270 beba 75f6 86bb bf83 e23c f4b6 9a3b
000003c0: 0e6f 31bb f8cb 0239 2a76 f5bb f388 0cbb
000003d0: 85db e5ba f514 12bb aea5 3fbb aec1 9dbb
000003e0: 49f5 81bb 464f 6a39 b6bd a939 26ed 35bc
000003f0: c6cf 66bc 7b7a 57bb c9fa 27bd 2875 3ab9

in_layer.bias f4 [60]
-7.0223876e-05 -8.971564e-05 0.0009147809 -0.0001542145 -0.0019733878 -0.0015187169 -0.00043563847 -3.5754347e-06
0.0004499192 -0.00016172038 -0.0004967615 0.00042607402 0.00088784145 -0.0015444143 0.0008779079 1.8859727e-38
0.001231862 0.00093130564 -4.6736196e-38 -0.00074643805 0.0003580088 0.00091130944 -0.0003653757 0.0007018423
-0.0012598002 -0.000106300606 0.0005187778 9.3501454e-05 -0.0005755466 0.00024669408 0.00012265817 -5.117561e-38
-0.00033443177 0.000157439 -0.00055420963 0.00032988115 0.00075634813 -0.0002232466 0.0017107462 -0.00021775167
0.00081993797 -0.0002209774 8.66639e-05 0.00015570184 -2.4859e-38 -0.0007414337 0.0001592169 0.0010095017
-0.000343178 0.00071734603 -3.5343365e-38 -0.0015378773 -0.0009940815 0.00010293458 0.0015949702 0.00062521826
0.0010459744 -0.0003056114 0.00049486925 -0.00059421087
00000000: 2845 93b8 b825 bcb8 e8cd 6f3a a4b4 21b9
00000010: f453 01bb af0f c7ba 6866 e4b9 80f1 6fb6
00000020: 22e3 eb39 7c93 29b9 1a39 02ba b062 df39
00000030: 08be 683a f26d caba 6723 663a 3f5d cd00
00000040: 6e76 a13a dd22 743a c074 7e81 9cac 43ba
00000050: 21b3 bb39 f1e4 6e3a e58f bfb9 d7fb 373a
00000060: e11f a5ba b4ed deb8 97fe 073a 3616 c438
00000070: 47e0 16ba b856 8139 cd9d 0039 3250 8b81
00000080: ac56 afb9 3616 2539 6148 11ba e6f3 ac39
00000090: aa45 463a 4e17 6ab9 1e3b e03a 4554 64b9
000000a0: 1bf1 563a 2bb6 67b9 54bf b538 e543 2339
000000b0: 6458 0781 c65c 42ba 76f3 2639 4251 843a
000000c0: 92ec b3b9 470c 3c3a 766d 4081 9992 c9ba
000000d0: d74b 82ba 95de d738 520e d13a b0e5 233a
000000e0: 1419 893a 783a a0b9 1dba 013a d1c4 1bba

hidden_layer.weight f4 [30, 60]
0.09716922 -0.06567546 0.080488436 0.02513402 -0.057739604 -0.12933463 0.00034483642 0.006377566
-0.03707385 0.023911031 -0.12516542 0.10164642 0.0980516 -0.0970256 0.08418682 -0.00011010688
0.04245436 0.08668525 -2.3578385e-38 -0.06564583 -0.018082617 0.059443213 -0.06520553 0.12544055
-0.06940161 -0.050490446 -0.054717977 -0.08008614 -0.14163661 0.09075331 0.026109995 -1.9264866e-38
-0.06283801 0.05857262 -0.087920964 0.06728071 0.061594117 0.0054142 0.067031205 0.055724602
-0.10600335 0.03502608 0.107450314 0.15431808 -4.3762375e-05 -0.17302506 0.044692773 0.07944148
-0.07200475 -0.007899801 7.746874e-39 -0.06808393 -0.11534511 -0.024976766 0.12273719 0.04605132
-0.008798434 0.11128564 -0.058348965 -0.023666592 -0.057396926 0.079550415 -0.031227624 0.009516769
0.10309387 0.012913715 0.08259997 0.1583565 -0.013017786 -0.0025356053 0.0041772523 0.0018599054
-0.059362687 0.058962714 0.15485416 0.00010688626 -0.06859407 0.043832827 2.475423e-38 0.04468208
-0.036361516 0.007930837 -0.04040727 0.003693504 0.08322068 -0.003659708 0.14786953 0.043986723
-0.005879002 0.0457041 -0.032076277 1.3691761e-38 -0.03766996 -0.064477354 0.062870726 -0.12171714
-0.06287505 -0.032859083 0.01811812 -0.07832378 0.07394565 -0.12315244 0.05114 0.01798381
0.00011361193 0.12624043 0.092421494 0.0031928113 0.18884742 -0.14997181 2.3733523e-38 0.09095932
0.024983345 -0.038165808 -0.013276887 0.057673026 -0.060570464 -0.11044528 -0.09726313 0.05277767
-0.0314406 0.07815498 -0.054249704 -0.020292336 0.11070377 0.04001524 -0.03616842 0.047129765
-0.18895508 -0.15430567 0.07308052 0.043539766 -0.052457385 0.04457073 -0.04136721 9.1893315e-05
-0.033556342 0.121475704 2.0972448e-38 0.019611873 -0.024615368 -0.016731296 -0.066063866 0.14005564
-0.022224775 0.0032674402 0.06062335 0.06082625 0.13247536 0.056182023 0.05313649 1.244653e-38
0.07535769 -0.09575064 0.038207833 -0.138831 -0.06315202 -0.07257593 -0.024911202 -0.05114283
0.051654544 0.05229728 -0.104281574 0.0008843471 5.526048e-07 0.0048502404 0.054311566 0.011761604
0.047464993 -0.10949371 -2.5891052e-38 0.04319083 0.07165805 -0.02195345 0.011771406 -0.13782892
-0.06882885 -0.02775195 0.15189612 0.057223495 0.09687703 -0.033190764 0.021690058 0.08177898
-0.013605704 -0.044531688 -0.015341075 -0.0054113097 -0.014788388 0.07012381 -0.027508574 0.082856804
0.07371033 -0.053119183 0.0673283 -1.7563041e-05 0.06625768 0.082323655 -2.4484967e-38 -0.04491241
0.050415207 0.08484415 0.020807398 0.116300695 -0.04263938 -0.01443031 0.028272942 -0.05134276
0.022239383 0.043903567 -0.011509699 -1.2035434e-38 -0.03172322 0.0051783244 0.000333493 0.061952777
0.08107373 -0.0040036715 0.13958037 0.0098474 -0.028622504 0.07702654 0.06193261 0.08901964
-4.2759634e-06 -0.06291723 0.035704676 0.0774796 -0.048533835 0.06814525 -6.4999807e-38 -0.032844927
-0.029173633 0.044884454 0.13629997 0.03895677 0.031810418 0.08174324 0.0957332 0.018196989
0.05360668 -0.00437426 0.20518969 -0.029510072 0.15443455 -0.07333547 -0.034795057 0.096127845
-0.11951304 -0.13661486 -0.04330457 -0.003580523 -0.11129643 -0.038771246 -0.10378549 5.6332086e-05
00000000: a800 c73d db80 86bd 1fd7 a43d dce5 cd3c
00000010: 5d80 6cbd 4c70 04be 29cb b439 e7fa d03b
00000020: c0da 17bd 11e1 c33c 5d2b 00be 002c d03d
00000030: 47cf c83d 5cb5 c6bd 246a ac3d 2ee9 e6b8
00000040: 9fe4 2d3d 0988 b13d 795f 0081 5271 86bd
00000050: ff21 94bc ba7a 733d 7a8a 85bd 7d73 003e
00000060: 6e22 8ebd 12cf 4ebd f51f 60bd 3404 a4bd
00000070: 3009 11be dfdc b93d a1e4 d53c 9cc6 d180
00000080: 37b1 80bd d8e9 6f3d e80f b4bd 78ca 893d
00000090: 1d4a 7c3d 9a69 b13b a847 893d 7b3f 643d
000000a0: 4918 d9bd 8277 0f3d e90e dc3d 8f05 1e3e
000000b0: 7e8d 37b8 7b2d 31be c50f 373d 37b2 a23d
000000c0: 3a77 93bd 2b6e 01bc 225b 5400 966f 8bbd
000000d0: 0f3a ecbd 139c ccbc a35d fb3d 4fa0 3c3d
000000e0: 4f27 10bc bae9 e33d 53ff 6ebd 71e0 c1bc
000000f0: 0a19 6bbd 54eb a23d 13d1 ffbc 39ec 1b3c
00000100: e122 d33d 0c94 533c 2c2a a93d 3528 223e
00000110: 8d48 55bc 662c 26bb 55e1 883b 12c8 f33a
00000120: 4a26 73bd e382 713d 1792 1e3e 2028 e038
00000130: 0c7b 8cbd 0d8a 333d 5cc6 0601 8f04 373d
00000140: d0ef 14bd 57f0 013c 1882 25bd b70e 723b
00000150: 9b6f aa3d b6d7 6fbb 1c6b 173e 6c2b 343d
00000160: a5a4 c0bb 3934 3b3d 6a62 03bd 0f17 9500
00000170: d14b 1abd b40c 84bd 5ec2 803d d646 f9bd
00000180: a2c4 80bd 3f97 06bd 746c 943c 3868 a0bd
00000190: d170 973d 5937 fcbd 2d78 513d c852 933c
000001a0: f142 ee38 2c45 013e 7b47 bd3d 7c3e 513b
000001b0: 3861 413e 3692 19be b437 0101 e148 ba3d
000001c0: dfa9 cc3c c053 1cbd 4d87 59bc 8d3a 6c3d
000001d0: bc18 78bd 2331 e2bd e431 c7bd 662d 583d
000001e0: dcc7 00bd b80f a03d f034 5ebd 1d3c a6bc
000001f0: a8b8 e23d 05e7 233d 5625 14bd 240b 413d
00000200: 717d 41be 4e02 1ebe 3dab 953d c156 323d
00000210: 8edd 56bd cc8f 363d aa70 29bd d9b6 c038
00000220: 6072 09bd 41c8 f83d a75e e400 14a9 a03c
00000230: 2ba6 c9bc 1210 89bc 7e4c 87bd bf6a 0f3e
00000240: bb10 b6bc 8d22 563b 3150 783d f224 793d
00000250: 9fa7 073e 1f1f 663d a6a5 593d dd87 8700
00000260: 2255 9a3d e918 c4bd d17f 1c3d b729 0ebe
00000270: d955 81bd b0a2 94bd 9412 ccbc 257b 51bd
00000280: b793 533d ac35 563d 9491 d5bd 87d3 673a
00000290: b656 1435 c4ee 9e3b ce75 5e3d beb3 403c
000002a0: a76a 423d 3d3e e0bd dcf6 0c81 dee8 303d
000002b0: 75c1 923d b9d7 b3bc dbdc 403c 0623 0dbe
000002c0: 24f6 8cbd 0f58 e3bc a88a 1b3e 2f63 6a3d
000002d0: 7767 c63d 0af3 07bd 59af b13c bd7b a73d
000002e0: 75ea 5ebc dc66 36bd 2259 7bbc 5b51 b1bb
000002f0: ff4a 72bc 129d 8f3d a959 e1bc d4b0 a93d
00000300: 71f5 963d 8093 59bd 6be3 893d 5854 93b7
00000310: 1bb2 873d 4e99 a83d 104f 0581 13f6 37bd
00000320: 2d80 4e3d c5c2 ad3d 4774 aa3c 0f2f ee3d
00000330: a1a6 2ebd 1b6d 6cbc a89c e73c c94c 52bd
00000340: 5e2f b63c 3ad4 333d 2d93 3cbc e50d 8380
00000350: 35f0 01bd efae a93b acd8 ae39 32c2 7d3d
00000360: fc09 a63d 3b31 83bb 28ee 0e3e fd56 213c
00000370: be79 eabc 17c0 9d3d 0cad 7d3d ee4f b63d
00000380: 3f7a 8fb6 c0da 80bd 113f 123d a0ad 9e3d
00000390: 6acb 46bd bd8f 8b3d 41f2 b081 6788 06bd
000003a0: 8bfd eebc c3d8 373d 3892 0b3e 2291 1f3d
000003b0: a44b 023d 0069 a73d c50f c43d da11 953c
000003c0: ae92 5b3d f455 8fbb 3f1d 523e 1bbf f1bc
000003d0: 1724 1e3e e830 96bd 4385 0ebd adde c43d
000003e0: 41c3 f4bd c4e4 0bbe 2260 31bd 35a7 6abb
000003f0: 62ef e3bd 99ce 1ebd 7d8d d4bd 1e46 6c38

hidden_layer.bias f4 [30]
0.009196931 0.014366525 0.015212292 0.032351736 -0.011577455 -0.016302207 0.00416205 0.017988972
-0.005756237 0.023306921 0.016892023 0.006508049 0.015902443 0.01933577 0.013503231 0.004830274
-0.010992092 -0.011359858 0.0031558303 0.015760599 -0.014985986 0.028402487 -1.4490785e-38 -0.009941149
-0.013555528 -9.489244e-34 0.0112337 0.009137399 0.0027395622 0.01770098
00000000: b9ae 163c 9361 6b3c fa3c 793c 4183 043d
00000010: 5eaf 3dbc 358c 85bc ce61 883b 9c5d 933c
00000020: d19e bcbb 28ee be3c 2461 8a3c 7941 d53b
00000030: d745 823c 0c66 9e3c a83c 5d3c 4647 9e3b
00000040: 2d18 34bc b31e 3abc 0cd2 4e3b 5f1c 813c
00000050: c887 75bc 55ac e83c 6aca 9d80 33e0 22bc
00000060: 0118 5ebc c8aa 9d88 8e0d 383c 07b5 153c
00000070: 3a8a 333b a501 913c

out_layer.weight f4 [1, 30]
-0.45603433 0.46448424 0.4863849 -0.30169067 0.605134 0.5103825 -0.7103782 0.42965165
0.60274786 0.58004606 -0.18458764 0.59008116 0.62246794 0.607596 -0.15225945 0.5581964
0.43088946 0.56897604 -0.24942434 0.5238511 0.5901998 0.5489315 0.00016293269 -0.45433378
-0.53314424 -3.3314718e-05 -0.1300752 0.6014194 0.64376444 0.5300977
00000000: 557d e9be e1d0 ed3e 7107 f93e 3377 9abe
00000010: 10ea 1a3f 6da8 023f 59db 35bf 4dfb db3e
00000020: af4d 1a3f e67d 143f 8b04 3dbe 8f0f 173f
00000030: 0f5a 1f3f 698b 1b3f e7e9 1bbe f6e5 0e3f
00000040: 8b9d dc3e 6aa8 113f 1869 7fbe 1b1b 063f
00000050: 5617 173f c686 0c3f e9d8 2a39 709e e8be
00000060: 247c 08bf 68bb 0bb8 6f32 05be 9ff6 193f
00000070: bfcd 243f 7cb4 073f
