output/231103_complete_bnorm/CSL_complete_burn_60nh_bnorm_all_KFold_2_231103_0532_None/checkpoint_best_kcv_train_all5_correct_f02_CSL_complete_burn_60nh_bnorm_all_KFold_2_231103_0532_None.pt (torch, 223627 bytes, 7 tensors)

in_layer.weight f4 [60, 914]
000000 33 0e 0d 3b dd 90 58 3b da 37 8e b6 1e 8f 62 3b
       0.0021523356 0.003304533 -4.2384318e-06 0.0034570168
000010 ea 63 d2 3a d0 30 9e 3b 9e 44 37 3b 7b b8 69 3b
       0.0016051505 0.0048275962 0.0027964483 0.0035662937
000020 3f 4f 23 3b 76 9c 8a bc d1 71 57 bb b2 84 00 bb
       0.002491906 -0.01692031 -0.0032874236 -0.0019610343
000030 6e 03 9a ba 20 70 f9 bb 55 fb 70 3b ae c7 e4 39
       -0.001175029 -0.0076122433 0.00367709 0.00043636322
000040 48 dd 53 3b 08 a2 38 bb a0 c5 f8 bb 25 f4 5a 3c
       0.0032327939 -0.002817275 -0.007591918 0.013363873
000050 25 36 4e bc 68 04 30 3b d3 2b 7a bb c5 d9 23 3c
       -0.012586151 0.0026858095 -0.0038173094 0.010000651
000060 d7 d9 02 3c 19 32 16 bc a5 fe 11 3b 26 da 36 3c
       0.007986507 -0.009167218 0.0022277024 0.011160409
000070 32 10 01 3b 28 74 13 bc 56 85 ff bb 92 71 2e bc
       0.001969349 -0.008999862 -0.0077978773 -0.010647194
000080 9d f6 39 3b 82 f4 e8 3a e3 78 0f 3c 1e 45 7c ba
       0.0028375753 0.0017773064 0.008756849 -0.00096233364
000090 10 ef 6b 3c d6 85 9c bb 31 14 78 bb 0a d7 57 bb
       0.014400259 -0.0047766967 -0.0037853832 -0.003293457
0000a0 70 c4 81 bc fc dd 45 bc 6b e5 15 3c 9e f2 27 3c
       -0.015840739 -0.012076851 0.009148936 0.010250716
0000b0 ae e3 e8 3b 1b c5 ea 39 9d 8a b0 3b ab d5 1d 3c
       0.0071072197 0.00044778813 0.0053876177 0.009633462
0000c0 76 d4 16 bb c3 af ec bb 6e 23 0b bc c8 6b 47 3a
       -0.002301482 -0.007223101 -0.008492334 0.0007607308
0000d0 0a ee 2c bc 90 10 a1 3a dd 10 b4 3b 13 2c 96 3a
       -0.0105548 0.0012288261 0.0054951743 0.0011457227
0000e0 91 2e ca 3b 43 f8 db 3b 3e 06 d2 bb 31 84 aa 3b
       0.006170102 0.0067129447 -0.0064094355 0.0052037467
0000f0 b3 08 9a 3a 48 54 1e bc fe b4 ad b6 02 c4 3b 3c
       0.001175186 -0.009663649 -5.176872e-06 0.011460306
000100 99 fc 8b 3c e8 82 2b ba a4 80 ab 3b 50 44 aa 3b
       0.017088221 -0.0006542639 0.005233841 0.0051961318
000110 c9 f9 02 3a cb d5 a4 3b 9c 8f 25 bc bd 71 0c 3c
       0.00049963273 0.005030369 -0.01010504 0.008572039
000120 77 5a f0 bb c2 a5 e8 b9 c8 24 3f bb d2 24 94 bb
       -0.007335003 -0.00044373987 -0.002916621 -0.004520991
000130 52 52 26 bb af 77 d4 bb 43 f0 cb ba 50 67 b8 bb
       -0.0025378657 -0.006483994 -0.0015559274 -0.00562755
000140 6a 61 c2 3b af c5 f7 ba 42 3f b9 bb e8 25 62 3c
       0.005932023 -0.0018903519 -0.005653293 0.013802983
000150 d9 c0 c0 3b e5 2f 27 bc 0c ad 5c 3c 98 b1 14 3c
       0.005882364 -0.01020429 0.013468992 0.009075545
000160 56 8e 22 bb 35 30 15 bc f6 a2 14 bc 98 16 75 3a
       -0.0024804077 -0.009105732 -0.009072056 0.0009349375
000170 c8 aa 26 ba 24 c3 c7 3a 3c e8 64 3b 3c 23 b1 3b
       -0.0006357846 0.0015240652 0.0034928462 0.0054058116
000180 62 8b 27 bc b7 29 56 bb 4e 84 2d bb f0 34 91 bb
       -0.010226103 -0.0032678673 -0.0026476565 -0.0044313595
000190 eb ce 3b bc 7c 79 aa b8 f4 10 ea bb 4e 67 17 3c
       -0.011462907 -8.12886e-05 -0.0071431343 0.009240938
0001a0 0a ca 84 3c f8 3a 34 3c fa 98 95 3c 92 47 ae 3b
       0.016209621 0.011000387 0.018261421 0.0053185904
0001b0 a0 05 b7 3a ee 5f 25 bb 4c f3 26 ba 4f 46 29 bc
       0.0013963468 -0.002523418 -0.00063686515 -0.010331704
0001c0 f2 fd c3 bb 82 35 c3 bc f5 8e 13 bb 40 e0 94 bb
       -0.0059812004 -0.023829225 -0.002251563 -0.0045433342
0001d0 48 c1 49 3b ed 53 ce 3a 5d db 36 bb 3c 43 22 3c
       0.003078537 0.0015741565 -0.0027901747 0.009903725
0001e0 71 fe 73 ba 13 4e 80 ba 3f 5a 8e bc 47 2b ba 3c
       -0.0009307629 -0.0009788893 -0.017377017 0.022725714
0001f0 e3 5c 50 3c a1 99 0b bc c2 e6 7d 39 42 7c 0e 3c
       0.012717458 -0.008520515 0.00024213924 0.008696618
000200 01 6a 2f bc ab b1 31 bc f4 18 33 bc de 7e 18 3c
       -0.010706426 -0.010845582 -0.010931242 0.009307591
000210 d1 4d 1a bc 7c 65 55 bc d3 e4 b9 3b 88 5d c4 3b
       -0.009417967 -0.013024684 0.00567303 0.005992595
000220 f8 da c9 3b 6b 64 2a bb df c9 61 3c 82 22 eb 3a
       0.0061601363 -0.0025999795 0.01378104 0.0017939361
000230 74 1a 7c bc f5 14 c5 bb 97 fb 21 3c f6 56 2c 3c
       -0.015387166 -0.006014461 0.009886644 0.01051878
000240 8d 8e 48 3c 4e 46 07 3c 87 a4 21 ba 68 e1 82 3c
       0.012241018 0.008256508 -0.0006166179 0.015976623
000250 bf ad e1 3a 46 3d fa bb a6 59 b9 bb 6a 2b 1c bb
       0.0017217918 -0.007636699 -0.005656439 -0.0023829588
000260 cc bc 86 bc ac 61 7f ba 33 fe c1 bb 7c 3f ef bb
       -0.016447447 -0.0009742032 -0.0059201955 -0.007301269
000270 eb f7 60 ba ef 2d ac 3a 8d cb 09 3c 64 20 00 3c
       -0.00085818645 0.0013136248 0.008410347 0.0078202225
000280 1d b2 6a bc 4b 53 c8 3a 98 0b ab bb 51 b1 e7 ba
       -0.014324692 0.0015283612 -0.005219888 -0.0017676746
000290 8f 73 9b 3c f5 d3 1a 3c 26 32 65 ba 1d bc d7 3b
       0.018976001 0.009449949 -0.00087431294 0.006583704
0002a0 17 c4 05 bc 8f 0e 11 bc 74 83 13 bc 64 ab af 39
       -0.008164427 -0.008853569 -0.009003509 0.00033506297
0002b0 c7 45 16 3c fc 98 94 b9 79 be 22 3c 9a 49 36 3b
       0.00917191 -0.00028342742 0.0099331075 0.0027814866
0002c0 a0 20 f1 ba 6d 6b d2 3b e7 20 62 3c b3 55 35 3c
       -0.0018396564 0.0064214976 0.01380179 0.011067796
0002d0 02 2b 54 bb f7 d5 05 bb d4 48 2c 3b 6b 30 32 3b
       -0.0032374267 -0.0020421722 0.0026288526 0.0027189504
0002e0 9b fb 97 bb 2c f1 5f bb 12 83 e9 ba 76 f5 39 3b
       -0.004638148 -0.003417085 -0.0017815551 0.0028375066
0002f0 3e 13 a4 3b 9c 69 e1 3a eb 83 a3 3a d4 9e cb bb
       0.0050071767 0.0017197612 0.0012475228 -0.006214002
000300 3b 81 3f 3b 41 ac b3 3a 67 f6 e2 b6 ca b8 1d bb
       0.0029221314 0.0013707952 -6.76401e-06 -0.0024066442
000310 09 a4 f4 3a db cc 3b bb 34 71 8f 3a 3c 8d 67 3b
       0.0018664609 -0.002865604 0.0010943771 0.0035331985
000320 b0 64 82 bb 0c d7 88 ba 60 cb 41 b7 b0 46 0c 3b
       -0.003979288 -0.0010440066 -1.1551048e-05 0.0021404438
000330 72 f5 1c 37 81 d1 e5 b9 27 81 b0 3a 3b 07 ae 39
       9.355472e-06 -0.00043834376 0.0013466225 0.00033193253
000340 99 6b fd b9 e9 cf 3d bb 00 d7 38 bb 7d 04 ce ba
       -0.00048336087 -0.0028963035 -0.0028204322 -0.001571789
000350 38 ce 17 bb 54 e8 2c bb 79 15 80 39 d3 64 c6 ba
       -0.0023163687 -0.0026383596 0.0002443006 -0.0015136249
000360 26 5f 56 ba 4a 64 ad ba ba 26 15 bb 3f 96 4d bb
       -0.00081776304 -0.0013228741 -0.0022758679 -0.0031370071
000370 b1 fc 0b bc b0 fc 0b 3c 88 94 3c bc c7 94 3c 3c
       -0.008544133 0.008544132 -0.011510022 0.011510081
000380 9b 5b ac 3b 53 72 ce 3a 19 45 c5 39 ac fd 32 bc
       0.0052599437 0.0015750624 0.0003762625 -0.010924738
000390 52 c6 3a bb 15 90 65 3a 9b 2e d2 3b 5c 76 b7 b8
       -0.0028499556 0.00087571266 0.006414247 -8.748166e-05
0003a0 51 13 fa b8 60 b1 e6 ba 4a 0f b9 38 86 72 92 39
       -0.00011924527 -0.0017600469 8.824335e-05 0.00027932617
0003b0 56 3d a0 38 31 3a 75 38 0d d6 69 bb f1 51 5f ba
       7.640819e-05 5.8466747e-05 -0.0035680563 -0.0008518985
0003c0 9c 85 78 38 72 c6 e0 b7 6d 8a 6e 39 f1 3a 98 b9
       5.925224e-05 -2.679529e-05 0.00022749016 -0.00029035614
0003d0 69 84 b8 b9 9b 42 ea 39 52 49 c5 b7 0b d5 b9 3a
       -0.00035193868 0.00044681583 -2.3518372e-05 0.0014177872
0003e0 7e 2b b2 37 f9 9d 7a 38 1a 0f b9 38 ca b0 d1 39
       2.1239506e-05 5.975177e-05 8.8243e-05 0.00039995305
0003f0 53 7a f6 3a 5c b9 a1 b9 cc c6 69 3b d5 23 da 37
       0.0018804766 -0.00030846416 0.003567147 2.600431e-05

in_layer.bias f4 [60]
000000 f0 c5 d6 32 e6 c5 6a 31 4c 23 94 34 c1 68 a1 94
       2.500289e-08 3.4163974e-09 2.759283e-07 -1.6298164e-26
000010 a0 7f 03 80 7a ce f4 32 27 41 ca b1 70 a9 2a 32
       -3.2129e-40 2.8499233e-08 -5.8863807e-09 9.933828e-09
000020 68 7b 83 32 a4 e4 ab 32 ac e7 3e 31 84 78 fa 32
       1.5306526e-08 2.0010994e-08 2.778033e-09 2.9158635e-08
000030 f0 fb 59 32 f8 98 fd 2b 70 c5 4d 34 47 79 9c b2
       1.2688346e-08 1.8019189e-12 1.916394e-07 -1.821594e-08
000040 b8 db 51 32 f1 b6 99 b2 f0 88 1b 33 4d a3 11 b2
       1.2215359e-08 -1.7894736e-08 3.6213294e-08 -8.477241e-09
000050 df 24 66 32 d4 08 46 b3 fa bd ef b0 56 9e f4 32
       1.33961455e-08 -4.6108497e-08 -1.7443533e-09 2.8477341e-08
000060 7c b7 d3 b2 88 b2 b8 2f a6 6c 88 b2 e0 db 02 af
       -2.4647072e-08 3.359626e-10 -1.5881891e-08 -1.1901546e-10
000070 2a 1a d9 b2 2a 27 b1 32 12 9f 0c b2 53 7c 8f b2
       -2.5274023e-08 2.0623322e-08 -8.185241e-09 -1.6703927e-08
000080 c2 6a 55 b2 b4 67 1d b2 38 20 9e 35 1c 41 d8 2f
       -1.2422506e-08 -9.162182e-09 1.1781294e-06 3.9336434e-10
000090 d2 03 58 b2 50 6a 8f b2 db 84 bc 31 bf 91 07 36
       -1.2573723e-08 -1.6695736e-08 5.486624e-09 2.0201403e-06
0000a0 8d d8 91 32 fa a6 11 31 80 8a 61 2f a4 36 a8 32
       1.6978698e-08 2.1195192e-09 2.0512836e-10 1.9582622e-08
0000b0 1a 02 a6 33 3f fa 12 31 90 5f a9 32 c6 0f ce b0
       7.7303596e-08 2.1388045e-09 1.9717646e-08 -1.4992956e-09
0000c0 40 e1 75 32 c0 12 f4 2e ba 4c 9e b2 02 65 d3 b1
       1.4312093e-08 1.1099166e-10 -1.8428512e-08 -6.1523915e-09
0000d0 8c 36 58 30 ac c9 61 b2 b8 52 5f 32 50 e4 55 b3
       7.865786e-10 -1.3142579e-08 1.29991164e-08 -4.9800576e-08
0000e0 72 7c e2 32 c6 26 a3 b1 a8 31 07 b0 1f 23 bd b1
       2.6366454e-08 -4.7483324e-09 -4.918328e-10 -5.5046168e-09

out_layer.weight f4 [1, 60]
000000 16 b6 31 be 47 19 1b bd 16 73 bc 3d ea 1a 6f 3c
       -0.17354617 -0.037865903 0.092016384 0.014593819
000010 b3 95 e5 33 2e db 1f be ff d9 03 be 39 33 0e be
       1.06908736e-07 -0.15610954 -0.12876128 -0.13886727
000020 5f d5 28 be 88 26 e6 3d 87 a3 10 bd 11 25 16 be
       -0.16487645 0.11237818 -0.0353122 -0.14662577
000030 9e 43 12 be ef 25 20 3b 38 c1 06 3e 05 ab ce 3d
       -0.14283606 0.0024436673 0.13159645 0.10091213
000040 ea a4 13 be 4c 65 b2 3d 26 42 e6 3d 23 9b 16 be
       -0.14418378 0.08710727 0.112430856 -0.14707617
000050 4d d0 25 be a9 aa 20 be 80 17 24 bd 7b df 01 3e
       -0.16192742 -0.15690102 -0.040061474 0.12682907
000060 ce 19 d0 3d 35 d9 cb 3d 29 c2 12 be 2e 13 19 be
       0.10161172 0.09953538 -0.14331879 -0.14948723
000070 cb 9a 25 be bd 12 24 be fc ab 0f be df 7a dc 3d
       -0.1617233 -0.16022773 -0.1403045 0.10765623
000080 dd 69 09 be 02 50 be 3d e9 8d 95 3d ec f4 b9 bc
       -0.1341929 0.09292604 0.07302458 -0.022699796
000090 98 eb 20 be 49 63 21 be 08 24 95 bd a8 65 aa bd
       -0.15714872 -0.1576053 -0.07282263 -0.08320171
0000a0 da 18 a9 3d fd 0f 23 bd 50 ee 23 be 09 c9 f3 bd
       0.08256693 -0.03981017 -0.16008878 -0.11903579
0000b0 26 29 35 bd a9 3d 34 bd 3d 6e 03 be b0 74 62 bd
       -0.044228695 -0.044004116 -0.12835021 -0.055287063
0000c0 c7 0b aa bd 30 27 26 bd 76 e2 36 bd dd 2e dd 3d
       -0.083030276 -0.040564716 -0.044649564 0.10799954
0000d0 b4 54 1f bd c2 ed fb 3d 52 cf cb 3d 26 3f 2a be
       -0.03889914 0.12301208 0.099516526 -0.16625652
0000e0 c1 fb 0d be f6 80 84 3d 43 bb 29 bd bb b4 0c be
       -0.13865568 0.0646991 -0.041438352 -0.13740818

bn1.weight f4 [60]
000000 94 6f 6f 3e 90 fc 2d 3e 09 c2 42 3e a2 ee 29 3e
       0.23382407 0.16990876 0.19019331 0.16594937
000010 40 b3 28 3e 12 57 5f 3e a9 ce 4c 3e 87 56 57 3e
       0.16474628 0.21810558 0.2000071 0.21029101
000020 4d dc 69 3e 79 49 58 3e 74 3b 2d 3e d5 56 56 3e
       0.22837944 0.21121778 0.16917211 0.20931561
000030 1b 17 59 3e 2c 4d 29 3e 7c 8f 5c 3e 71 7a 45 3e
       0.2120022 0.16533345 0.2153911 0.19284989
000040 76 87 54 3e 08 a9 45 3e 91 6f 59 3e 89 85 5d 3e
       0.20754799 0.19302762 0.21233965 0.21632971
000050 3c de 5d 3e ec 6c 64 3e e9 22 2e 3e b5 ca 57 3e
       0.21666807 0.22307175 0.17005505 0.2107342
000060 c8 61 42 3e 6b 64 46 3e 0c a7 63 3e 83 ea 57 3e
       0.18982613 0.19374244 0.22231692 0.21085553
000070 0c fd 63 3e 10 e4 68 3e a3 1e 56 3e 85 85 4a 3e
       0.22264498 0.22743249 0.20910124 0.19777496
000080 a9 fe 53 3e 16 96 3e 3e 18 59 34 3e c8 fc 29 3e
       0.20702614 0.1861194 0.17612112 0.16600335
000090 cc 74 5d 3e f4 b0 5f 3e fa 5e 3b 3e 32 e5 43 3e
       0.21626586 0.21844846 0.1829795 0.191304
0000a0 3a 47 38 3e 71 12 2e 3e a9 f1 60 3e e0 6e 47 3e
       0.17995921 0.16999222 0.21967186 0.19475889
0000b0 df 98 2e 3e 9b 04 2f 3e af 7a 4d 3e a2 1d 34 3e
       0.17050503 0.170916 0.20066331 0.17589429
0000c0 47 b3 44 3e c1 d2 2d 3e ed 0f 30 3e da ba 44 3e
       0.19209014 0.16974927 0.17193575 0.19211903
0000d0 ef 4d 2e 3e 53 40 56 3e dd d0 4b 3e 46 6d 6a 3e
       0.17021917 0.20922975 0.19903894 0.22893247
0000e0 aa 1f 56 3e e7 ed 31 3e ab 22 2f 3e b5 93 56 3e
       0.20910516 0.17375909 0.17103069 0.20954783

bn1.bias f4 [60]
000000 cc 4f f8 3c 58 21 1c 3c 33 18 bc bb 86 e1 2c b6
       0.030311488 0.009529434 -0.0057401895 -2.576127e-06
000010 85 71 04 80 47 e3 e9 3c 8b 9c 99 3c 7e 8d 74 3c
       -4.08065e-40 0.028550757 0.018751403 0.0149263125
000020 bc 75 97 3c c5 8e fc bb 2e e7 11 3c 99 ae c8 3c
       0.018488757 -0.007707449 0.008905215 0.024497317
000030 2f ae c2 3c 93 28 99 80 86 d1 d9 bb bb 8d 12 bc
       0.023764698 -1.4065386e-38 -0.0066472916 -0.008944924
000040 91 48 c0 3c b4 2f b4 bb b3 9d 05 bc 2c c6 9b 3c
       0.023472102 -0.0054988507 -0.008155274 0.019015394
000050 26 b7 ce 3c d1 f1 ee 3c d1 1b 24 3c c0 79 2f bc
       0.025233816 0.029168041 0.010016398 -0.01071018
000060 a2 88 24 bc f9 2c fa bb 70 c4 c0 3c f5 c8 cd 3c
       -0.010042341 -0.0076347557 0.023531169 0.025120238
000070 3e 87 ce 3c 2b 39 df 3c 1b 05 d2 3c 6c 75 17 bc
       0.025210973 0.02724894 0.0256372 -0.009244304
000080 ad 7c 88 3c d3 23 eb bb 0e de 93 bb 5a 7b bd 3b
       0.016661013 -0.0071759014 -0.004512555 0.005782527
000090 18 30 b9 3c 27 fc cb 3c 17 8b 8f 3c 7b fc a0 3c
       0.02260594 0.024900509 0.017522378 0.019651642
0000a0 a3 ce 96 bb 16 fc 22 3c 09 13 ec 3c 94 d3 8b 3c
       -0.0046022697 0.009947797 0.02881767 0.017068662
0000b0 1a 6c 33 3c b7 6f 33 3c bc 66 96 3c fe 46 5d 3c
       0.010951066 0.010951928 0.018359534 0.013505695
0000c0 6b 50 a0 3c 58 2d 25 3c 90 2b 36 3c d9 35 41 bc
       0.019569596 0.010081612 0.011118785 -0.011792623
0000d0 bb 56 20 3c 9a 98 14 bc d5 0e 08 bc c8 02 f2 3c
       0.009786303 -0.009069586 -0.0083043175 0.029542342
0000e0 81 72 a9 3c 7c d2 d8 bb d5 b3 28 3c 1c d8 95 3c
       0.020684483 -0.0066168886 0.010296782 0.018291526

bn1.running_mean f4 [60]
000000 47 3f d1 be 72 b6 87 bf 3e 32 2d 3e 64 35 ba 3e
       -0.4086859 -1.0602553 0.16913697 0.3636886
000010 b0 8d 27 2f a2 5d 98 be 89 1e 71 be cc c6 b0 be
       1.5238899e-10 -0.29758936 -0.23546804 -0.3452667
000020 4b 4e b7 be 32 ef 8f 3e 58 15 8f bf ae e9 ab be
       -0.3580192 0.2811218 -1.1178389 -0.3357672
000030 1f fd d3 be ee 1d 06 3b f1 72 d8 3e 18 1e e9 3e
       -0.41404054 0.0020464617 0.42275193 0.45530772
000040 e4 26 cf be 26 98 56 3e 32 64 88 3e 1d ff 96 be
       -0.4045936 0.20956478 0.26638943 -0.2949151
000050 f3 20 9a be fb a8 ba be b8 e5 8e bf 91 85 bc 3e
       -0.30103263 -0.36457047 -1.1163855 0.36820653
000060 df 3d ee 3d c0 34 98 3d 8c 49 ca be 94 b4 bb be
       0.11632895 0.07431936 -0.39509237 -0.36661208
000070 ab e5 d2 be 8e 2e aa be 69 ea 6c be 7f e2 6f 3e
       -0.41190848 -0.33238643 -0.23136295 0.23426245
000080 1c 23 2f be ed 48 e0 3d 7a 19 c6 3d fb 0e d7 bf
       -0.17103237 0.109514095 0.09672828 -1.6801447
000090 2e 68 ff be 6b b9 ac be dc e7 46 bf 42 66 47 bf
       -0.4988417 -0.33735213 -0.7769754 -0.7789041
0000a0 1a 1e 90 3e 68 48 8f bf 55 12 c2 be c4 1a ff be
       0.28147966 -1.1193972 -0.3790461 -0.49825108
0000b0 c8 96 98 bf d3 b7 8b bf 3b 76 c4 be 40 67 6e bf
       -1.1921015 -1.0915474 -0.38371453 -0.93126297
0000c0 a0 ee 41 bf 0b eb 92 bf 16 e8 81 bf db 8d 3e 3e
       -0.7575474 -1.147798 -1.0148952 0.18608801
0000d0 31 46 85 bf f6 e9 a6 3e 85 f5 6a 3e fd 11 66 be
       -1.0412046 0.32600373 0.22945221 -0.224678
0000e0 2d 69 b6 be 4b df d1 3e 22 90 86 bf b0 97 86 be
       -0.35627118 0.40990672 -1.0512736 -0.26287603

bn1.running_var f4 [60]
000000 fa fb d2 3d 16 8c 9f 3e bc dc 71 3d 81 7e 1b 3d
       0.10301967 0.31161565 0.0590484 0.03796244
000010 c0 b1 08 1e 33 14 98 3d 74 66 cc 3d 65 4e b3 3d
       7.236538e-21 0.07425728 0.09980479 0.08755187
000020 f1 61 bf 3d 9b 47 5a 3d 36 81 b1 3e 14 96 dc 3d
       0.09344853 0.053290945 0.34668893 0.10770813
000030 36 a4 8b 3d c2 bf a8 35 58 ed 52 3d 32 d0 41 3d
       0.0681843 1.2572784e-06 0.05149588 0.04731769
000040 43 c5 c6 3d d6 9f 38 3d 9e c3 42 3d a4 1d 88 3d
       0.097055934 0.045074306 0.047549836 0.066462785
000050 1b 7e cf 3d 0f 3b b7 3d 3f d9 b0 3e 41 b5 6e 3d
       0.101314746 0.089468114 0.34540746 0.058278326
000060 0d 37 59 3d 3d 7e 5a 3d 20 b0 87 3d 9f 1b b8 3d
       0.053031016 0.053343046 0.0662539 0.08989643
000070 4c e1 8b 3d e6 06 62 3d b5 6a 8c 3d 51 4d 3c 3d
       0.06830081 0.05518236 0.0685629 0.045972172
000080 00 5d 85 3d af 0b 48 3d a1 cf 54 3d d4 9d 5e 3f
       0.06511879 0.048839267 0.051955823 0.86959577
000090 1b 64 a9 3d 53 59 8e 3d 67 ed 30 3e a2 b8 39 3e
       0.08271047 0.06950631 0.17278062 0.18136838
0000a0 a2 5b 28 3d 11 d6 b1 3e 1a 2f d2 3d 9a c3 b4 3d
       0.041103013 0.34733632 0.1026289 0.088263705
0000b0 bc 52 c9 3e 6c d4 a8 3e 3f 4e ca 3d cf 56 7d 3e
       0.39320934 0.32974565 0.098782055 0.24740146
0000c0 16 03 34 3e 62 96 b9 3e 06 88 91 3e 8e 84 58 3d
       0.17579302 0.36247545 0.2842409 0.05286079
0000d0 0e a4 99 3e 0e 5d 26 3d 0e 3c 81 3d 3f 83 a5 3d
       0.30007976 0.040616088 0.06310283 0.08081674
0000e0 47 f7 da 3d 15 b3 92 3d 3d 21 9f 3e 12 1b 8b 3d
       0.10691696 0.071630634 0.31080046 0.067922726
