output/random_DRB1_0101_nomhc/CSL_nomhc_nostd_burn_60nh_ran_DRB1_0101_KFold_4_231023_2019_None/checkpoint_best_kcv_train_all5_DRB1_0101_f04_CSL_nomhc_nostd_burn_60nh_ran_DRB1_0101_KFold_4_231023_2019_None.pt (torch, 47435 bytes, 7 tensors)

in_layer.weight f4 [60, 180]
0.008957854 0.0008590307 -0.006876102 -0.008064915 -0.009568609 -0.012636964 0.02173248 0.013058381
0.008368943 0.022055985 -0.018388722 -0.018285744 0.013447437 -0.0052721226 0.0064783576 0.0062613823
0.0079925 -0.004789612 -0.013639575 -0.01481211 -0.01361447 -0.016609114 0.0035352977 0.0050682556
0.015197222 -0.005266591 0.0013460498 0.014329122 0.006760084 -0.010570947 0.000847611 0.0020979694
-0.0120854825 -0.0031274687 0.021171158 -0.005085275 0.0037136949 0.0084820045 -0.0029695285 0.0049381596
-0.016654668 0.009834591 0.018790811 0.004745843 -0.00880172 0.0028813528 0.0055000125 0.0008645642
-0.0070698955 0.017775944 -0.031772178 -0.00038764195 -0.0042545367 -0.017749103 -0.011597343 -0.005453069
0.009438362 0.016886229 0.0050544133 0.011494942 -0.01636994 0.015273122 -0.013786633 0.03331887
0.011696046 0.0019136369 -0.0021693832 -0.0067911707 -0.005865559 0.0096558975 -0.018925771 -0.0072912793
-0.029630886 -0.015206661 0.0011579917 0.013674896 0.009040491 0.016091011 0.0002448019 -0.007844898
0.007368836 0.0132358335 0.0144340675 -0.014523107 0.0047133216 -0.013342276 0.01651362 0.014330884
-0.011517928 -0.025808651 -0.007727331 0.009187988 0.0046938993 0.009218828 0.022318441 -0.005497087
-0.008980577 0.0055414033 0.010746912 -0.018106878 -0.023114065 0.025080925 0.0056363572 0.012050585
-0.008787428 0.009936684 -0.007915654 -0.0059892116 -0.00087978196 -0.004123251 0.0049516214 0.0059439945
-0.014921621 -0.018300448 -0.005025346 0.0031454847 0.0057256673 -0.0068910588 0.004758371 0.012162678
-0.019269308 -0.019752823 -0.006051059 0.017705768 0.022116713 -0.0031617193 0.00085828657 0.014939606
-0.014163404 0.010175988 -0.010490637 0.021433061 -0.0038607894 -0.013322102 0.006445164 -0.014499987
0.015576535 -0.003277541 0.01385331 -0.012385666 0.007161279 -0.004490483 -0.020180613 0.006937861
0.021102665 0.011122523 0.012327359 0.0024861053 -0.0007300979 0.018613543 -0.018967303 0.0023856354
-0.019750858 0.002972714 -0.01616302 -0.0063581066 -0.008741225 0.017324245 -0.008371556 0.013081168
-0.01766655 -0.0153720025 -0.015819645 0.015438355 -0.020613663 -0.011897215 0.022374563 0.027246406
-0.0017398129 -0.038182758 0.017128002 0.013788517 0.01610432 -0.0019587306 0.010988576 0.00018354617
0.0043495754 0.0041234517 -0.009954934 0.027870707 0.0032708123 0.002860621 -0.004310183 -0.0070895953
-0.001689153 -0.0014099093 0.0035969592 -0.0016662872 0.0063054566 -0.012695006 -0.0022987216 0.008646132
0.016006775 -0.014556812 -0.0028693543 0.0046412735 0.00083700643 0.009904058 0.0140792485 -0.018609667
0.0075579803 -0.0153577635 -0.0053817104 0.008289757 -0.01667342 -0.0039534424 -0.010814869 -0.0010931827
0.0035227353 0.007371763 0.018262358 -0.0068996185 0.00045143894 0.017129544 -0.0023218684 -0.0007052107
0.003307397 0.0015372874 0.002574771 0.010488845 0.027100679 -0.012037521 -0.0130755175 -0.0027460344
0.00022904639 0.0039283736 0.011852232 0.003279342 0.0021041757 -0.0007438779 -0.00037602225 0.0040816343
0.0049496945 -0.001675841 0.004330639 0.004399845 -0.00868073 -0.012043086 -0.016735751 0.0037327544
-0.010868611 0.0033490364 0.016261999 0.0065916143 -0.0009856933 0.008685644 -0.0003543318 -0.009020169
-0.00043960995 0.004648727 -0.009887322 0.0029625066 -0.014873106 -0.002533653 0.007913739 -0.014202785
00000000: f6c3 123c 9330 613a ed50 e1bb b522 04bc
00000010: a8c5 1cbc 450b 4fbc 5008 b23c d2f2 553c
00000020: e41d 093c c1ae b43c f2a3 96bc fccb 95bc
00000030: a452 5c3c c5c1 acbb 6748 d43b 482c cd3b
00000040: faf2 023c 2df2 9cbb 8678 5fbc 7eae 72bc
00000050: 3a0f 5fbc d60f 88bc 74b0 673b 9c13 a63b
00000060: c5fd 783c 5e93 acbb f06d b03a b2c4 6a3c
00000070: b283 dd3b c431 2dbc 3632 5e3a 167e 093b
00000080: 3002 46bc 38f6 4cbb 236f ad3c 61a2 a6bb
00000090: 7661 733b 1bf8 0a3c 6c9c 42bb 49d0 a13b
000000a0: 5f6f 88bc 4421 213c 30ef 993c 0483 9b3b
000000b0: 1735 10bc 14d5 3c3b 7339 b43b eca3 623a
000000c0: 95aa e7bb db9e 913c 8b23 02bd 6c3c cbb9
000000d0: a469 8bbb 9166 91bc c802 3ebc a9af b2bb
000000e0: 5ca3 1a3c fd54 8a3c 7e9f a53b 4855 3c3c
000000f0: 411a 86bc 1e3c 7a3c 54e1 61bc 5e79 083d
00000100: c6a0 3f3c 00d3 fa3a 362c 0ebb 7888 debb
00000110: e033 c0bb c533 1e3c 380a 9bbc afeb eebb
00000120: 79bc f2bc 5c25 79bc c1c7 973a ac0c 603c
00000130: 911e 143c 4cd1 833c c158 8039 e387 00bc
00000140: 4776 f13b 1cdb 583c de7c 6c3c 53f2 6dbc
00000150: 3572 9a3b 9099 5abc 9247 873c 16cc 6a3c
00000160: b1b5 3cbc aa6c d3bc 8d35 fdbb 3789 163c
00000170: 48cf 993b 910a 173c 2ad5 b63c e820 b4bb
00000180: 4523 13bc a994 b53b d113 303c e054 94bc
00000190: b559 bdbc 8376 cd3c 31b1 b83b d16f 453c
000001a0: 25f9 0fbc 79cd 223c a9b0 01bc 2641 c4bb
000001b0: 2ba1 66ba 561c 87bb 3641 a23b d7c5 c23b
000001c0: d179 74bc d2ea 95bc a8ab a4bb 7a24 4e3b
000001d0: 619e bb3b 64ce e1bb 1cec 9b3b f845 473c
000001e0: abda 9dbc acd0 a1bc f647 c6bb b00b 913c
000001f0: 1c2e b53c d934 4fbb a3fe 603a 40c5 743c
00000200: 9f0d 68bc 30b9 263c ece0 2bbc 6394 af3c
00000210: 4c05 7dbb f244 5abc f431 d33b 5a91 6dbc
00000220: b934 7f3c 03cc 56bb fef8 623c 40ed 4abc
00000230: 2aa9 ea3b e724 93bb d051 a5bc ff56 e33b
00000240: 7fdf ac3c 3e3b 363c b1f8 493c eded 223b
00000250: 0a64 3fba 6e7b 983c 5161 9bbc 5258 1c3b
00000260: 8dcc a1bc ddd1 423b 4f68 84bc aa57 d0bb
00000270: 5b37 0fbc 93eb 8d3c da28 09bc 6552 563c
00000280: 71b9 90bc dada 7bbc 3398 81bc 27f1 7c3c
00000290: fcdd a8bc 89ec 42bc dc4a b73c db33 df3c
000002a0: 6f0a e4ba 8665 1cbd 0650 8c3c 3be9 613c
000002b0: 35ed 833c 0c5e 00bb 6e09 343c 4d76 4039
000002c0: e286 8e3b 051e 873b 051a 23bc 1c51 e43c
000002d0: 205b 563b 4279 3b3b 703c 8dbb d64f e8bb
000002e0: 9266 ddba b5cc b8ba f6ba 6b3b 5267 daba
000002f0: 019e ce3b b7fe 4fbc 26a6 16bb 82a8 0d3c
00000300: a420 833c b27f 6ebc c70b 3cbb d315 983b
00000310: 8d6a 5b3a a144 223c a6ac 663c 4d73 98bc
00000320: efa8 f73b 219f 7bbc 0f59 b0bb c3d1 073c
00000330: b296 88bc e18b 81bb d930 31bc 2049 8fba
00000340: b1dd 663b d48e f13b f19a 953c 3216 e2bb
00000350: 1caf ec39 4253 8c3c 7d2a 18bb e4dd 38ba
00000360: eac0 583b ce7e c93a 7dbd 283b 68d9 2b3c
00000370: 3e02 de3c 0639 45bc b23a 56bc d0f6 33bb
00000380: 2c2c 7039 96b9 803b dd2f 423c 3bea 563b
00000390: 36e6 093b cd00 43ba da24 c5b9 3bbf 853b
000003a0: 0c31 a23b e5a7 dbba 08e8 8d3b 932c 903b
000003b0: 9f39 0ebc 5d50 45bc 6a19 89bc 3aa1 743b
000003c0: 4212 32bc 827b 5b3b e237 853c 78fe d73b
000003d0: 6132 81ba 3b4e 0e3c 9cc5 b9b9 55c9 13bc
000003e0: 737b e6b9 5954 983b 6ffe 21bc 9d26 423b
000003f0: 54ae 73bc a50b 26bb a1a8 013c ccb2 68bc

in_layer.bias f4 [60]
-3.3932192e-08 -3.309062e-09 1.0240453e-09 -1.0112754e-08 -1.8711088e-09 -4.4996136e-09 -2.087e-42 -1.606e-40
-6.251045e-09 6.152465e-10 -3.1815401e-09 -1.8637423e-09 -1.3656334e-09 -1.0547949e-08 1.9142794e-09 -2.5533514e-10
1.6757169e-09 4.4566568e-30 3.9788084e-09 3.6901717e-09 -7.848844e-09 9.062043e-10 3.0592244e-09 1.196625e-09
-9.551846e-10 5.4736055e-10 -1.9038267e-09 -3.1098518e-35 1.1395431e-09 1.78053e-40 -1.8710298e-09 -3.6096606e-09
-8.385914e-39 -8.708212e-10 1.2167672e-08 -3.34898e-40 1.6865513e-09 1.3957578e-08 -3.432492e-09 -4.076802e-07
-4.0708686e-10 -1.1480414e-17 1.169268e-08 8.8369434e-10 7.691614e-11 1.1924883e-10 -1.7098266e-08 -3.123661e-09
3.3707679e-09 -2.190593e-10 -2.373839e-08 7.500516e-09 -2.0063167e-08 -1.8620621e-08 1.7047423e-09 -3.948693e-09
1.7339762e-08 5.172399e-09 6.815569e-09 5.5880265e-09
00000000: d7bc 11b3 a265 63b1 64be 8c30 5dbc 2db2
00000010: e594 00b1 059b 9ab1 d105 0080 b0bf 0180
00000020: c6c8 d6b1 201e 2930 3fa2 5ab1 4d13 00b1
00000030: f4b0 bbb0 5f36 35b2 5c8c 0331 3a5f 8caf
00000040: 0c4f e630 92c8 b40e f8b5 8831 3096 7d31
00000050: 95d7 06b2 7518 7930 723a 5231 8076 a430
00000060: 9247 83b0 1375 1630 79d4 02b1 1c59 2586
00000070: 1c9e 9c30 57f0 0100 8193 00b1 d20d 78b1
00000080: 8450 5b80 985e 6fb0 fd09 5132 8fa5 0380
00000090: 40cc e730 14ca 6f32 0ae1 6bb1 24df dab4
000000a0: 62cc dfaf b9c6 53a3 f3e0 4832 76e8 7230
000000b0: f023 a92e 901d 032f 7cdf 92b2 07a8 56b1
000000c0: 2da3 6731 b6db 70af 46e9 cbb2 9edb 0032
000000d0: 5f57 acb2 2ef3 9fb2 4a4c ea30 12ad 87b1
000000e0: 8af2 9432 e7b8 b131 612e ea31 cd00 c031

out_layer.weight f4 [1, 60]
-0.12905866 0.080297284 -0.09021251 0.079083726 -0.07784739 -0.12722017 -4.932208e-05 -7.6837e-05
-0.11808062 0.09700006 0.051639456 -0.09124012 -0.08894581 0.10565391 0.09380224 -0.085722335
-0.08694747 1.9108e-41 0.08570464 0.08798469 -0.09193239 -0.108689986 0.08036187 0.07081285
0.053231135 -0.0071817613 0.11485868 1.5545314e-18 0.01483841 4.3983306e-05 0.0018573507 -0.14498615
1.8135155e-07 -0.0069607315 0.06659785 -2.4664454e-05 -0.004906581 0.09472756 0.07437568 0.09072878
-0.0024610076 -0.00037452148 -0.123704284 -0.007072422 -0.0026472749 -0.0045146397 -0.08119523 0.07072978
-0.114163056 -0.12234874 -0.082575925 -0.12376225 -0.14527723 -0.123772696 -0.06543534 -0.093635604
-0.09436915 0.06723033 0.11146881 -0.037085757
00000000: f427 04be e772 a43d 56c1 b8bd a6f6 a13d
00000010: 746e 9fbd 0146 02be 2edf 4eb8 8d23 a1b8
00000020: 41d4 f1bd f8a7 c63d e583 533d 1adc babd
00000030: 3929 b6bd 1461 d83d 641b c03d 318f afbd
00000040: 8411 b2bd 4435 0000 ea85 af3d 5131 b43d
00000050: 0d47 bcbd db98 debd c494 a43d 5406 913d
00000060: e408 5a3d fb54 ebbb 073b eb3d 8968 e521
00000070: cd1c 733c b77a 3838 5972 f33a 4077 14be
00000080: 89b9 4234 d916 e4bb 7464 883d 83e6 ceb7
00000090: 62c7 a0bb 8600 c23d 4752 983d 03d0 b93d
000000a0: db48 21bb 6c5b c4b9 ac58 fdbd c7bf e7bb
000000b0: e77d 2dbb 8bef 93bb af49 a6bd c6da 903d
000000c0: 52ce e9bd fa91 fabd 911d a9bd 1077 fdbd
000000d0: 8ec3 14be 8a7c fdbd f702 86bd 06c4 bfbd
000000e0: 9d44 c1bd 0eb0 893d c249 e43d 3ce7 17bd

bn1.weight f4 [60]
0.5520515 0.5417232 0.54351556 0.54795414 0.543751 0.54609007 0.53963226 0.53978527
0.54651296 0.54604983 0.54237604 0.5463268 0.5430497 0.5509733 0.55883706 0.54673856
0.5426364 0.5396338 0.5480301 0.5423194 0.54388326 0.55475795 0.5521772 0.54238987
0.5451974 0.5397079 0.550875 0.5396328 0.5407307 0.5396344 0.53965163 0.5530838
0.53964436 0.53967655 0.5441406 0.5396469 0.53963816 0.55628073 0.5448059 0.55370903
0.53963083 0.53963214 0.5492209 0.5396824 0.5396364 0.5396659 0.5447116 0.54955953
0.55032563 0.55072707 0.5432301 0.54879725 0.55162394 0.5473312 0.54260373 0.54369324
0.54468876 0.5448209 0.5561128 0.5421013
00000000: 3f53 0d3f 5fae 0a3f d623 0b3f b946 0c3f
00000010: 4433 0b3f 8fcc 0b3f 5725 0a3f 5e2f 0a3f
00000020: 46e8 0b3f ecc9 0b3f 28d9 0a3f 13dc 0b3f
00000030: 4e05 0b3f 960c 0d3f f20f 0f3f 0ff7 0b3f
00000040: 38ea 0a3f 7125 0a3f b34b 0c3f 72d5 0a3f
00000050: ef3b 0b3f 9e04 0e3f 7c5b 0d3f 10da 0a3f
00000060: 0f92 0b3f 4c2a 0a3f 2506 0d3f 6025 0a3f
00000070: 546d 0a3f 7b25 0a3f 9c26 0a3f e696 0d3f
00000080: 2226 0a3f 3e28 0a3f cc4c 0b3f 4d26 0a3f
00000090: ba25 0a3f 6a68 0e3f 6678 0b3f e0bf 0d3f
000000a0: 3f25 0a3f 5525 0a3f be99 0c3f a028 0a3f
000000b0: 9c25 0a3f 8b27 0a3f 3872 0b3f efaf 0c3f
000000c0: 24e2 0c3f 73fc 0c3f 2111 0b3f fa7d 0c3f
000000d0: 3a37 0d3f e61d 0c3f 14e8 0a3f 7b2f 0b3f
000000e0: b970 0b3f 6279 0b3f 695d 0e3f 27c7 0a3f

bn1.bias f4 [60]
0.0060518347 -0.0038153348 0.0032985702 -0.004375089 0.002304856 0.0044184662 -2.931e-41 -1.16603e-40
0.0065482105 -0.0056853206 -0.0025138047 0.0028765758 -0.0010826938 -0.002861604 -0.0029039958 0.003148171
0.0026918028 -2.47382e-39 -0.003117944 -0.004134857 0.00407392 0.0022396666 -0.0024937368 -0.0044687935
-0.0006408963 0.00027016478 -0.0038676388 8.4566e-41 -0.0006566319 2.68008e-40 -0.00013009264 0.0074053733
4.20863e-40 0.00026158168 -0.003686854 -5.31948e-40 0.00018221505 -0.0031247763 -0.0024225216 -0.0022795314
0.00010458809 2.84207e-40 0.006131579 0.0002665497 0.00010878751 0.00016995659 0.0021350028 -0.003621851
0.0035191057 0.0030739778 -0.0004329693 0.008133845 0.006689008 0.003240526 0.00087495585 0.0019544759
-0.00049491937 -0.0027241614 -0.0029525768 0.0013901494
00000000: 784e c63b b20a 7abb d32c 583b e85c 8fbb
00000010: 110d 173b c8c8 903b b451 0080 0b45 0180
00000020: 5f92 d63b ed4b babb a5be 24bb ef84 3c3b
00000030: 2de9 8dba c089 3bbb f750 3ebb 8b51 4e3b
00000040: f568 303b 01f0 1a80 6c56 4cbb b27d 87bb
00000050: 857e 853b 5fc7 123b f66d 23bb f56e 92bb
00000060: d301 28ba e7a4 8d39 3678 7dbb bceb 0000
00000070: d221 2cba 19eb 0200 7a69 08b9 c6a8 f23b
00000080: 3295 0400 e624 8939 259f 71bb dbca 0580
00000090: fb10 3f39 0cc9 4cbb 2bc3 1ebb 3164 15bb
000000a0: 4e56 db38 4118 0300 6aeb c83b b2bf 8b39
000000b0: da24 e438 6036 3239 67eb 0b3b 945c 6dbb
000000c0: cca0 663b ca74 493b 2800 e3b9 d243 053c
000000d0: 772f db3b 015f 543b 4b5d 653a aa16 003b
000000e0: 7abd 01ba d887 32bb 0580 41bb ac35 b63a

bn1.running_mean f4 [60]
-0.6712868 -0.3015347 -0.5325139 0.24553469 -0.8102485 -0.33824304 1.3668145e-16 4.4093617e-06
-0.4686272 0.17352732 0.16545694 -0.6145859 0.04097764 0.27344844 -0.08622661 -1.032183
-0.46512982 4.325329e-25 0.2546081 0.29171968 -0.6184775 -0.7631452 0.18975388 1.0370259
0.23528875 -0.8143366 0.40666118 2.309199e-13 -0.57185775 4.949932e-16 -0.41651875 -0.46058258
5.3971898e-15 -0.8455749 -0.013014434 5.6015315e-23 -0.8374548 -0.09917894 0.09431016 0.13168609
-0.7448723 1.14786354e-10 -0.6921312 -0.8274552 -0.76602197 -0.8246371 -0.56640184 -0.014693598
-0.1511565 -0.5092604 -0.11856095 -0.5994432 -0.9809248 -0.42086914 -0.55368733 -0.30683798
-0.38400802 -0.5136205 0.44524238 -0.9292793
00000000: 74d9 2bbf c262 9abe d552 08bf 726d 7b3e
00000010: 726c 4fbf 312e adbe 3e95 1d25 21f4 9336
00000020: e8ef efbe 25b1 313e 8b6d 293e 8055 1dbf
00000030: 2bd8 273d 6f01 8c3e 9497 b0bd 931e 84bf
00000040: 7f25 eebe c9dc 0517 fe5b 823e 485c 953e
00000050: 8b54 1ebf 7c5d 43bf d74e 423e 44bd 843f
00000060: 89ef 703e 5d78 50bf e535 d03e 11ff 812a
00000070: 4565 12bf 0dac 0e26 f241 d5be 7bd1 ebbe
00000080: 4a74 c227 9977 58bf 7e3a 55bc cd6f 871a
00000090: 7063 56bf 541e cbbd af25 c13d b8d8 063e
000000a0: f3af 3ebf f96a fc2e 832f 31bf 1bd4 53bf
000000b0: 041a 44bf 6b1b 53bf b6ff 10bf 6bbd 70bc
000000c0: c5c8 1abe e45e 02bf 15d0 f2bd 1c75 19bf
000000d0: e31d 7bbf 297c d7be 74be 0dbf de19 9dbe
000000e0: b39c c4be a27c 03bf cff6 e33e 40e5 6dbf

bn1.running_var f4 [60]
0.11357978 0.17502639 0.082719974 0.057312593 0.20710462 0.11560028 1.1672385e-32 5.440684e-12
0.1448428 0.09151616 0.043322377 0.11350752 0.061211716 0.2818312 0.12705463 0.32701027
0.09510076 7e-45 0.08320356 0.10789046 0.097591184 0.1427788 0.09020088 0.40607676
0.43364942 0.19223069 0.17078473 1.852929e-26 0.19817074 7.40749e-32 0.09403509 0.2247461
9.156274e-30 0.2097143 0.06681947 7e-45 0.21470161 0.07354751 0.08556097 0.09982329
0.1814176 3.893907e-21 0.2247975 0.19950812 0.19070232 0.20939736 0.06344009 0.081072755
0.05297394 0.14813773 0.057047736 0.1970075 0.28951445 0.08588321 0.060299765 0.10184272
0.06306666 0.2013211 0.32110855 0.21936548
00000000: 849c e83d 1e3a 333e 1769 a93d 9cc0 6a3d
00000010: 3c13 543e d7bf ec3d 0b6d 720a 536d bf2c
00000020: ac51 143e d36c bb3d ce72 313d a176 e83d
00000030: 23b9 7a3d 2e4c 903e 9c1a 023e e46d a73e
00000040: 30c4 c23d 0500 0000 a166 aa3d acf5 dc3d
00000050: e3dd c73d 9b34 123e 3dbb b83d 4be9 cf3e
00000060: 4c07 de3e 1fd8 443e 31e2 2e3e 5581 b714
00000070: 45ed 4a3e 374f c00b 7895 c03d d723 663e
00000080: 18b6 390f 58bf 563e a5d8 883d 0500 0000
00000090: bdda 5b3e 14a0 963d 973a af3d 2770 cc3d
000000a0: 89c5 393e 8f1b 931d 5131 663e db4b 4c3e
000000b0: 7847 433e 436c 563e e1ec 813d 7909 a63d
000000c0: 34fb 583d 6bb1 173e e3aa 693d 56bc 493e
000000d0: 3d3b 943e 89e3 af3d e3fc 763d ea92 d03d
000000e0: 1829 813d 1e27 4e3e 5768 a43e 58a1 603e
