output/2306xx_hptune/BL50LO_0_10_true_false_zp0_5_10_false_zp0_1exx3_0_128_ELXXrankXXmut-icoreXXblsmXXmutXXscore/BL50LO_0_10_true_false_zp0_5_10_false_zp0_1exx3_0_128_ELXXrankXXmut-icoreXXblsmXXmutXXscore_230601_0937_34wh1/checkpoint_best_kcv_230530_cedar_aligned_f6_BL50LO_0_10_true_false_zp0_5_10_false_zp0_1exx3_0_128_ELXXrankXXmut-icoreXXblsmXXmutXXscore_230601_0937_34wh1.pt (torch, 10113 bytes, 13 tensors)

ef_inlayer.weight f4 [10, 3]
000000 b3 01 84 bf 44 98 f3 3e 0a 02 35 be a1 e3 b8 be
       -1.0313019 0.47577107 -0.17676559 -0.36111167
000010 33 6a 32 bf 38 aa 9d bd ad 42 a9 3e 37 2b 00 3e
       -0.696933 -0.07698482 0.33058682 0.12516485
000020 2a 9f bd 3e 24 9a f4 3e 58 2f ed be dc ee aa be
       0.37035495 0.4777385 -0.46325183 -0.3338536
000030 0c 39 7a bf e9 26 00 3d 22 03 28 bd 99 c6 c7 be
       -0.97743297 0.031287108 -0.041018613 -0.39018705
000040 d5 4b 3a 3e f6 0b 93 be d4 82 0d bf d2 83 0a bf
       0.1819299 -0.28720063 -0.5527775 -0.5410739
000050 04 4f f3 bd d4 98 6c be ef 7e 95 bf 1b c7 c9 bd
       -0.118803054 -0.23105174 -1.1679362 -0.098524295
000060 05 fe 4a be 8b 31 df 3e f6 06 a1 be d0 3a 2d 3f
       -0.19823463 0.43592486 -0.31450623 0.67667866
000070 25 38 01 3f d7 47 f1 bc
       0.50476295 -0.029453201

ef_inlayer.bias f4 [10]
000000 9c 9b 90 be 78 7f 53 be d2 f0 62 3d 67 7f 1b be
       -0.2824372 -0.20654094 0.055405445 -0.15185319
000010 6c b7 a8 3e 47 54 c5 be e1 3f 80 3d 1a cb 84 3d
       0.3295244 -0.3854086 0.06262184 0.06484051
000020 8b 6a 98 3e f9 08 c2 be
       0.29768786 -0.3789747

ef_outlayer.weight f4 [1, 10]
000000 cf 29 d8 3e 36 60 b4 3e 8e 68 26 3d 3c b9 f0 bd
       0.42219397 0.35229653 0.040627055 -0.11754081
000010 be 21 da 3e b8 4b d1 3c 64 ee ec 3e f3 a2 b0 3e
       0.42603868 0.0255488 0.46275628 0.3449932
000020 0b 05 af bd d1 07 6f be
       -0.08545884 -0.23342825

nnalign.in_layer.weight f4 [10, 100]
000000 f1 14 35 bd ae fc 4c 3d bc 20 c1 3b fc e4 5e 3e
       -0.044209424 0.05004566 0.005893795 0.21767038
000010 a1 49 84 be 36 95 8b 3c bd cb 30 3e cb 06 97 bd
       -0.25837424 0.017038923 0.1726522 -0.073743425
000020 08 d3 6f 3d 9b 1b 12 bd 23 8f 86 3d 8c a7 1a be
       0.058550864 -0.035670858 0.0657027 -0.15102977
000030 3e 41 2e 3e 20 54 0a 3e e5 8d 61 be 4e b2 68 be
       0.17017075 0.13508654 -0.22026785 -0.22724268
000040 97 8e 46 3e 99 56 c1 3d 46 c7 a5 3c 97 f2 d4 bd
       0.19390331 0.09440345 0.020236623 -0.10397833
000050 1e 39 e0 be e4 9d d9 bd 7b 2d ea bd d9 67 40 3e
       -0.43793577 -0.10625818 -0.11434456 0.18789615
000060 ba d6 e0 bb 3f 9d 68 be 2a 87 68 be 6d 47 89 3e
       -0.006861535 -0.22716235 -0.22707811 0.26812306
000070 8a 5a c4 be 4f 62 14 bd 86 f7 8c bd 1d 7c 03 bd
       -0.38350326 -0.036226567 -0.06883149 -0.032100786
000080 b7 c3 ce bd 3f 3c 7a be 77 66 a9 3c 82 ed b6 bd
       -0.100959234 -0.24437045 0.020678742 -0.0893202
000090 19 9a c7 bd 7d 3c 81 bd f8 cf 4c be ff 7f 20 be
       -0.09746189 -0.06310365 -0.20001209 -0.15673827
0000a0 5c 71 08 3e 93 30 00 be 74 fe 85 3d 6a c1 7b 3d
       0.13324493 -0.1251853 0.06542674 0.06146375
0000b0 68 ad 0c 3e c7 49 16 bd 02 18 9b bc dc 03 86 3e
       0.13738024 -0.036691453 -0.018932346 0.2617482
0000c0 d5 ae 35 3e e5 6c d6 bd 32 8d 3f be 5d 98 31 bd
       0.17742474 -0.10469989 -0.18706205 -0.043358196
0000d0 b4 d7 88 3b 64 7a ab 3d 29 a0 6f be 44 67 c3 bd
       0.0041761044 0.083729535 -0.2340094 -0.09541181
0000e0 83 bc 43 be f8 43 0a 3e 44 56 ba 3d 15 ab d9 bd
       -0.1911488 0.1350249 0.09098485 -0.106283344
0000f0 6c 6e 10 3c 53 2b 15 3e 7f 69 e9 3d 07 cd 1d 3e
       0.008815389 0.14567308 0.11397075 0.15410243
000100 87 cb fc bd 3f 20 44 3d fc 2a 66 3e 1e b1 91 3d
       -0.12343507 0.047882315 0.22477335 0.071138605
000110 90 03 28 be 28 c5 ab bd fa 05 e6 3c 31 fd 94 3d
       -0.16407609 -0.08387214 0.028079022 0.07274855
000120 86 1c ec 3d 34 fb 69 bd 9d 4f 0b be e5 82 18 3d
       0.11528878 -0.05712433 -0.13604589 0.037234206
000130 a1 cb 5f 3e 72 86 43 bd 6c b5 9d be cb 9d 2d bd
       0.21855022 -0.04773564 -0.30802476 -0.04238681
000140 66 f9 41 be f9 58 28 bd 9a d0 d1 bd 0e 2e b8 bc
       -0.18942794 -0.041100476 -0.10244866 -0.022482898
000150 1d e6 c0 3d d9 dc a5 be 25 30 85 3d e6 6c 0e be
       0.094188906 -0.32395056 0.065033235 -0.13908729
000160 7e 56 3e be ec 98 24 bb 97 40 43 3e c9 b9 a1 bd
       -0.18587682 -0.0025115563 0.19067608 -0.07896764
000170 b2 f9 c4 3d a7 97 53 3e b8 3c a5 be 05 ec d9 3b
       0.09617938 0.2066332 -0.32272887 0.00665045
000180 fd 0a 1e 3e 6f a0 8c 3d 8b 3a 1d 3d 55 cd 80 3b
       0.15433879 0.06866538 0.03838591 0.0039307275
000190 77 24 00 3e d3 9f a7 3d 29 38 24 3e e6 e9 2f bd
       0.1251391 0.08184781 0.16037048 -0.042947672
0001a0 0b cb 0e be c3 e6 12 3e 30 6e 58 3e fd d6 08 3e
       -0.13944642 0.14345841 0.21135783 0.13363262
0001b0 06 b0 3b 3e c0 b8 e0 bd ee 46 19 be b2 a5 19 3e
       0.18328866 -0.10972738 -0.14968464 0.15004614
0001c0 91 7e 79 bd b1 8c 68 bd 54 b9 2e 3e 8c 58 78 3e
       -0.06091172 -0.0567748 0.17062885 0.24252528
0001d0 a3 c9 bb bc 95 15 7c be b3 00 0b 3b 18 54 ab 3c
       -0.022923296 -0.24617608 0.0021210134 0.020914122
0001e0 7d 7b cc 3c 28 da 55 3d 74 43 a7 3e 76 6b d0 bc
       0.024961228 0.052210003 0.3266865 -0.025441866
0001f0 b8 47 92 bd 6b 69 db bd ef 40 5a bc 62 8c 23 3e
       -0.071425855 -0.10713466 -0.013321145 0.1597152
000200 7c 30 a6 bd c3 a2 0b be 17 f3 ed 3c a6 b9 ba bc
       -0.081147164 -0.13636307 0.029046578 -0.022793602
000210 3b 6d d3 bd 4f ec 31 bc 5a b2 31 3d 3c da d4 3d
       -0.103235684 -0.010859563 0.04338298 0.103931874
000220 ab bf 12 3d 68 5e 7d 3d 4c cd 15 ba 6b 38 36 bd
       0.03582732 0.06185761 -0.00057144905 -0.044487398
000230 4d c8 69 3b 90 50 15 3e 0f 82 b4 3d 96 ff 32 3d
       0.0035672367 0.14581513 0.08813869 0.043700777
000240 fa 52 04 3e b9 2e 94 bd 49 75 b5 bc 89 8d f7 3d
       0.12922278 -0.07235474 -0.022150652 0.120875426
000250 eb dd 54 3d 93 35 70 be 87 0f 61 bd 41 39 85 bc
       0.05196945 -0.23457937 -0.05494645 -0.016262652
000260 15 fa 08 be b8 36 88 bc c0 7c 24 3e 17 2a 2c 3e
       -0.13376649 -0.016627654 0.16063213 0.16812931
000270 d0 b9 23 3e 94 2f cd bc 2f 5e 0b 3e ef a8 fd bd
       0.1598885 -0.025047101 0.13610147 -0.12385737
000280 e8 40 50 3d 22 78 4b be 0d fb 22 bd 8d d0 06 3e
       0.05084315 -0.19870046 -0.039790202 0.13165493
000290 09 b8 11 be 45 07 bb bd 15 11 10 3e c8 1f 04 be
       -0.1423036 -0.09132246 0.14069016 -0.12902749
0002a0 28 c7 67 bc df d6 18 be b1 e0 c5 3d 2e bd 25 be
       -0.014146604 -0.14925717 0.09661997 -0.16185448
0002b0 e8 81 7b 3d 41 f4 8b 3e 9c c2 bb 3d 7e 80 03 bd
       0.061403185 0.27334788 0.09167978 -0.03210496
0002c0 bb 0f 22 3e ea da c5 3d f2 6c 03 3d 2c ab 60 be
       0.15826313 0.09660895 0.03208632 -0.21940297
0002d0 d2 22 f6 3d 5b 79 f8 bd 14 1b 9c bb 11 bf c6 3d
       0.1201836 -0.12132522 -0.00476397 0.09704412
0002e0 dc 54 63 bc 19 14 44 3e a7 ef aa 3d 93 6f 46 3d
       -0.0138752125 0.19148292 0.08346491 0.04844625
0002f0 b0 5c e9 3d e7 b6 a6 3d c3 d2 94 3d 50 c5 aa bd
       0.11394632 0.081403546 0.07266762 -0.083384156
000300 de 3d e1 3c ab a7 0b 3d 7f ca 1d bc 57 6c 48 bb
       0.02749532 0.034095448 -0.009630798 -0.0030582154
000310 33 4c 49 3e c7 dd 84 bd 57 2c 84 bd 29 ce 69 bd
       0.19657974 -0.06487613 -0.0645377 -0.057081375
000320 ea 00 06 be 13 0a 6b 3d fc 08 3c 3d 1f d4 60 3b
       -0.13086286 0.057382654 0.045907006 0.0034306122
000330 a2 13 49 bd 36 3f 52 3c 55 b1 32 bd 6a a1 f7 3c
       -0.04909099 0.0128324535 -0.04362615 0.030228335
000340 28 c8 94 3c 65 cd ec bd 46 84 b9 3b 8d 68 1f 3d
       0.018161848 -0.115626134 0.00566152 0.038918067
000350 9a ad 83 bc e8 80 82 bd 98 fe 5c bd 0b ca a4 3d
       -0.01607399 -0.06372243 -0.053953737 0.08046349
000360 ee 18 ba 3c c0 87 04 3d 48 03 36 3c 4d bb cb 3d
       0.022716966 0.032356024 0.011109181 0.09947834
000370 bb 12 83 bb f4 5d 1d 3c 5b 0a aa 3c d5 1e 96 bc
       -0.0040000356 0.00960492 0.020756891 -0.018325249
000380 43 36 ae bd ce 78 8a 3c 5c e6 60 bd bc 59 45 bd
       -0.08506443 0.016903307 -0.054907188 -0.04818128
000390 07 39 c0 bd 82 45 20 3b d7 37 63 bc 3e 45 ac bd
       -0.09385877 0.0024455492 -0.013868294 -0.084116444
0003a0 7d 73 a7 3d 04 f4 3c 3d 23 ad 09 3c 8a 70 58 bd
       0.081763245 0.04613115 0.008403095 -0.0528417
0003b0 41 64 ee bd 5d d3 0a be d6 48 d5 bb 0b d6 c4 bc
       -0.11640216 -0.13557191 -0.006508927 -0.024027845
0003c0 c9 0b 03 bd 3a 38 2f 3d 50 23 58 3d 4a a4 a0 bd
       -0.03199366 0.04277823 0.05276805 -0.07843836
0003d0 50 22 88 bd 56 3a 5a bd 79 cc 98 bd db 97 6e bd
       -0.066471696 -0.05327829 -0.07460875 -0.05825029
0003e0 cd 92 9d bd fb c7 5f bd d5 6c 37 3c 7f 07 6b 3d
       -0.07694016 -0.054634076 0.011195381 0.057380196
0003f0 fa 54 68 bd 94 14 3d 3d f9 c8 df bd b2 13 d7 bc
       -0.056721665 0.046162203 -0.10927004 -0.026254509

nnalign.in_layer.bias f4 [10]
000000 78 97 4c bd 25 9c 78 bd 2c 26 cc bd ba 06 4c 3d
       -0.04994914 -0.060695786 -0.09968218 0.049811102
000010 73 07 7c bd ff 0a 92 bd e4 9b 80 3c 6c 16 3f bd
       -0.06153054 -0.071310036 0.015699334 -0.046652243
000020 ed 72 2c be fe 5d e9 bd
       -0.16840716 -0.11394881

nnalign.out_layer.weight f4 [1, 10]
000000 67 5b 11 bf af 00 1a 3f ce 2c 6a 3e 4f 62 0e bf
       -0.56780094 0.60157293 0.22868654 -0.55618757
000010 81 91 b3 3e 6d 77 75 3e 53 10 a0 3e 74 79 ef 3d
       0.35071948 0.23971339 0.31262454 0.11693087
000020 34 c9 d7 3e 1b dd c7 3e
       0.42145693 0.39035878

in_layer.weight f4 [10, 100]
000000 f1 14 35 bd ae fc 4c 3d bc 20 c1 3b fc e4 5e 3e
       -0.044209424 0.05004566 0.005893795 0.21767038
000010 a1 49 84 be 36 95 8b 3c bd cb 30 3e cb 06 97 bd
       -0.25837424 0.017038923 0.1726522 -0.073743425
000020 08 d3 6f 3d 9b 1b 12 bd 23 8f 86 3d 8c a7 1a be
       0.058550864 -0.035670858 0.0657027 -0.15102977
000030 3e 41 2e 3e 20 54 0a 3e e5 8d 61 be 4e b2 68 be
       0.17017075 0.13508654 -0.22026785 -0.22724268
000040 97 8e 46 3e 99 56 c1 3d 46 c7 a5 3c 97 f2 d4 bd
       0.19390331 0.09440345 0.020236623 -0.10397833
000050 1e 39 e0 be e4 9d d9 bd 7b 2d ea bd d9 67 40 3e
       -0.43793577 -0.10625818 -0.11434456 0.18789615
000060 ba d6 e0 bb 3f 9d 68 be 2a 87 68 be 6d 47 89 3e
       -0.006861535 -0.22716235 -0.22707811 0.26812306
000070 8a 5a c4 be 4f 62 14 bd 86 f7 8c bd 1d 7c 03 bd
       -0.38350326 -0.036226567 -0.06883149 -0.032100786
000080 b7 c3 ce bd 3f 3c 7a be 77 66 a9 3c 82 ed b6 bd
       -0.100959234 -0.24437045 0.020678742 -0.0893202
000090 19 9a c7 bd 7d 3c 81 bd f8 cf 4c be ff 7f 20 be
       -0.09746189 -0.06310365 -0.20001209 -0.15673827
0000a0 5c 71 08 3e 93 30 00 be 74 fe 85 3d 6a c1 7b 3d
       0.13324493 -0.1251853 0.06542674 0.06146375
0000b0 68 ad 0c 3e c7 49 16 bd 02 18 9b bc dc 03 86 3e
       0.13738024 -0.036691453 -0.018932346 0.2617482
0000c0 d5 ae 35 3e e5 6c d6 bd 32 8d 3f be 5d 98 31 bd
       0.17742474 -0.10469989 -0.18706205 -0.043358196
0000d0 b4 d7 88 3b 64 7a ab 3d 29 a0 6f be 44 67 c3 bd
       0.0041761044 0.083729535 -0.2340094 -0.09541181
0000e0 83 bc 43 be f8 43 0a 3e 44 56 ba 3d 15 ab d9 bd
       -0.1911488 0.1350249 0.09098485 -0.106283344
0000f0 6c 6e 10 3c 53 2b 15 3e 7f 69 e9 3d 07 cd 1d 3e
       0.008815389 0.14567308 0.11397075 0.15410243
000100 87 cb fc bd 3f 20 44 3d fc 2a 66 3e 1e b1 91 3d
       -0.12343507 0.047882315 0.22477335 0.071138605
000110 90 03 28 be 28 c5 ab bd fa 05 e6 3c 31 fd 94 3d
       -0.16407609 -0.08387214 0.028079022 0.07274855
000120 86 1c ec 3d 34 fb 69 bd 9d 4f 0b be e5 82 18 3d
       0.11528878 -0.05712433 -0.13604589 0.037234206
000130 a1 cb 5f 3e 72 86 43 bd 6c b5 9d be cb 9d 2d bd
       0.21855022 -0.04773564 -0.30802476 -0.04238681
000140 66 f9 41 be f9 58 28 bd 9a d0 d1 bd 0e 2e b8 bc
       -0.18942794 -0.041100476 -0.10244866 -0.022482898
000150 1d e6 c0 3d d9 dc a5 be 25 30 85 3d e6 6c 0e be
       0.094188906 -0.32395056 0.065033235 -0.13908729
000160 7e 56 3e be ec 98 24 bb 97 40 43 3e c9 b9 a1 bd
       -0.18587682 -0.0025115563 0.19067608 -0.07896764
000170 b2 f9 c4 3d a7 97 53 3e b8 3c a5 be 05 ec d9 3b
       0.09617938 0.2066332 -0.32272887 0.00665045
000180 fd 0a 1e 3e 6f a0 8c 3d 8b 3a 1d 3d 55 cd 80 3b
       0.15433879 0.06866538 0.03838591 0.0039307275
000190 77 24 00 3e d3 9f a7 3d 29 38 24 3e e6 e9 2f bd
       0.1251391 0.08184781 0.16037048 -0.042947672
0001a0 0b cb 0e be c3 e6 12 3e 30 6e 58 3e fd d6 08 3e
       -0.13944642 0.14345841 0.21135783 0.13363262
0001b0 06 b0 3b 3e c0 b8 e0 bd ee 46 19 be b2 a5 19 3e
       0.18328866 -0.10972738 -0.14968464 0.15004614
0001c0 91 7e 79 bd b1 8c 68 bd 54 b9 2e 3e 8c 58 78 3e
       -0.06091172 -0.0567748 0.17062885 0.24252528
0001d0 a3 c9 bb bc 95 15 7c be b3 00 0b 3b 18 54 ab 3c
       -0.022923296 -0.24617608 0.0021210134 0.020914122
0001e0 7d 7b cc 3c 28 da 55 3d 74 43 a7 3e 76 6b d0 bc
       0.024961228 0.052210003 0.3266865 -0.025441866
0001f0 b8 47 92 bd 6b 69 db bd ef 40 5a bc 62 8c 23 3e
       -0.071425855 -0.10713466 -0.013321145 0.1597152
000200 7c 30 a6 bd c3 a2 0b be 17 f3 ed 3c a6 b9 ba bc
       -0.081147164 -0.13636307 0.029046578 -0.022793602
000210 3b 6d d3 bd 4f ec 31 bc 5a b2 31 3d 3c da d4 3d
       -0.103235684 -0.010859563 0.04338298 0.103931874
000220 ab bf 12 3d 68 5e 7d 3d 4c cd 15 ba 6b 38 36 bd
       0.03582732 0.06185761 -0.00057144905 -0.044487398
000230 4d c8 69 3b 90 50 15 3e 0f 82 b4 3d 96 ff 32 3d
       0.0035672367 0.14581513 0.08813869 0.043700777
000240 fa 52 04 3e b9 2e 94 bd 49 75 b5 bc 89 8d f7 3d
       0.12922278 -0.07235474 -0.022150652 0.120875426
000250 eb dd 54 3d 93 35 70 be 87 0f 61 bd 41 39 85 bc
       0.05196945 -0.23457937 -0.05494645 -0.016262652
000260 15 fa 08 be b8 36 88 bc c0 7c 24 3e 17 2a 2c 3e
       -0.13376649 -0.016627654 0.16063213 0.16812931
000270 d0 b9 23 3e 94 2f cd bc 2f 5e 0b 3e ef a8 fd bd
       0.1598885 -0.025047101 0.13610147 -0.12385737
000280 e8 40 50 3d 22 78 4b be 0d fb 22 bd 8d d0 06 3e
       0.05084315 -0.19870046 -0.039790202 0.13165493
000290 09 b8 11 be 45 07 bb bd 15 11 10 3e c8 1f 04 be
       -0.1423036 -0.09132246 0.14069016 -0.12902749
0002a0 28 c7 67 bc df d6 18 be b1 e0 c5 3d 2e bd 25 be
       -0.014146604 -0.14925717 0.09661997 -0.16185448
0002b0 e8 81 7b 3d 41 f4 8b 3e 9c c2 bb 3d 7e 80 03 bd
       0.061403185 0.27334788 0.09167978 -0.03210496
0002c0 bb 0f 22 3e ea da c5 3d f2 6c 03 3d 2c ab 60 be
       0.15826313 0.09660895 0.03208632 -0.21940297
0002d0 d2 22 f6 3d 5b 79 f8 bd 14 1b 9c bb 11 bf c6 3d
       0.1201836 -0.12132522 -0.00476397 0.09704412
0002e0 dc 54 63 bc 19 14 44 3e a7 ef aa 3d 93 6f 46 3d
       -0.0138752125 0.19148292 0.08346491 0.04844625
0002f0 b0 5c e9 3d e7 b6 a6 3d c3 d2 94 3d 50 c5 aa bd
       0.11394632 0.081403546 0.07266762 -0.083384156
000300 de 3d e1 3c ab a7 0b 3d 7f ca 1d bc 57 6c 48 bb
       0.02749532 0.034095448 -0.009630798 -0.0030582154
000310 33 4c 49 3e c7 dd 84 bd 57 2c 84 bd 29 ce 69 bd
       0.19657974 -0.06487613 -0.0645377 -0.057081375
000320 ea 00 06 be 13 0a 6b 3d fc 08 3c 3d 1f d4 60 3b
       -0.13086286 0.057382654 0.045907006 0.0034306122
000330 a2 13 49 bd 36 3f 52 3c 55 b1 32 bd 6a a1 f7 3c
       -0.04909099 0.0128324535 -0.04362615 0.030228335
000340 28 c8 94 3c 65 cd ec bd 46 84 b9 3b 8d 68 1f 3d
       0.018161848 -0.115626134 0.00566152 0.038918067
000350 9a ad 83 bc e8 80 82 bd 98 fe 5c bd 0b ca a4 3d
       -0.01607399 -0.06372243 -0.053953737 0.08046349
000360 ee 18 ba 3c c0 87 04 3d 48 03 36 3c 4d bb cb 3d
       0.022716966 0.032356024 0.011109181 0.09947834
000370 bb 12 83 bb f4 5d 1d 3c 5b 0a aa 3c d5 1e 96 bc
       -0.0040000356 0.00960492 0.020756891 -0.018325249
000380 43 36 ae bd ce 78 8a 3c 5c e6 60 bd bc 59 45 bd
       -0.08506443 0.016903307 -0.054907188 -0.04818128
000390 07 39 c0 bd 82 45 20 3b d7 37 63 bc 3e 45 ac bd
       -0.09385877 0.0024455492 -0.013868294 -0.084116444
0003a0 7d 73 a7 3d 04 f4 3c 3d 23 ad 09 3c 8a 70 58 bd
       0.081763245 0.04613115 0.008403095 -0.0528417
0003b0 41 64 ee bd 5d d3 0a be d6 48 d5 bb 0b d6 c4 bc
       -0.11640216 -0.13557191 -0.006508927 -0.024027845
0003c0 c9 0b 03 bd 3a 38 2f 3d 50 23 58 3d 4a a4 a0 bd
       -0.03199366 0.04277823 0.05276805 -0.07843836
0003d0 50 22 88 bd 56 3a 5a bd 79 cc 98 bd db 97 6e bd
       -0.066471696 -0.05327829 -0.07460875 -0.05825029
0003e0 cd 92 9d bd fb c7 5f bd d5 6c 37 3c 7f 07 6b 3d
       -0.07694016 -0.054634076 0.011195381 0.057380196
0003f0 fa 54 68 bd 94 14 3d 3d f9 c8 df bd b2 13 d7 bc
       -0.056721665 0.046162203 -0.10927004 -0.026254509

in_layer.bias f4 [10]
000000 78 97 4c bd 25 9c 78 bd 2c 26 cc bd ba 06 4c 3d
       -0.04994914 -0.060695786 -0.09968218 0.049811102
000010 73 07 7c bd ff 0a 92 bd e4 9b 80 3c 6c 16 3f bd
       -0.06153054 -0.071310036 0.015699334 -0.046652243
000020 ed 72 2c be fe 5d e9 bd
       -0.16840716 -0.11394881

out_layer.weight f4 [1, 10]
000000 67 5b 11 bf af 00 1a 3f ce 2c 6a 3e 4f 62 0e bf
       -0.56780094 0.60157293 0.22868654 -0.55618757
000010 81 91 b3 3e 6d 77 75 3e 53 10 a0 3e 74 79 ef 3d
       0.35071948 0.23971339 0.31262454 0.11693087
000020 34 c9 d7 3e 1b dd c7 3e
       0.42145693 0.39035878

mu f4 [100]
000000 59 2e 2f bf fe d7 af bf ce a9 99 bf 85 18 df bf
       -0.68430096 -1.373779 -1.2004945 -1.7429358
000010 08 80 03 c0 1a 7e 31 bf 5b 6e 96 bf df 00 fa bf
       -2.0546894 -0.6933304 -1.1752428 -1.9531516
000020 d1 9f 95 bf 05 e8 7d bf 23 38 51 bf 4d 86 81 bf
       -1.1689397 -0.9918216 -0.8172628 -1.011911
000030 73 1c b3 be b6 91 97 bf 86 df d4 bf 7d 93 1d bf
       -0.34982643 -1.1841342 -1.6630714 -0.61553174
000040 21 3a ec be f9 75 0d c0 9a eb 3c bf 38 e9 63 bf
       -0.461381 -2.2103255 -0.73797 -0.8902774
000050 d7 52 2e bf 71 c4 bf bf cc d5 98 bf e5 a7 d8 bf
       -0.68095154 -1.4981824 -1.1940246 -1.6926237
000060 9d 17 02 c0 43 8f 3a bf fb 6f 98 bf cb cd f6 bf
       -2.0326912 -0.7287485 -1.1909174 -1.9281553
000070 01 01 a0 bf be 2b 75 bf 51 d2 4e bf 75 18 8c bf
       -1.2500306 -0.9576987 -0.8078967 -1.0944964
000080 b4 5b b8 be dd ca a1 bf cb 3b c8 bf 4c 54 1e bf
       -0.36007464 -1.2640034 -1.5643247 -0.61847377
000090 fb f4 e1 be f1 66 11 c0 63 f8 58 bf 42 9e 5c bf
       -0.44132218 -2.271908 -0.8475401 -0.8617898
0000a0 fa a7 25 bf 94 5f b6 bf ce 0c 83 bf b7 ac c6 bf
       -0.64709437 -1.4247918 -1.0238283 -1.5521458
0000b0 b0 09 01 c0 cc e0 31 bf 80 2b 8c bf 7e 8c e5 bf
       -2.0162163 -0.6948364 -1.0950775 -1.79335
0000c0 a9 b8 8f bf 5a b3 95 bf a0 be 8d bf 3d bd 7f bf
       -1.1228229 -1.1695359 -1.1073799 -0.9989813
0000d0 f8 96 17 bf 10 0b ac bf f4 7c c2 bf f1 cb 01 bf
       -0.59214735 -1.3440876 -1.5194383 -0.50701815
0000e0 cd 84 e3 be d9 d6 11 c0 41 fa 57 bf fe 44 83 bf
       -0.44437256 -2.2787383 -0.8436623 -1.025543
0000f0 60 77 1e bf f8 4b b3 bf 88 39 7e bf 55 8d c0 bf
       -0.619009 -1.4007559 -0.99306536 -1.5043131
000100 e4 34 01 c0 96 dc 2a bf bf ea 81 bf 2a a6 de bf
       -2.0188532 -0.6674284 -1.0149764 -1.7394459
000110 aa c9 8e bf bc ab a1 bf 52 7d 99 bf 27 7c 73 bf
       -1.1155293 -1.2630534 -1.199137 -0.95111316
000120 e8 80 2f bf 79 51 b7 bf e2 62 b1 bf b7 7d e8 be
       -0.6855607 -1.4321738 -1.3858302 -0.45408413
000130 1b 2d d1 be 41 38 17 c0 6d f4 6b bf 5d 67 8b bf
       -0.40854725 -2.3628085 -0.9216984 -1.0890919
000140 c6 fd 37 bf 62 30 bf bf 6b b5 ad bf 05 18 fb bf
       -0.718716 -1.493664 -1.3570989 -1.9616705
000150 ae 8d ff bf 58 b9 65 bf 17 2c a9 bf 1e b5 03 c0
       -1.9965112 -0.8973594 -1.321658 -2.0579295
000160 5e 0f a7 bf c4 71 41 bf 39 63 2d bf 4c aa 8e bf
       -1.3051565 -0.7556422 -0.67729527 -1.114572
000170 56 04 a3 be c7 b8 80 bf 62 51 de bf 45 45 43 bf
       -0.31839246 -1.005639 -1.7368586 -0.7627757
000180 16 ab fd be b5 1d 0d c0 81 ca 32 bf 68 b5 29 bf
       -0.4954459 -2.2049382 -0.69840246 -0.6629243

sigma f4 [100]
000000 41 fd d8 3f 92 07 16 40 cb 9a 0d 40 da 1f 2a 40
       1.6952287 2.344212 2.2125728 2.658194
000010 f2 bf 08 40 10 2e ff 3f f1 87 08 40 d0 ec 24 40
       2.1367154 1.9935932 2.1332972 2.576954
000020 5d 2b 0c 40 e5 39 2c 40 f7 af 33 40 31 61 0b 40
       2.1901467 2.6910336 2.807615 2.177807
000030 38 1c 0a 40 70 df 3d 40 7b 12 2d 40 20 a2 08 40
       2.1579723 2.9667625 2.704253 2.1348953
000040 1b 90 be 3f f9 8c 2a 40 f3 41 0f 40 ae 3b 19 40
       1.4887727 2.6648543 2.2384002 2.3942676
000050 46 d5 d4 3f b7 8d 12 40 4e af 0f 40 ac c1 2c 40
       1.6627586 2.2898996 2.2450747 2.6993208
000060 60 e5 0a 40 20 40 fe 3f 2e c7 0a 40 31 f5 26 40
       2.17025 1.9863319 2.168407 2.6087153
000070 a9 6a 0c 40 99 63 2e 40 fa 3c 36 40 a9 9b 06 40
       2.19401 2.724829 2.8474717 2.1032507
000080 d1 b0 0b 40 a9 ee 39 40 22 c7 33 40 42 d6 08 40
       2.182667 2.9051917 2.809029 2.1380773
000090 65 70 bf 3f b9 78 2b 40 bb bb 0a 40 19 6b 1b 40
       1.4956175 2.6792433 2.1677082 2.4284117
0000a0 24 62 d7 3f cf e0 12 40 cf d2 0f 40 b1 91 2d 40
       1.6826825 2.2949712 2.2472417 2.7120173
0000b0 4b b9 0f 40 e1 1c ff 3f fb c4 0a 40 49 3f 28 40
       2.2456844 1.9930688 2.1682727 2.6288626
0000c0 17 5b 0e 40 23 79 2d 40 8a 9d 2d 40 1c 96 07 40
       2.2243097 2.7105186 2.7127404 2.118537
0000d0 93 ca 03 40 5d 27 40 40 11 3b 2f 40 22 e0 07 40
       2.0592391 3.0024025 2.7379801 2.123055
0000e0 b5 a6 c1 3f 6c 1c 31 40 06 dd 0d 40 a2 b4 1c 40
       1.5129 2.7673597 2.2166152 2.448525
0000f0 4b 26 d5 3f 36 3b 12 40 0a 3e 0d 40 26 0b 28 40
       1.6652311 2.284864 2.2069116 2.6256804
000100 e1 6b 0f 40 ec 1c fe 3f 49 e4 0c 40 80 7d 29 40
       2.2409594 1.9852576 2.2014334 2.648285
000110 e0 7e 0d 40 41 ca 2b 40 e2 83 2c 40 72 69 06 40
       2.2108688 2.6842196 2.6955495 2.1001859
000120 1b 45 00 40 85 9b 3e 40 6b eb 34 40 28 95 06 40
       2.0042179 2.9782422 2.8268688 2.1028538
000130 7e 96 c4 3f 33 72 2c 40 60 9f 0b 40 71 92 1b 40
       1.5358427 2.6944702 2.1816025 2.430813
000140 ae 1d d5 3f ae 27 17 40 20 83 11 40 6f 9f 28 40
       1.6649683 2.3617969 2.2736282 2.634731
000150 ae 43 07 40 91 85 01 40 7d 4b 0b 40 c2 fa 2a 40
       2.1135058 2.0237772 2.1764824 2.671555
000160 ce eb 10 40 f8 dc 2f 40 09 8d 32 40 bc 18 13 40
       2.2643924 2.7478619 2.789858 2.2983847
000170 42 d9 02 40 bf 7e 41 40 bc 92 2f 40 d7 66 07 40
       2.0445104 3.023361 2.743331 2.1156518
000180 cc b3 ba 3f 9b 8c 27 40 fe 15 0f 40 68 ae 20 40
       1.458612 2.6179569 2.2357173 2.510645

mu f4 [2]
000000 da f4 9f 3f 1e 34 1b bf
       1.2496598 -0.606264

sigma f4 [2]
000000 48 82 1b 40 72 22 fa 3f
       2.4298267 1.9541762
