output/BL50LO_xx17_15_true_true_zp15_5_5_true_zp15_1exx4_1exx2_64_ELXXrankXXmut-icoreXXselfsimilarity/BL50LO_xx17_15_true_true_zp15_5_5_true_zp15_1exx4_1exx2_64_ELXXrankXXmut-icoreXXselfsimilarity_230601_0102_270Aa/checkpoint_best_kcv_230530_cedar_aligned_f2_BL50LO_xx17_15_true_true_zp15_5_5_true_zp15_1exx4_1exx2_64_ELXXrankXXmut-icoreXXselfsimilarity_230601_0102_270Aa.pt (torch, 15459 bytes, 25 tensors)

ef_inlayer.weight f4 [5, 3]
000000 19 ce 27 be 10 b5 96 bd 0f 7e c9 bc 4c 5e 41 3e
       -0.16387214 -0.07358754 -0.024596242 0.18883628
000010 15 78 11 3d a9 ff 54 3c d4 8c d5 bd 54 a9 1e ba
       0.03551491 0.013000407 -0.104272515 -0.00060524535
000020 c4 fe a7 bc 66 11 cb 3d 41 45 ab ba ea 8a 29 3d
       -0.020507224 0.09915428 -0.0013066904 0.041392244
000030 c8 b0 ac bd 5b b2 41 3a cd e8 6c bd
       -0.08432156 0.0007388943 -0.057839204

ef_inlayer.bias f4 [5]
000000 94 bb 8c 34 09 5f b9 34 54 31 ee 36 a0 31 bb 36
       2.6213513e-07 3.4528082e-07 7.0986953e-06 5.5788114e-06
000010 94 85 8b 36
       4.1580734e-06

ef_outlayer.weight f4 [1, 5]
000000 fe e6 05 3f 52 ee c9 be 6b eb d1 3e 90 76 01 bf
       0.5230559 -0.39439636 0.40999922 -0.50571537
000010 57 02 0b 3f
       0.54300445

ef_bn1.weight f4 [5]
000000 d5 3b 04 3f 23 42 03 3f db b1 c6 3e 1e cf 03 3f
       0.51653796 0.5127279 0.38807568 0.5148791
000010 50 49 07 3f
       0.5284624

ef_bn1.bias f4 [5]
000000 73 24 ca be 80 15 cd 3e ea 70 c5 be d4 5f e3 3e
       -0.39480934 0.40055466 -0.3856271 0.4440905
000010 d7 a9 d0 be
       -0.40754578

ef_bn1.running_mean f4 [5]
000000 2c 53 19 3f 85 11 8b be 36 16 11 3f 81 05 99 bf
       0.59892535 -0.27161804 0.56674516 -1.1954805
000010 8e 26 da 3f
       1.7043016

ef_bn1.running_var f4 [5]
000000 77 ea 0f 3d d3 50 34 3c fc ec 82 3a 88 23 6f 3a
       0.035135712 0.011005598 0.000998884 0.0009122421
000010 d1 06 2c 3a
       0.0006562295

nnalign.in_layer.weight f4 [15, 100]
000000 ca ed 06 bd 63 76 6d bb c6 3d 32 bc 51 1f 87 3c
       -0.032941617 -0.0036233894 -0.010878986 0.016494425
000010 cc bb 18 3c 12 05 08 bd 33 15 95 ba db a7 92 3c
       0.009322118 -0.03320796 -0.0011374116 0.017902305
000020 05 d5 06 bc a6 0e ec bc 48 5a 50 3c ec 25 e6 3c
       -0.008229499 -0.028815579 0.012716837 0.028094254
000030 e4 2a 0d 3d b5 34 2d bd 80 a2 47 3c 52 2a 03 bd
       0.03446473 -0.042286593 0.012184739 -0.03202278
000040 50 51 9f 3b c2 84 35 3c 9a aa 8d 39 46 f2 d9 3c
       0.004861988 0.011079015 0.00027020724 0.026604783
000050 f8 b5 37 bc bb 32 27 ba 8a 70 9c bc 7d 72 03 3d
       -0.011212818 -0.0006378104 -0.019096632 0.032091606
000060 b6 08 54 3c ee 4c 8d 3c eb c3 5b bc 1e 5d 2b bd
       0.01294153 0.017248597 -0.01341341 -0.04183685
000070 b9 21 21 bc 9f 93 fa bb 49 4f 1a bd 26 21 57 bb
       -0.0098347 -0.0076469923 -0.03767327 -0.0032826154
000080 75 61 b3 3c 3c e0 01 3a e3 9e 74 3b 78 01 6e bc
       0.021897057 0.0004954373 0.003732615 -0.014526717
000090 28 12 c4 3c 77 89 27 3c 7b 08 87 bc 85 d2 de bb
       0.023934439 0.010225645 -0.016483536 -0.006799998
0000a0 04 47 c7 bb b0 2e 70 bd 74 62 15 3d 9b 63 70 3c
       -0.006081464 -0.058638275 0.036470845 0.014672185
0000b0 69 de e4 ba 45 72 1c bc df 8f 89 bc 0d 5b 3f bc
       -0.0017461303 -0.009548728 -0.016792236 -0.011679423
0000c0 48 43 b4 ba 92 e3 a7 ba 3c f1 0f 3c 51 30 de bb
       -0.0013752962 -0.001280891 0.008785542 -0.006780662
0000d0 eb 73 95 3c 4b 1a f6 3c 89 6c b4 3b a8 22 ea 3c
       0.01824375 0.030041834 0.0055061025 0.028580979
0000e0 4d 19 58 bc 7a 0b a9 3c 46 3d 96 bb 71 c7 60 bb
       -0.013189626 0.020635355 -0.004584941 -0.0034298564
0000f0 71 a1 7a 3c af f7 f8 bc 43 67 1f bd 1c 4d 9c 3c
       0.01529728 -0.030391542 -0.038916837 0.019079737
000100 ab ce e6 3c 9f fa fc bb bc 24 83 3c ce a3 1a bc
       0.028174719 -0.007720306 0.016008727 -0.009438468
000110 7d a3 0b bb 24 01 17 3b c0 07 6d bc 1a cb 30 3d
       -0.0021307163 0.0023041451 -0.01446718 0.043162443
000120 33 78 b0 bc d0 04 23 3c 36 3f 50 bc 8e 4a 50 bc
       -0.02154169 0.009949878 -0.012710383 -0.012713088
000130 4c 5f f8 3a 29 ac 18 bc 3c 7b 00 3d 19 d9 22 bc
       0.0018949299 -0.00931839 0.031367525 -0.009939455
000140 17 e5 20 3d f9 28 dd 3b 09 e0 17 bc ec c0 f1 bb
       0.039280977 0.006749269 -0.009269723 -0.0073777344
000150 bc 6c cd 39 ab 14 1f bd 6d 27 13 bc 64 ce 5b 3c
       0.0003918166 -0.03883807 -0.008981568 0.013415907
000160 03 90 03 3c e8 9d d0 bc e7 8c 79 3a 89 a0 e8 bc
       0.008029941 -0.02546592 0.0009519592 -0.028396862
000170 e4 38 cb 3c 7c 04 e4 3c 97 2c 99 3c 60 41 6d 3c
       0.024807401 0.02783417 0.01869802 0.014480919
000180 b8 0b 6e bc aa 9e 77 3a f7 ab 6a bc 7e b8 1e bc
       -0.014529161 0.0009445945 -0.014323226 -0.009687541
000190 67 e0 90 bc 8d 31 c1 bb e3 de 12 bd 1f 4b 01 3d
       -0.017685128 -0.0058957995 -0.035857093 0.03156578
0001a0 9d bf fb 3b d4 d5 19 bc 07 ab 98 bb 6d 46 cf 3c
       0.007682754 -0.0093893595 -0.00465906 0.025302136
0001b0 24 33 d1 bb 90 2a 12 bc 2d 10 4d 3c b9 b0 4c bb
       -0.0063842703 -0.0089212805 0.012516064 -0.0031233265
0001c0 59 b9 be 3b 04 86 d8 bc 75 56 21 3c 42 87 1f 3b
       0.005820435 -0.026431091 0.009847273 0.0024342095
0001d0 78 88 20 bc f7 ea 13 3c f9 e8 15 3d fb 77 10 3c
       -0.009798162 0.009028188 0.036599133 0.008817668
0001e0 ba 07 1c bc 13 68 08 bc 83 d1 be bc 62 cd 06 3d
       -0.0095233265 -0.0083255945 -0.023293262 0.032910712
0001f0 21 bf c2 3b 21 f2 dc 3b e3 5b 9a bc b9 58 ab 3c
       0.0059431945 0.006742731 -0.018842643 0.02091633
000200 d1 85 88 bb d4 14 c8 bc 66 56 ce bb fc 3d 3d 3b
       -0.004166343 -0.024423994 -0.0062969206 0.0028876057
000210 ba f6 59 3c 61 a1 a9 bc a4 0c 73 bc 88 28 92 bc
       0.013303453 -0.020706834 -0.014834557 -0.017841592
000220 6f e1 23 bc 83 ed ec b9 65 e7 8d 3c 20 78 c5 bc
       -0.010002478 -0.00045190388 0.017322252 -0.024105132
000230 8c 6b 47 bb 32 6b 27 3c 6f 0f 2f 3d a0 47 b9 3c
       -0.0030429093 0.010218428 0.042739328 0.022617161
000240 7a 19 2f bd d7 2c d9 bc d5 fc 7b bd eb 1d 6a 39
       -0.042748906 -0.02651064 -0.061520416 0.00022327124
000250 d5 13 20 3b 42 47 df b9 b0 aa 05 3d f6 a4 83 bc
       0.0024425883 -0.00042586966 0.032633483 -0.01606987
000260 98 86 74 ba 81 bc 7b 3c e4 b0 69 3b 05 dc b4 3c
       -0.00093279174 0.015364767 0.0035658414 0.02207757
000270 2a 6b a8 3b ad 0a 28 3c e3 64 09 bc f8 85 9b 3b
       0.005139728 0.010256452 -0.00838587 0.004746195
000280 f8 8c 8e 3b 6b f1 97 bc 38 5d 4a bc 6e 93 9b 3b
       0.004350301 -0.018547734 -0.012351327 0.0047477996
000290 6e 3b 8e 3c 11 2e 45 3c 25 d4 b5 bc 40 c0 d9 bc
       0.017362323 0.012034909 -0.022195885 -0.02658093
0002a0 4b df d7 3b 9a d8 a7 bc cc 1f fa bb 02 0f 87 3a
       0.006587898 -0.020489026 -0.007633185 0.0010304155
0002b0 83 7c 2b bc 61 fe 17 bd 4c e3 2d 3b d7 62 57 3c
       -0.010466698 -0.03710783 0.0026533185 0.013146124
0002c0 e8 d6 5c 3c aa 60 8f bc 0a 0f 1c 3d c7 22 ff 3c
       0.013478972 -0.017502148 0.03810028 0.031144513
0002d0 69 e8 3c bb f9 fc cd bc 3b 41 7b 3c 9d 1f a0 bc
       -0.002882505 -0.02514504 0.015335376 -0.019546324
0002e0 16 d0 9d bb 7f 65 a1 bc 31 3c dc bb 6f b8 52 3c
       -0.0048160655 -0.019701717 -0.0067210426 0.012861355
0002f0 39 3e c3 3c da 36 4d bc 3c 0f e3 3b 01 f7 de bc
       0.023833381 -0.012525285 0.0069293063 -0.02721739
000300 b6 6d ad 3c ef 5d de 3b 7b 72 ae 3b 50 fc bb bc
       0.021170478 0.0067861 0.0053237057 -0.02294746
000310 18 d0 cd 3c c5 52 ae 3b df bc ee ba bf e4 89 3a
       0.02512364 0.0053199255 -0.0018214247 0.0010520442
000320 94 a1 3a bc 34 c7 6b bc 4c 4d aa bc c4 d7 b2 3c
       -0.011391062 -0.014390755 -0.020788811 0.0218314
000330 10 bc 48 3b c6 b3 e5 bc ec c1 e8 3c 04 6a a9 3c
       0.0030629672 -0.028039824 0.028412782 0.020680435
000340 6e 1c b2 bc e4 c9 85 bc 55 69 9c bb bc dc 7a 3c
       -0.021742072 -0.01633162 -0.0047732987 0.015311416
000350 08 ff ec 3c 02 a0 1e bd 15 0d 3d bc 77 4a 67 bc
       0.028930202 -0.038726814 -0.0115387635 -0.014116875
000360 7b 32 65 bc ec 4e c6 3b 73 13 bc 3c b2 d2 a3 3c
       -0.013989086 0.0060518887 0.022958493 0.019997928
000370 f3 8d 8f 3b 72 ad 29 3c 5a c4 3e bc 4a 5a 02 3d
       0.0043809353 0.010356294 -0.011643494 0.031824388
000380 8c 19 01 3c b8 40 0d 3c 05 10 1a bd bd 9f 81 3c
       0.007879626 0.008621387 -0.037612934 0.01582324
000390 43 5c 9a bb c2 bc 08 3c 76 9f 0b bc 25 94 8e 3c
       -0.0047107055 0.008345785 -0.008521905 0.017404625
0003a0 0d 9d 9e 3c 91 e1 82 3b 81 fd b9 bc bd 9b 4e 39
       0.019361997 0.003994175 -0.022703888 0.00019703708
0003b0 e8 54 3b 3b 37 d6 42 3c 4d 27 c6 3b eb 34 42 ba
       0.0028584544 0.011891893 0.0060471655 -0.0007408398
0003c0 45 14 bf bb d0 bd 43 3b ee dd 80 bc 5e 2b 26 bc
       -0.0058312737 0.0029867776 -0.015730824 -0.0101421755
0003d0 e5 38 36 3c f9 ae 42 3a ab b1 7a 3c b2 77 86 ba
       0.011121963 0.00074265857 0.015301148 -0.0010259061
0003e0 ef 72 22 3c 6f 39 ab bb b2 6c 23 3c da c8 4f bb
       0.009915098 -0.0052253525 0.009974645 -0.003170541
0003f0 9a 92 91 bb e6 2a 28 3b 46 03 53 3c 20 21 a9 3c
       -0.004442525 0.0025660335 0.012879198 0.020645678

nnalign.in_layer.bias f4 [15]
000000 54 a1 6b b5 b4 13 3f 36 57 66 98 b6 22 b1 aa b5
       -8.7779085e-07 2.8472687e-06 -4.541867e-06 -1.271754e-06
000010 79 5d 2e 36 60 82 09 b5 33 03 69 35 d0 9a 3c 36
       2.5982429e-06 -5.12262e-07 8.680392e-07 2.8104296e-06
000020 b3 07 a9 35 4c 2f 7f b5 cd aa 31 b7 14 fe a3 35
       1.2593722e-06 -9.506373e-07 -1.058979e-05 1.2218393e-06
000030 d4 d8 79 b5 48 a3 4d b6 5a 4c 82 b5
       -9.3075255e-07 -3.0642423e-06 -9.707976e-07

nnalign.out_layer.weight f4 [1, 15]
000000 8b 2d 14 be 25 3e 29 be 9f ce 22 be 54 fb 15 3e
       -0.14470498 -0.16527613 -0.15899132 0.14646655
000010 ce 88 11 3e 56 bd 1e be 81 2e 22 3e f8 f5 17 3e
       0.14212343 -0.15501913 0.15838052 0.14839923
000020 c6 71 12 3e 14 b2 21 be e6 0d 17 3e 09 f1 1f be
       0.14301214 -0.15790588 0.14751396 -0.15619291
000030 40 c7 10 3e f3 27 18 be fc eb 0d 3e
       0.14138508 -0.1485899 0.13859552

nnalign.bn1.weight f4 [15]
000000 dc 4c a3 3e dc 2d c6 3e 8d 4b b2 3e 14 f3 76 3e
       0.31894577 0.38706863 0.34823266 0.24116164
000010 f4 9f 47 3e 22 27 cc 3e 75 4c 77 3e c5 10 55 3e
       0.19494611 0.39873606 0.2415026 0.20807178
000020 19 c3 4f 3e 46 79 cf 3e 96 2b 6b 3e 4b ad be 3e
       0.20289268 0.40522212 0.22965845 0.37241587
000030 b5 9a 44 3e 2f 4d 9f 3e 39 e6 95 3e
       0.19199641 0.31113574 0.29277208

nnalign.bn1.bias f4 [15]
000000 50 49 2c bc b1 91 17 bd 2d 3b b2 bb 65 90 fd bc
       -0.010515526 -0.037004177 -0.005439183 -0.030952642
000010 bc 9a f8 bc a3 16 ce bc 3b d2 b0 bc 91 94 de bc
       -0.03034722 -0.025157278 -0.02158462 -0.027170451
000020 8a 58 5a bc f8 dc fc bc 77 ed 08 bc 7e f3 82 bc
       -0.013326773 -0.030867085 -0.008357397 -0.015985247
000030 ae 36 bc bc 6f f3 78 bb 1c dd 5d bd
       -0.022975292 -0.0037986895 -0.054165944

nnalign.bn1.running_mean f4 [15]
000000 3e e9 af bb 20 fa 52 3c 83 fc 84 3b b2 12 ac 3b
       -0.005368381 0.012877017 0.004058422 0.005251252
000010 6a 20 42 3d ca b5 34 3c 74 d8 61 3d ff 49 f8 3c
       0.047394194 0.01102967 0.055138066 0.030308722
000020 2b e8 53 3d 42 0d 0e 3b 73 e7 46 3c 13 57 a2 3b
       0.051735085 0.0021675383 0.012140143 0.0049542277
000030 8c 31 cf 3c d6 de a6 bb 24 e5 73 3a
       0.02529218 -0.005092482 0.0009303859

nnalign.bn1.running_var f4 [15]
000000 4b d5 a9 3c 2b c6 a7 3c 36 4c 18 3c 80 a7 ef 3b
       0.020731589 0.020480236 0.009295514 0.0073136687
000010 76 4b 10 3d f8 be 94 3c 30 1b 28 3d cc 17 72 3c
       0.035228215 0.018157467 0.041041553 0.014776181
000020 f6 d0 57 3d bb 78 79 3c 37 ac 21 3c f3 8f ed 3c
       0.052689515 0.015226538 0.009867719 0.028999304
000030 92 56 98 3c 8c 04 98 3c 10 be 1f 3d
       0.018595967 0.018556856 0.038999617

in_layer.weight f4 [15, 100]
000000 ca ed 06 bd 63 76 6d bb c6 3d 32 bc 51 1f 87 3c
       -0.032941617 -0.0036233894 -0.010878986 0.016494425
000010 cc bb 18 3c 12 05 08 bd 33 15 95 ba db a7 92 3c
       0.009322118 -0.03320796 -0.0011374116 0.017902305
000020 05 d5 06 bc a6 0e ec bc 48 5a 50 3c ec 25 e6 3c
       -0.008229499 -0.028815579 0.012716837 0.028094254
000030 e4 2a 0d 3d b5 34 2d bd 80 a2 47 3c 52 2a 03 bd
       0.03446473 -0.042286593 0.012184739 -0.03202278
000040 50 51 9f 3b c2 84 35 3c 9a aa 8d 39 46 f2 d9 3c
       0.004861988 0.011079015 0.00027020724 0.026604783
000050 f8 b5 37 bc bb 32 27 ba 8a 70 9c bc 7d 72 03 3d
       -0.011212818 -0.0006378104 -0.019096632 0.032091606
000060 b6 08 54 3c ee 4c 8d 3c eb c3 5b bc 1e 5d 2b bd
       0.01294153 0.017248597 -0.01341341 -0.04183685
000070 b9 21 21 bc 9f 93 fa bb 49 4f 1a bd 26 21 57 bb
       -0.0098347 -0.0076469923 -0.03767327 -0.0032826154
000080 75 61 b3 3c 3c e0 01 3a e3 9e 74 3b 78 01 6e bc
       0.021897057 0.0004954373 0.003732615 -0.014526717
000090 28 12 c4 3c 77 89 27 3c 7b 08 87 bc 85 d2 de bb
       0.023934439 0.010225645 -0.016483536 -0.006799998
0000a0 04 47 c7 bb b0 2e 70 bd 74 62 15 3d 9b 63 70 3c
       -0.006081464 -0.058638275 0.036470845 0.014672185
0000b0 69 de e4 ba 45 72 1c bc df 8f 89 bc 0d 5b 3f bc
       -0.0017461303 -0.009548728 -0.016792236 -0.011679423
0000c0 48 43 b4 ba 92 e3 a7 ba 3c f1 0f 3c 51 30 de bb
       -0.0013752962 -0.001280891 0.008785542 -0.006780662
0000d0 eb 73 95 3c 4b 1a f6 3c 89 6c b4 3b a8 22 ea 3c
       0.01824375 0.030041834 0.0055061025 0.028580979
0000e0 4d 19 58 bc 7a 0b a9 3c 46 3d 96 bb 71 c7 60 bb
       -0.013189626 0.020635355 -0.004584941 -0.0034298564
0000f0 71 a1 7a 3c af f7 f8 bc 43 67 1f bd 1c 4d 9c 3c
       0.01529728 -0.030391542 -0.038916837 0.019079737
000100 ab ce e6 3c 9f fa fc bb bc 24 83 3c ce a3 1a bc
       0.028174719 -0.007720306 0.016008727 -0.009438468
000110 7d a3 0b bb 24 01 17 3b c0 07 6d bc 1a cb 30 3d
       -0.0021307163 0.0023041451 -0.01446718 0.043162443
000120 33 78 b0 bc d0 04 23 3c 36 3f 50 bc 8e 4a 50 bc
       -0.02154169 0.009949878 -0.012710383 -0.012713088
000130 4c 5f f8 3a 29 ac 18 bc 3c 7b 00 3d 19 d9 22 bc
       0.0018949299 -0.00931839 0.031367525 -0.009939455
000140 17 e5 20 3d f9 28 dd 3b 09 e0 17 bc ec c0 f1 bb
       0.039280977 0.006749269 -0.009269723 -0.0073777344
000150 bc 6c cd 39 ab 14 1f bd 6d 27 13 bc 64 ce 5b 3c
       0.0003918166 -0.03883807 -0.008981568 0.013415907
000160 03 90 03 3c e8 9d d0 bc e7 8c 79 3a 89 a0 e8 bc
       0.008029941 -0.02546592 0.0009519592 -0.028396862
000170 e4 38 cb 3c 7c 04 e4 3c 97 2c 99 3c 60 41 6d 3c
       0.024807401 0.02783417 0.01869802 0.014480919
000180 b8 0b 6e bc aa 9e 77 3a f7 ab 6a bc 7e b8 1e bc
       -0.014529161 0.0009445945 -0.014323226 -0.009687541
000190 67 e0 90 bc 8d 31 c1 bb e3 de 12 bd 1f 4b 01 3d
       -0.017685128 -0.0058957995 -0.035857093 0.03156578
0001a0 9d bf fb 3b d4 d5 19 bc 07 ab 98 bb 6d 46 cf 3c
       0.007682754 -0.0093893595 -0.00465906 0.025302136
0001b0 24 33 d1 bb 90 2a 12 bc 2d 10 4d 3c b9 b0 4c bb
       -0.0063842703 -0.0089212805 0.012516064 -0.0031233265
0001c0 59 b9 be 3b 04 86 d8 bc 75 56 21 3c 42 87 1f 3b
       0.005820435 -0.026431091 0.009847273 0.0024342095
0001d0 78 88 20 bc f7 ea 13 3c f9 e8 15 3d fb 77 10 3c
       -0.009798162 0.009028188 0.036599133 0.008817668
0001e0 ba 07 1c bc 13 68 08 bc 83 d1 be bc 62 cd 06 3d
       -0.0095233265 -0.0083255945 -0.023293262 0.032910712
0001f0 21 bf c2 3b 21 f2 dc 3b e3 5b 9a bc b9 58 ab 3c
       0.0059431945 0.006742731 -0.018842643 0.02091633
000200 d1 85 88 bb d4 14 c8 bc 66 56 ce bb fc 3d 3d 3b
       -0.004166343 -0.024423994 -0.0062969206 0.0028876057
000210 ba f6 59 3c 61 a1 a9 bc a4 0c 73 bc 88 28 92 bc
       0.013303453 -0.020706834 -0.014834557 -0.017841592
000220 6f e1 23 bc 83 ed ec b9 65 e7 8d 3c 20 78 c5 bc
       -0.010002478 -0.00045190388 0.017322252 -0.024105132
000230 8c 6b 47 bb 32 6b 27 3c 6f 0f 2f 3d a0 47 b9 3c
       -0.0030429093 0.010218428 0.042739328 0.022617161
000240 7a 19 2f bd d7 2c d9 bc d5 fc 7b bd eb 1d 6a 39
       -0.042748906 -0.02651064 -0.061520416 0.00022327124
000250 d5 13 20 3b 42 47 df b9 b0 aa 05 3d f6 a4 83 bc
       0.0024425883 -0.00042586966 0.032633483 -0.01606987
000260 98 86 74 ba 81 bc 7b 3c e4 b0 69 3b 05 dc b4 3c
       -0.00093279174 0.015364767 0.0035658414 0.02207757
000270 2a 6b a8 3b ad 0a 28 3c e3 64 09 bc f8 85 9b 3b
       0.005139728 0.010256452 -0.00838587 0.004746195
000280 f8 8c 8e 3b 6b f1 97 bc 38 5d 4a bc 6e 93 9b 3b
       0.004350301 -0.018547734 -0.012351327 0.0047477996
000290 6e 3b 8e 3c 11 2e 45 3c 25 d4 b5 bc 40 c0 d9 bc
       0.017362323 0.012034909 -0.022195885 -0.02658093
0002a0 4b df d7 3b 9a d8 a7 bc cc 1f fa bb 02 0f 87 3a
       0.006587898 -0.020489026 -0.007633185 0.0010304155
0002b0 83 7c 2b bc 61 fe 17 bd 4c e3 2d 3b d7 62 57 3c
       -0.010466698 -0.03710783 0.0026533185 0.013146124
0002c0 e8 d6 5c 3c aa 60 8f bc 0a 0f 1c 3d c7 22 ff 3c
       0.013478972 -0.017502148 0.03810028 0.031144513
0002d0 69 e8 3c bb f9 fc cd bc 3b 41 7b 3c 9d 1f a0 bc
       -0.002882505 -0.02514504 0.015335376 -0.019546324
0002e0 16 d0 9d bb 7f 65 a1 bc 31 3c dc bb 6f b8 52 3c
       -0.0048160655 -0.019701717 -0.0067210426 0.012861355
0002f0 39 3e c3 3c da 36 4d bc 3c 0f e3 3b 01 f7 de bc
       0.023833381 -0.012525285 0.0069293063 -0.02721739
000300 b6 6d ad 3c ef 5d de 3b 7b 72 ae 3b 50 fc bb bc
       0.021170478 0.0067861 0.0053237057 -0.02294746
000310 18 d0 cd 3c c5 52 ae 3b df bc ee ba bf e4 89 3a
       0.02512364 0.0053199255 -0.0018214247 0.0010520442
000320 94 a1 3a bc 34 c7 6b bc 4c 4d aa bc c4 d7 b2 3c
       -0.011391062 -0.014390755 -0.020788811 0.0218314
000330 10 bc 48 3b c6 b3 e5 bc ec c1 e8 3c 04 6a a9 3c
       0.0030629672 -0.028039824 0.028412782 0.020680435
000340 6e 1c b2 bc e4 c9 85 bc 55 69 9c bb bc dc 7a 3c
       -0.021742072 -0.01633162 -0.0047732987 0.015311416
000350 08 ff ec 3c 02 a0 1e bd 15 0d 3d bc 77 4a 67 bc
       0.028930202 -0.038726814 -0.0115387635 -0.014116875
000360 7b 32 65 bc ec 4e c6 3b 73 13 bc 3c b2 d2 a3 3c
       -0.013989086 0.0060518887 0.022958493 0.019997928
000370 f3 8d 8f 3b 72 ad 29 3c 5a c4 3e bc 4a 5a 02 3d
       0.0043809353 0.010356294 -0.011643494 0.031824388
000380 8c 19 01 3c b8 40 0d 3c 05 10 1a bd bd 9f 81 3c
       0.007879626 0.008621387 -0.037612934 0.01582324
000390 43 5c 9a bb c2 bc 08 3c 76 9f 0b bc 25 94 8e 3c
       -0.0047107055 0.008345785 -0.008521905 0.017404625
0003a0 0d 9d 9e 3c 91 e1 82 3b 81 fd b9 bc bd 9b 4e 39
       0.019361997 0.003994175 -0.022703888 0.00019703708
0003b0 e8 54 3b 3b 37 d6 42 3c 4d 27 c6 3b eb 34 42 ba
       0.0028584544 0.011891893 0.0060471655 -0.0007408398
0003c0 45 14 bf bb d0 bd 43 3b ee dd 80 bc 5e 2b 26 bc
       -0.0058312737 0.0029867776 -0.015730824 -0.0101421755
0003d0 e5 38 36 3c f9 ae 42 3a ab b1 7a 3c b2 77 86 ba
       0.011121963 0.00074265857 0.015301148 -0.0010259061
0003e0 ef 72 22 3c 6f 39 ab bb b2 6c 23 3c da c8 4f bb
       0.009915098 -0.0052253525 0.009974645 -0.003170541
0003f0 9a 92 91 bb e6 2a 28 3b 46 03 53 3c 20 21 a9 3c
       -0.004442525 0.0025660335 0.012879198 0.020645678

in_layer.bias f4 [15]
000000 54 a1 6b b5 b4 13 3f 36 57 66 98 b6 22 b1 aa b5
       -8.7779085e-07 2.8472687e-06 -4.541867e-06 -1.271754e-06
000010 79 5d 2e 36 60 82 09 b5 33 03 69 35 d0 9a 3c 36
       2.5982429e-06 -5.12262e-07 8.680392e-07 2.8104296e-06
000020 b3 07 a9 35 4c 2f 7f b5 cd aa 31 b7 14 fe a3 35
       1.2593722e-06 -9.506373e-07 -1.058979e-05 1.2218393e-06
000030 d4 d8 79 b5 48 a3 4d b6 5a 4c 82 b5
       -9.3075255e-07 -3.0642423e-06 -9.707976e-07

out_layer.weight f4 [1, 15]
000000 8b 2d 14 be 25 3e 29 be 9f ce 22 be 54 fb 15 3e
       -0.14470498 -0.16527613 -0.15899132 0.14646655
000010 ce 88 11 3e 56 bd 1e be 81 2e 22 3e f8 f5 17 3e
       0.14212343 -0.15501913 0.15838052 0.14839923
000020 c6 71 12 3e 14 b2 21 be e6 0d 17 3e 09 f1 1f be
       0.14301214 -0.15790588 0.14751396 -0.15619291
000030 40 c7 10 3e f3 27 18 be fc eb 0d 3e
       0.14138508 -0.1485899 0.13859552

bn1.weight f4 [15]
000000 dc 4c a3 3e dc 2d c6 3e 8d 4b b2 3e 14 f3 76 3e
       0.31894577 0.38706863 0.34823266 0.24116164
000010 f4 9f 47 3e 22 27 cc 3e 75 4c 77 3e c5 10 55 3e
       0.19494611 0.39873606 0.2415026 0.20807178
000020 19 c3 4f 3e 46 79 cf 3e 96 2b 6b 3e 4b ad be 3e
       0.20289268 0.40522212 0.22965845 0.37241587
000030 b5 9a 44 3e 2f 4d 9f 3e 39 e6 95 3e
       0.19199641 0.31113574 0.29277208

bn1.bias f4 [15]
000000 50 49 2c bc b1 91 17 bd 2d 3b b2 bb 65 90 fd bc
       -0.010515526 -0.037004177 -0.005439183 -0.030952642
000010 bc 9a f8 bc a3 16 ce bc 3b d2 b0 bc 91 94 de bc
       -0.03034722 -0.025157278 -0.02158462 -0.027170451
000020 8a 58 5a bc f8 dc fc bc 77 ed 08 bc 7e f3 82 bc
       -0.013326773 -0.030867085 -0.008357397 -0.015985247
000030 ae 36 bc bc 6f f3 78 bb 1c dd 5d bd
       -0.022975292 -0.0037986895 -0.054165944

bn1.running_mean f4 [15]
000000 3e e9 af bb 20 fa 52 3c 83 fc 84 3b b2 12 ac 3b
       -0.005368381 0.012877017 0.004058422 0.005251252
000010 6a 20 42 3d ca b5 34 3c 74 d8 61 3d ff 49 f8 3c
       0.047394194 0.01102967 0.055138066 0.030308722
000020 2b e8 53 3d 42 0d 0e 3b 73 e7 46 3c 13 57 a2 3b
       0.051735085 0.0021675383 0.012140143 0.0049542277
000030 8c 31 cf 3c d6 de a6 bb 24 e5 73 3a
       0.02529218 -0.005092482 0.0009303859

bn1.running_var f4 [15]
000000 4b d5 a9 3c 2b c6 a7 3c 36 4c 18 3c 80 a7 ef 3b
       0.020731589 0.020480236 0.009295514 0.0073136687
000010 76 4b 10 3d f8 be 94 3c 30 1b 28 3d cc 17 72 3c
       0.035228215 0.018157467 0.041041553 0.014776181
000020 f6 d0 57 3d bb 78 79 3c 37 ac 21 3c f3 8f ed 3c
       0.052689515 0.015226538 0.009867719 0.028999304
000030 92 56 98 3c 8c 04 98 3c 10 be 1f 3d
       0.018595967 0.018556856 0.038999617

mu f4 [100]
000000 8d 0f 28 bf eb a3 b1 bf 7a cd 9c bf 9c 87 e3 bf
       -0.6564873 -1.3878149 -1.2250206 -1.777576
000010 39 42 03 c0 28 ee 30 bf bb 4a 97 bf da 75 fa bf
       -2.050917 -0.691134 -1.1819681 -1.9567215
000020 a0 b9 97 bf 97 45 74 bf 38 ad 49 bf ca 5d 82 bf
       -1.1853523 -0.95418686 -0.78779936 -1.0184872
000030 e6 58 a2 be d3 49 98 bf 88 d3 d5 bf d3 8b 20 bf
       -0.3170845 -1.1897529 -1.6705179 -0.62713355
000040 ee 9d ed be 14 71 0d c0 99 b6 3f bf 30 19 5a bf
       -0.46409553 -2.2100267 -0.74887997 -0.85194683
000050 b4 10 2a bf 9c 00 c1 bf ac 20 9c bf c9 d9 dd bf
       -0.66431737 -1.5078311 -1.2197471 -1.7332088
000060 83 eb 01 c0 b1 ea 3a bf ab cc 99 bf f4 3b f8 bf
       -2.0299995 -0.7301436 -1.2015585 -1.9393296
000070 bc b5 a2 bf a7 23 6b bf cb 46 45 bf da c4 8d bf
       -1.2711711 -0.91851276 -0.77061146 -1.1075699
000080 de a0 a5 be 79 e1 a0 bf ab ee ca bf 0e 62 23 bf
       -0.32349294 -1.2568809 -1.5854086 -0.63821495
000090 f5 39 e3 be 77 76 10 c0 f2 c2 59 bf f5 8a 52 bf
       -0.44380155 -2.2572305 -0.8506309 -0.8224328
0000a0 76 07 23 bf 00 5c b6 bf 1b 08 87 bf 14 b3 cc bf
       -0.6368326 -1.4246826 -1.0549349 -1.599215
0000b0 63 d4 00 c0 43 78 2e bf e2 3b 8d bf 88 e6 e8 bf
       -2.012963 -0.68152255 -1.10339 -1.8195353
0000c0 e2 c3 91 bf 5f 83 8f bf 82 f2 86 bf fe 03 81 bf
       -1.1387904 -1.1211966 -1.0542758 -1.0079343
0000d0 c6 1a 0a bf bc a4 aa bf 2f b5 c7 bf 4a 85 09 bf
       -0.53947103 -1.3331523 -1.5602168 -0.5371901
0000e0 0b 1a e7 be 65 40 10 c0 5f 14 56 bf c3 8e 7a bf
       -0.45137057 -2.2539303 -0.83624834 -0.9787409
0000f0 44 7c 1e bf 21 a8 b2 bf 9b 5c 81 bf 3d c6 c3 bf
       -0.61908364 -1.3957559 -1.0106386 -1.5294873
000100 72 63 01 c0 b6 e3 24 bf f1 e0 81 bf c3 63 e1 bf
       -2.0216947 -0.6440996 -1.0146772 -1.760857
000110 ff 19 90 bf eb 89 9c bf 89 94 93 bf 93 18 73 bf
       -1.1257933 -1.2229589 -1.1529704 -0.9495937
000120 c1 e0 23 bf 05 34 b7 bf af 0b b7 bf 0b a7 f5 be
       -0.6401482 -1.431275 -1.430044 -0.47979006
000130 5c 7f d4 be 76 2a 16 c0 94 44 6b bf d4 c9 86 bf
       -0.41503417 -2.3463416 -0.91901517 -1.0530343
000140 cb 7f 3a bf 16 dd bf bf 90 5c b0 bf e9 ed fd bf
       -0.72851247 -1.4989345 -1.3778248 -1.983823
000150 a5 8c ff bf 4d 75 61 bf 97 1a aa bf 5f a2 05 c0
       -1.9964796 -0.8806961 -1.3289365 -2.0880353
000160 37 1a a9 bf 03 56 36 bf a7 32 1f bf 55 91 8f bf
       -1.3211125 -0.71224993 -0.62186664 -1.1216227
000170 80 6f 8b be cc 2f 80 bf 9f 8e e3 bf b6 9f 4a bf
       -0.27233505 -1.0014586 -1.77779 -0.7914995
000180 d0 09 00 bf 72 ff 0b c0 81 63 33 bf 27 9f 20 bf
       -0.5001497 -2.1874661 -0.70073706 -0.6274285

sigma f4 [100]
000000 30 65 da 3f 12 b4 15 40 13 81 0c 40 ff 31 28 40
       1.706213 2.3391156 2.195378 2.6280515
000010 43 64 07 40 e3 b6 00 40 1b 26 09 40 90 33 25 40
       2.1154945 2.0111625 2.1429508 2.5812721
000020 09 b2 0c 40 a4 5e 2c 40 f5 89 33 40 c9 5f 0b 40
       2.1983664 2.6932764 2.8052952 2.1777213
000030 67 1b 0a 40 ef 98 3b 40 fe 7d 2c 40 8e 41 08 40
       2.1579225 2.9312093 2.69519 2.1290011
000040 d3 0d bd 3f 69 98 29 40 1e 4f 0d 40 a2 64 19 40
       1.4769844 2.6499274 2.207954 2.3967671
000050 69 1f d6 3f 37 af 12 40 7c 92 0f 40 c1 3a 2b 40
       1.6728336 2.2919443 2.2433157 2.675461
000060 35 c4 09 40 43 45 00 40 7c 4c 0b 40 c6 70 27 40
       2.1526005 2.0042274 2.1765432 2.6162581
000070 99 88 0c 40 a5 61 2e 40 ef 34 36 40 08 9f 06 40
       2.1958373 2.7247097 2.8469808 2.1034565
000080 49 ba 0b 40 ca 3f 38 40 34 cc 32 40 49 83 08 40
       2.183245 2.8788934 2.7937136 2.133013
000090 68 40 be 3f b7 24 2b 40 29 0e 09 40 b3 7f 1b 40
       1.4863405 2.674116 2.1414893 2.4296691
0000a0 bd 79 d8 3f ef 39 13 40 5f a5 0f 40 ba 0f 2c 40
       1.6912152 2.300411 2.2444685 2.6884599
0000b0 70 cd 0e 40 96 83 01 40 34 74 0b 40 cd 65 28 40
       2.231289 2.0236564 2.1789675 2.6312134
0000c0 f4 cf 0e 40 3c a6 2d 40 7a c7 2d 40 f8 cd 07 40
       2.2314425 2.7132711 2.7153 2.1219463
0000d0 36 06 04 40 b2 10 3e 40 28 fa 2c 40 0a 6d 07 40
       2.062879 2.969769 2.7027683 2.1160302
0000e0 65 e8 bf 3f 1f e2 30 40 9e 8c 0c 40 f5 e6 1c 40
       1.4992796 2.7638013 2.1960826 2.4515965
0000f0 7c f2 d4 3f 3d 77 12 40 8e 50 0d 40 6f 97 27 40
       1.66365 2.2885277 2.2080417 2.6186178
000100 ef b7 0e 40 cb 3a 01 40 ac c4 0d 40 79 93 29 40
       2.2299764 2.0192134 2.215129 2.649626
000110 c6 a2 0d 40 12 4e 2c 40 1d e0 2c 40 ec 13 07 40
       2.21306 2.692265 2.7011788 2.110591
000120 26 a8 00 40 d0 dd 3c 40 c3 e8 31 40 bb 27 06 40
       2.010263 2.9510384 2.7798316 2.096175
000130 6d 18 c3 3f a1 07 2c 40 a8 47 0a 40 d5 1e 1c 40
       1.5241829 2.6879656 2.1606236 2.4393818
000140 9b 85 d4 3f 08 3d 17 40 b2 10 12 40 85 cf 28 40
       1.6603273 2.3631 2.282269 2.637666
000150 ae e2 06 40 a1 68 03 40 b0 cf 0b 40 41 92 2a 40
       2.1075854 2.053261 2.1845512 2.6651766
000160 15 20 11 40 c9 f8 2f 40 b2 f1 32 40 19 98 13 40
       2.2675831 2.7495596 2.796002 2.3061583
000170 16 f3 02 40 1b 9f 3f 40 d4 48 2d 40 59 1b 07 40
       2.0460868 2.994086 2.70757 2.1110442
000180 0b a7 b9 3f 1b 8f 27 40 82 80 0d 40 fe cc 20 40
       1.4504102 2.6181095 2.2109685 2.5125117

mu f4 [2]
000000 50 35 a2 3f 03 df 72 3f
       1.267252 0.9487154

sigma f4 [2]
000000 7d e4 1b 40 fb ca f9 3c
       2.4358208 0.030492296
