output/carlos_experiments/231201_2hl_wd1e-4_bs256_MSdata0.15/KF1/checkpoint_best_kcv_MS_C00_data_reduced_0_f01_CSL_hp_2hl_wd1e-4_bs256_MSdata0.15_KFold_1_231130_1045_None.pt (torch, 229207 bytes, 5 tensors)

in_layer.weight f4 [60, 914]
0.03769165 -0.06803384 0.121032126 0.02279585 -0.031061519 -0.052000977 -0.08015009 0.059211977
0.00874181 0.091102675 -0.05354833 0.031419937 -0.021811707 0.040183403 -0.054271378 -0.052479357
-0.10881115 -0.007193401 0.05518586 -0.022305593 0.12107192 0.008425526 -0.06262319 0.0058523226
0.018560449 0.07182968 -0.060017515 -0.0013977634 0.051029075 0.023160517 -0.01597332 0.012184699
-0.019515242 0.024062974 0.0067727393 0.06247766 -0.016749265 -0.013109733 0.094674386 0.04094219
0.06749707 0.0005150056 0.08569665 0.04606261 -0.040606406 0.03376835 -0.10988238 -0.0047980594
-0.038832597 0.039536364 0.07305995 -0.042725712 0.07267544 -0.010062339 -0.025778988 0.05854852
-0.08123306 -0.006615444 0.0748525 0.0054748477 0.015242446 -0.13917449 0.02696585 0.14802554
0.121748604 -0.07682213 -0.10955488 -0.079869375 -0.133658 0.0998231 -0.06628421 -0.1394822
0.031756964 0.02765254 0.09523225 0.28988722 0.18736146 -0.07951979 -0.0057410807 0.10744213
-0.1695162 -0.03853876 0.07227102 -0.03601473 -0.02528928 0.02985879 0.058095954 0.06990269
-0.026317231 0.009588144 0.055606842 0.07923308 -0.016846936 0.0026762683 -0.049297456 0.025162242
0.13280025 0.06140446 -0.000520093 0.03731615 -0.004643112 0.06857757 -0.046441868 0.10271054
0.01477047 -0.03361249 -0.061333906 -0.010721536 0.026153803 0.04383733 -0.091404065 -0.04358469
0.0009752097 -0.1546941 0.026782546 -0.037856817 -0.030577708 -0.04501106 0.07582569 0.13302615
0.06305689 0.0047336277 0.12626515 -0.12832381 -0.020236637 0.015786143 -0.016988749 -0.04756783
0.012592152 -0.04240175 0.102108486 -0.12848155 0.09198809 -0.11146289 0.07759051 0.11382796
-0.0070293113 0.052967116 -0.043637548 0.06311338 -0.072220296 -0.08069584 -0.09387278 0.06382618
-0.05703716 0.06881585 -0.012085899 0.048878364 0.008795142 0.04969017 -0.060266078 -0.039867856
0.020458981 0.12040666 0.01669904 0.008131503 0.058719374 -0.022721123 -0.107996605 -0.053799428
-0.112881 0.037090406 -0.11787323 0.04739599 -0.047895856 -0.025810929 0.07468086 -0.09472075
-0.030957991 -0.00954738 -0.00460305 -0.0558195 -0.034006972 -0.009105532 -0.014056511 -0.051543586
-0.087307654 -0.056022093 -0.04140484 -0.020865897 0.010311989 0.04245351 0.041912172 0.05822669
-0.048902024 0.04856922 0.04817538 0.04075021 0.02925129 0.011780422 -0.030600207 0.07031714
-0.0058251745 -0.008675067 0.031929325 0.011202929 0.035876416 -0.012738865 0.008896185 0.03258223
-0.022129823 0.007922866 0.009902265 0.04615304 -0.06474036 0.025572672 0.039570708 0.0051337886
0.022652019 -0.0271969 -0.047015544 0.0416022 -0.033084266 -0.036920756 0.04189782 -0.016661067
-0.012827943 -0.030571995 -0.010591233 -0.00919843 0.13926321 -0.13660133 -0.1842151 0.18808696
2.2652917e-38 0.14080478 0.050159093 0.041198924 0.030066648 -0.02682672 -0.07574963 -0.029306907
-0.028166983 -0.10518921 0.003899847 -0.009629655 -0.00025858133 -0.0036834544 0.05075851 -0.01459672
-0.0035863842 0.0018378817 -0.016197294 -0.0012830003 -0.0023061004 -0.002999874 -0.0060880403 -0.01894765
-0.0026832272 0.0026891176 0.0040688682 -0.022324173 -0.028000874 0.0027457962 0.00050594873 0.00017188207
00000000: 8f62 1a3d 5355 8bbd b1df f73d 5dbe ba3c
00000010: ba74 febc fafe 54bd bb25 a4bd 4288 723d
00000020: cf39 0f3c 0a94 ba3d 7e55 5bbd 31b2 003d
00000030: 77ae b2bc 5a97 243d aa4b 5ebd 98f4 56bd
00000040: 61d8 debd 9fb6 ebbb 910a 623d 38ba b6bc
00000050: 8ef4 f73d 380b 0a3c 9640 80bd d7c4 bf3b
00000060: 150c 983c 701b 933d edd4 75bd 2835 b7ba
00000070: dd03 513d 20bb bd3c 7bda 82bc 55a2 473c
00000080: 6ede 9fbc b71f c53c dbed dd3b 93e8 7f3d
00000090: c135 89bc 35ca 56bc a5e4 c13d ffb2 273d
000000a0: e73b 8a3d 7101 073a ba81 af3d 26ac 3c3d
000000b0: e752 26bd ae50 0a3d 030a e1bd 0a39 9dbb
000000c0: ee0e 1fbd e2f0 213d 74a0 953d 2801 2fbd
000000d0: dcd6 943d 82dc 24bc 752e d3bc 93d0 6f3d
000000e0: 855d a6bd 5ec6 d8bb 444c 993d 5a66 b33b
000000f0: 74bb 793c c283 0ebe 7ce7 dc3c 0294 173e
00000100: 5557 f93d ec54 9dbd 4f5e e0bd 8e92 a3bd
00000110: a5dd 08be 0e70 cc3d 04c0 87bd 6cd4 0ebe
00000120: 9713 023d 9487 e23c 2009 c33d 196c 943e
00000130: afdb 3f3e 46db a2bd ad1f bcbb 9f0a dc3d
00000140: a895 2dbe d2da 1dbd d402 943d 2e84 13bd
00000150: 772b cfbc 6c9a f43c 06f6 6d3d 2429 8f3d
00000160: 3c97 d7bc 9717 1d3c 00c4 633d f444 a23d
00000170: 9602 8abc 5564 2f3b 21ec 49bd 0c21 ce3c
00000180: cafc 073e 3e83 7b3d da56 08ba d2d8 183d
00000190: 3f25 98bb 6672 8c3d d439 3ebd e759 d23d
000001a0: d7ff 713c 40ad 09bd 4339 7bbd 62a9 2fbc
000001b0: 8040 d63c c68e 333d 0e32 bbbd dc85 32bd
000001c0: 37a5 7f3a 2168 1ebe 1267 db3c c00f 1bbd
000001d0: 1a7e fabc 845d 38bd 804a 9b3d 0238 083e
000001e0: f923 813d 8c1c 9b3b a74b 013e 5167 03be
000001f0: 4ec7 a5bc f151 813c fd2b 8bbc 7cd6 42bd
00000200: 504f 4e3c 75ad 2dbd 411e d13d ab90 03be
00000210: 4064 bc3d a846 e4bd c6e7 9e3d a21e e93d
00000220: 2356 e6bb 0cf4 583d 49bd 32bd 9641 813d
00000230: 3ce8 93bd dc43 a5bd 5f40 c0bd 4db7 823d
00000240: cc9f 69bd 53ef 8c3d ef03 46bc ae34 483d
00000250: 8019 103c eb87 4b3d 90d9 76bd 7a4c 23bd
00000260: 9899 a73c c497 f63d 6dcc 883c ff39 053c
00000270: ba83 703d a621 babc 532d ddbd ca5c 5cbd
00000280: 272e e7bd 1cec 173d 8567 f1bd 4c22 423d
00000290: 722e 44bd 7171 d3bc 47f2 983d f4fc c1bd
000002a0: 9d9b fdbc 9d6c 1cbc 2fd5 96bb fda2 64bd
000002b0: e54a 0bbd 5f2f 15bc 484d 66bc 5e1f 53bd
000002c0: 5bce b2bd 6c77 65bd 1f98 29bd f5ee aabc
000002d0: 9ef3 283c bbe3 2d3d 19ac 2b3d 1c7f 6e3d
000002e0: 7d4d 48bd 85f0 463d 8c53 453d b1e9 263d
000002f0: 67a0 ef3c ac02 413c 49ad fabc 6f02 903d
00000300: 1be1 bebb de21 0ebc 53c8 023d 7d8c 373c
00000310: 26f3 123d acb6 50bc 4ec1 113c f274 053d
00000320: 9a49 b5bc e9ce 013c 1c3d 223c f80a 3d3d
00000330: 9896 84bd c87d d13c e514 223d 5739 a83b
00000340: ba90 b93c 09cc debc 5f93 40bd 1267 2a3d
00000350: 5e83 07bd 383a 17bd 0c9d 2b3d ca7c 88bc
00000360: 4b2c 52bc 1f72 fabc da86 2dbc 03b5 16bc
00000370: 049b 0e3e 38e1 0bbe e2a2 3cbe de99 403e
00000380: 1eab f600 212f 103e 9f73 4d3d 34c0 283d
00000390: 554e f63c b6c3 dbbc 9f22 9bbd 0a15 f0bc
000003a0: 72be e6bc 716d d7bd 9394 7f3b b3c5 1dbc
000003b0: 3392 87b9 1c66 71bb 28e8 4f3d 1527 6fbc
000003c0: 8b09 6bbb 14e5 f03a 30b0 84bc 592a a8ba
000003d0: f221 17bb 8999 44bb 2f7e c7bb 1a38 9bbc
000003e0: 15d9 2fbb e83b 303b 2454 853b 2fe1 b6bc
000003f0: 1762 e5bc d1f2 333b a5a1 043a 3e3b 3439

in_layer.bias f4 [60]
-0.0006846785 -1.8239906e-38 -3.5848992e-05 -0.0014059955 0.0019419278 0.0022784984 0.00046167866 -0.00037925955
0.0010903161 0.00045202527 -0.0007944869 -3.5768505e-07 0.0013563565 0.001829756 -0.0006615123 -0.0015548739
-7.7123706e-17 0.0015546001 2.89523e-38 -3.5969625e-38 0.0016206542 0.001495377 2.337037e-38 0.0004457702
-1.0219527e-06 -0.005339337 0.00094070117 -5.0390155e-38 -2.0674248e-05 0.0003314566 -2.845495e-39 -0.00015065858
-0.00013104058 0.0006155483 0.0016243053 0.00048809504 0.0009705077 0.001408353 -3.963759e-38 -0.00024798574
-1.9830599e-05 0.0010413236 0.001028884 -2.1908471e-07 1.2529958e-38 -0.0010989754 0.00078752125 -0.0006172815
0.0063314657 0.001792459 -0.00053086114 -8.6906315e-05 -1.6927781e-05 -3.7472716e-38 0.0009795125 0.00074404257
-0.001798903 -1.2011965e-09 0.00041397897 -0.00027726914
00000000: ff7b 33ba 709d c680 905c 16b8 6149 b8ba
00000010: 4988 fe3a dc52 153b 760d f239 5bd7 c6b9
00000020: f0e8 8e3a cefd ec39 1d45 50ba dc07 c0b4
00000030: c6c7 b13a 6cd4 ef3a 5769 2dba e9cc cbba
00000040: cdd5 b1a4 b9c3 cb3a 9ea1 1d01 57d6 4381
00000050: 226c d43a 8700 c43a 157b fe00 43b6 e939
00000060: 072a 89b5 9bf5 aebb 6399 763a d02c 8981
00000070: 9c6d adb7 5ac7 ad39 15fc 1e80 1bfa 1db9
00000080: f067 09b9 bf5c 213a a4e6 d43a 02e7 ff39
00000090: ab69 7e3a 7c98 b83a bdce 5781 1504 82b9
000000a0: e359 a6b7 067d 883a 9edb 863a 8c3d 6bb4
000000b0: 6d70 8800 7f0b 90ba a871 4e3a 0fd1 21ba
000000c0: 2f78 cf3b f2f0 ea3a 7d29 0bba 7941 b6b8
000000d0: 2200 8eb7 5805 4c81 fc62 803a da0b 433a
000000e0: 2bc9 ebba 5817 a5b0 510b d939 6f5e 91b9

hidden_layer.weight f4 [30, 60]
-0.05269441 -1.7352548e-38 0.0521913 -0.045536987 0.06161796 -0.031797625 0.03113556 0.058527604
0.019861527 0.051492248 0.023371251 -0.0006012372 0.046347324 0.022136461 -0.012777354 0.051287007
-0.0009953858 0.035592537 1.5235704e-38 5.759729e-38 0.057532664 0.07322531 -1.2602294e-11 0.015309757
-0.002914577 0.33178037 0.01684187 -2.0247659e-38 0.0055852705 0.055215828 -1.0571382e-05 0.019581871
0.030402137 0.09341143 0.06188223 -0.08133467 -0.011099851 0.048211455 -3.9681096e-38 0.028124655
0.021096848 0.06252659 0.025090436 0.0024883817 7.0390165e-09 -0.014260477 0.029768685 0.046313453
0.09814061 0.022071777 0.060435817 0.023556784 0.07525674 -5.454767e-38 0.016485488 -0.010714894
-0.025762478 -0.0009312268 0.010303971 -0.0002015469 -1.7449686e-07 -4.757296e-38 2.840504e-10 -4.0381132e-13
-8.197407e-08 -7.329907e-08 -1.4787095e-07 2.8596908e-11 -2.134336e-07 -2.7974076e-07 -3.8807602e-08 4.486958e-39
-3.5550653e-07 -1.7640129e-07 -5.300067e-09 -5.757389e-11 -6.242493e-38 -7.0234307e-09 3.436656e-39 2.1344626e-38
-4.144953e-05 -5.7974345e-09 5.1630203e-38 3.5485082e-09 1.5201644e-38 -2.70277e-09 -1.8155887e-07 4.5807292e-38
-5.029843e-08 -4.2865924e-08 6.7236004e-38 -2.504401e-07 -1.5220701e-08 -8.5154475e-08 1.3555257e-10 -1.1336275e-07
5.842004e-09 -3.0586417e-08 8.17374e-39 -2.078469e-07 -5.6006627e-08 -1.5201907e-07 -1.4839762e-07 -5.927156e-38
-5.491352e-39 2.656691e-13 -3.944001e-08 3.043084e-10 -4.0223256e-08 -1.21881545e-08 -2.578003e-12 -2.2115514e-09
-1.6674358e-08 -1.4039441e-38 -2.3633936e-07 -1.7238554e-07 -4.7113944e-09 2.808886e-38 -7.020363e-09 1.7372271e-16
0.11311205 3.4164722e-38 -0.17896816 -0.020907419 0.26359868 0.0054478305 0.23945203 0.062012896
-0.17056215 -0.027344422 -0.0028471986 7.1826704e-05 -0.08660075 0.029673986 -0.10143834 -0.08941407
0.0017693616 -0.02288821 -2.0583717e-38 -3.954319e-39 0.051178925 -0.15047993 -5.030162e-10 -0.021234157
0.0033566311 -0.48953685 -0.16878934 1.961699e-39 0.060949538 0.074917965 4.680116e-05 0.12298095
-0.08806175 0.14029501 -0.13219783 0.09227465 0.10179891 -0.06286539 1.9438004e-38 0.08049443
0.16660644 -0.039809268 -0.023693405 -0.0023380534 -3.2470741e-06 0.05549068 0.08275666 -0.13339022
-0.0542167 -0.06937238 -0.03753434 -0.22853556 0.118188135 2.6168952e-38 -0.008090068 0.014264922
0.16354485 0.0006308287 0.121927224 0.0008814069 -0.009358679 -6.620177e-38 -0.2568321 0.08943394
-0.035279877 -0.0057219574 -0.04987333 -0.0022154304 0.2723987 0.05216798 -0.10451566 0.00039095266
0.09075302 0.072804004 0.20290922 -0.03770889 0.0007735075 -0.021524854 -6.095232e-38 -5.7688554e-38
0.02084702 0.029291393 -1.0984352e-07 -0.0039676446 -7.138023e-05 -0.14277157 -0.007693931 1.4229979e-38
0.13274466 -0.04181303 3.1986503e-06 -0.05900262 0.060109224 -0.08797853 0.2068105 0.04798682
-0.2930024 -0.19075423 -5.86278e-38 -0.16523035 -0.03256499 0.059726093 -0.03823782 -0.0017282706
2.7033545e-07 0.05080265 -0.34173676 0.03254188 -0.10105814 -0.09651867 0.0021503724 -0.03399757
-0.19227256 -7.762695e-39 0.041792993 0.096369974 0.09627285 0.0031726297 0.105139755 6.5110304e-05
0.057783518 -1.0304706e-38 -0.062080298 -0.05505059 -0.28251517 -0.032646827 -0.14909737 -0.046655267
-0.12817907 0.1044895 0.018560855 0.00016685511 -0.20069245 0.050143242 -0.020191876 -0.07366957
00000000: 18d6 57bd d8f3 bc80 8bc6 553d fe84 3abd
00000010: 1d63 7c3d 3a3e 02bd 0010 ff3c a4ba 6f3d
00000020: a4b4 a23c 89e9 523d 1175 bf3c 589c 1dba
00000030: b1d6 3d3d 8657 b53c 1b58 51bc 5312 523d
00000040: 9b77 82ba 7bc9 113d f2e6 a500 74cb 9c01
00000050: 5fa7 6b3d 27f7 953d b0b3 5dad c6d5 7a3c
00000060: 7d02 3fbb 1edf a93e f6f7 893c 3c7a dc80
00000070: a504 b73b fe29 623d bd5b 31b7 296a a03c
00000080: e70d f93c 7e4e bf3d 3978 7d3d cb92 a6bd
00000090: 26dc 35bc 6079 453d 600b 5881 ad65 e63c
000000a0: 4cd3 ac3c f10d 803d 758a cd3c 1e14 233b
000000b0: d8db f131 c7a4 69bc 75dd f33c 2db3 3d3d
000000c0: f2fd c83d dfcf b43c 8c8b 773d 28fa c03c
000000d0: 3520 9a3d 2e7e 9481 930c 873c 868d 2fbc
000000e0: d50b d3bc 931d 74ba fdd1 283c 5656 53b9
000000f0: 555d 3bb4 8481 8181 8a28 9c2f 5853 e3aa
00000100: b909 b0b3 9768 9db3 75c6 1eb4 838a fb2d
00000110: 2e2c 65b4 472f 96b4 69ad 26b3 d0db 3000
00000120: 72dc beb4 d168 3db4 e21b b6b1 7036 7dae
00000130: d4ef a981 c052 f1b1 006c 2500 226c e800
00000140: 18da 2db8 c632 c7b1 008d 8c01 04da 7331
00000150: 0088 a500 a2bb 39b1 86f2 42b4 0c66 7901
00000160: b507 58b3 951b 38b3 a808 b701 3a74 86b4
00000170: adbe 82b2 2bde b6b3 a80a 152f d571 f3b3
00000180: d0ba c831 1f5e 03b3 1001 5900 852c 5fb4
00000190: f08b 70b3 af3a 23b4 3a57 1fb4 405a a181
000001a0: a8cb 3b80 f48e 952a c064 29b3 9a4b a72f
000001b0: f0c1 2cb3 1264 51b2 2c69 35ac 06fa 17b1
000001c0: 4d3b 8fb2 40e0 9880 78c4 7db4 fa18 39b4
000001d0: dde1 a1b1 28ee 1801 c437 f1b1 e549 4825
000001e0: 4aa7 e73d ac02 3a01 6e43 37be 0946 abbc
000001f0: 68f6 863e b783 b23b ea32 753e 3c01 7e3d
00000200: d8a7 2ebe 6901 e0bc 1198 3abb aba1 9638
00000210: bc5b b1bd dc16 f33c e8be cfbd b91e b7bd
00000220: ece9 e73a 0e80 bbbc 0723 e080 080f 2b80
00000230: fea0 513d 6917 1abe 9e44 0ab0 41f3 adbc
00000240: edfa 5b3b 93a4 fabe 1dd7 2cbe 6b5c 1500
00000250: 39a6 793d 976e 993d 5d4c 4438 70dd fb3d
00000260: b859 b4bd 7fa9 0f3e de5e 07be 7efa bc3d
00000270: f27b d03d 92bf 80bd 3fa9 d300 44da a43d
00000280: e19a 2a3e 0b0f 23bd ac18 c2bc 073a 19bb
00000290: 4fe8 59b6 324a 633d 537c a93d 7297 08be
000002a0: 5512 5ebd 1b13 8ebd 9cbd 19bd 3a05 6abe
000002b0: 9f0c f23d 327a 0e01 348c 04bc 6bb7 693c
000002c0: 4d78 273e 335e 253a fbb4 f93d 370e 673a
000002d0: 2555 19bc e637 b481 7f7f 83be 2429 b73d
000002e0: a281 10bd 427f bbbb fa47 4cbd c130 11bb
000002f0: d877 8b3e 17ae 553d 4e0c d6bd c7f8 cc39
00000300: b8dc b93d 441a 953d 6fc7 4f3e a374 1abd
00000310: 36c5 4a3a e454 b0bc 91ed a581 0e0b 9d81
00000320: 5fc7 aa3c 81f4 ef3c 1de3 ebb3 0403 82bb
00000330: f8b1 95b8 b632 12be 5f1d fcbb 64f3 9a00
00000340: 37ee 073e 2444 2bbd 65a8 5636 bbac 71bd
00000350: 1735 763d 162e b4bd 22c6 533e d48d 443d
00000360: 6904 96be 1455 43be 9d99 9f81 2532 29be
00000370: de62 05bd 59a3 743d 439f 1cbd 2387 e2ba
00000380: 9f22 9134 7116 503d 1ff8 aebe a24a 053d
00000390: 92f7 cebd 95ab c5bd 43ed 0c3b 0941 0bbd
000003a0: 19e3 44be 3c87 5480 212f 2b3d 9f5d c53d
000003b0: b32a c53d e5eb 4f3b 8353 d73d d48b 8838
000003c0: 69ae 6c3d 5435 7080 e947 7ebd ba7c 61bd
000003d0: d4a5 90be aeb8 05bd fbac 18be 9819 3fbd
000003e0: 6041 03be 97fe d53d ef0c 983c d4f5 2e39
000003f0: 5282 4dbe 0063 4d3d 6f69 a5bc 12e0 96bd

hidden_layer.bias f4 [30]
-0.023631772 -5.0619043e-08 0.060414717 0.035214037 0.021698657 -0.030726759 -0.048768032 -0.05397828
0.00086745387 0.04489571 0.066161156 0.023817759 0.03530114 -0.03333253 0.043206617 -0.020708451
-0.043082148 0.04764817 -0.0038505932 0.031002298 -1.2800297e-12 0.028524823 -0.017498598 -0.039526608
0.02814203 -0.039212447 -0.0525753 0.036700413 -0.018518284 -0.022262504
00000000: 6b97 c1bc 3a68 59b3 6c75 773d 983c 103d
00000010: 62c1 b13c afb6 fbbc fdc0 47bd 5418 5dbd
00000020: d865 633a 90e4 373d 807f 873d 761d c33c
00000030: ee97 103d b187 08bd 6cf9 303d c5a4 a9bc
00000040: e876 30bd ba2a 433d 3c5a 7cbb 88f8 fd3c
00000050: ee25 b4ab e4ac e93c 3859 8fbc a7e6 21bd
00000060: 1d8a e63c 3b9d 20bd 3359 57bd 2c53 163d
00000070: a8b3 97bc db5f b6bc

out_layer.weight f4 [1, 30]
-0.3599227 0.00010302023 0.7769417 0.76474845 0.82637084 -0.4831744 -0.52884567 -0.76402444
-0.0007010571 0.71354383 0.7585077 0.8214672 0.8103175 -0.41031745 0.83299553 -0.29031223
-0.6163563 0.8855555 0.77472365 0.67346245 0.00094295054 0.7099655 -0.2527276 -0.5610017
0.7631946 -0.544447 -0.681882 0.83537936 -0.2731749 -0.45356882
00000000: ca47 b8be 910c d838 a7e5 463f 8ec6 433f
00000010: 0a8d 533f a362 f7be 6e62 07bf 1b97 43bf
00000020: 25c7 37ba cfaa 363f 902d 423f ad4b 523f
00000030: f870 4f3f 2115 d2be 323f 553f cea3 94be
00000040: 87c9 1dbf c4b3 623f 4a54 463f 0968 2c3f
00000050: 5730 773a 4dc0 353f 8365 81be cf9d 0fbf
00000060: b960 433f e160 0bbf d28f 2ebf 6cdb 553f
00000070: 95dd 8bbe 2c3a e8be
