output/BL50LO_xx17_15_true_true_zp15_5_5_true_zp15_1exx4_1exx2_64_ELXXrankXXmut-icoreXXselfsimilarity/BL50LO_xx17_15_true_true_zp15_5_5_true_zp15_1exx4_1exx2_64_ELXXrankXXmut-icoreXXselfsimilarity_230601_0102_85zzF/checkpoint_best_kcv_230530_cedar_aligned_f1_BL50LO_xx17_15_true_true_zp15_5_5_true_zp15_1exx4_1exx2_64_ELXXrankXXmut-icoreXXselfsimilarity_230601_0102_85zzF.pt (torch, 15459 bytes, 25 tensors)

ef_inlayer.weight f4 [5, 3]
00000000: 1871 1ebe 04ee 99bd 10cf f4bd 3c42 923d
00000010: 59c4 443d 83b0 613d 9bba 77bc fab1 993c
00000020: e835 00bd ea19 a23e 099c 573c de60 cdbd
00000030: 8b4c 06be 5fd6 71be e8e7 4c3d
-0.1547283 -0.07516101 -0.119535565 0.071415395 0.048038814 0.055099975 -0.015120174 0.018761624
-0.03130141 0.31660396 0.01315976 -0.100282416 -0.13115136 -0.23616932 0.05002585

ef_inlayer.bias f4 [5]
00000000: d67e eebd cf48 82bd e49f 123d 7d51 a03c
00000010: 1a70 14be
-0.11645286 -0.063615434 0.035797015 0.019570107 -0.14495888

ef_outlayer.weight f4 [1, 5]
00000000: 7861 0e3f bdcb a4be a552 a43e 4939 f7be
00000010: ddb7 96be
0.55617476 -0.3218669 0.32094303 -0.48285893 -0.29437152

ef_bn1.weight f4 [5]
00000000: 5e6f 2b3f b5e8 383f e5ba 1c3f 6689 6c3f
00000010: 69c6 103f
0.6696681 0.7223008 0.6122268 0.92397153 0.5655275

ef_bn1.bias f4 [5]
00000000: ad14 d1be 4ba7 de3e 10b9 d7be 9ad6 c73e
00000010: 9d0b df3e
-0.40836087 0.4348701 -0.4213338 0.39030915 0.43563548

ef_bn1.running_mean f4 [5]
00000000: a676 5640 86fa d2bf fba0 773f efb2 4c40
00000010: 5188 f1bf
3.3509917 -1.6482704 0.9673001 3.1984212 -1.8869725

ef_bn1.running_var f4 [5]
00000000: 8491 083d 0911 523c dd3d 033b f057 893c
00000010: 4b94 973e
0.0333419 0.012821444 0.0020025887 0.016765565 0.29605326

nnalign.in_layer.weight f4 [15, 100]
00000000: 34c9 253c 5339 093b ec90 dcbc b77a 423c
00000010: f659 3bbc 59cb 8abc e315 243b 37da d03b
00000020: 19c2 11bb 1b71 4c3a 585b f03a 3b3d 983c
00000030: 7673 8d3b 250e 5e3b 2f65 9cbc d230 18bd
00000040: 5a2a 77bc 95b4 dbb8 6dec fc3c c78c 163c
00000050: f5be e1bc 6c2d 54bd ac5f 03bd b8ae 423c
00000060: b796 e9bb 6628 713b 3866 d53c 8b29 4c3c
00000070: 5a53 cebc 9101 283c 8b53 af3b dd93 fb3c
00000080: fd77 c93c 5798 dfbc acf6 9a3b 2d94 bcbc
00000090: 0028 bd3c 3627 8e3c 08c2 0b3d 0218 f1bc
000000a0: abd7 213c c577 95bc 0374 af3c ceb4 3dbc
000000b0: 6448 a2bc 7b75 8fbb 6819 4bbd b253 623c
000000c0: 7140 753a 8721 2d3c 6296 a4bc 8f4f 17bc
000000d0: dec4 243d c9c5 02bc c56a 113d 2ecf 203b
000000e0: 16e8 eabb b4ed 63bc 3417 28bb 5513 b63b
000000f0: 288f c1bc 50ec 24bc 6c0b 5a3b ade4 133d
00000100: fd1f 643c 9e55 2dbc 97a6 73bc a8d4 f83b
00000110: 8b08 8fbc f2a4 83bc 77e8 143d 5600 e9bc
00000120: 4d2f d43c 4c51 d23b 1a46 0b3c 5fb6 0bbb
00000130: 512f d13b 9f55 9f3b 65f6 69bc 63f0 493c
00000140: 516a 8cbc e2fb 9bbc 26ab b03c 8a49 323b
00000150: f07a eb3c f898 bebc 554c 61bc 76c9 c43c
00000160: 1a3f fe3c c1f8 823c 005e d3ba 815d fcbc
00000170: a9d7 2d3c 96e8 5539 8317 cfbc 67cc d0bc
00000180: 0f4b ad3c b71a 453c 8f8d 7cbb 12f3 2ebb
00000190: 7cc0 373d 146a 38bc 1362 113d 9913 57b8
000001a0: acaa 38bc 3437 d1bc 080d 0f3d 326a 94bc
000001b0: 5c9a 5d3d 2ab1 013c 752a 2a3c 9181 bc3c
000001c0: 198f 5e3d f4b9 08bd 19cc 283d 470f 493d
000001d0: ca69 343d ddd9 ac3c d3ef f2bc 21ed 25bd
000001e0: a4db 05bc af0c a63c 7cb3 ac3d 45e8 77bd
000001f0: ae32 3e3c 172c d4bc 7680 56bd 2d14 443c
00000200: b283 273d 6226 523d a968 04bd 78b5 3c3c
00000210: b82c 573d 0e5f 483d eb9e be3c e918 443d
00000220: 6b37 f33c 4482 6f3c f654 52bd 6ad0 65bd
00000230: 1716 05bd d3b5 5fbc 9428 0abd 5edf f43c
00000240: 98fe 333c d368 9bbc 71b3 853c afa3 173d
00000250: d65a ab3c c13d b23c 3019 19bd b65a 273d
00000260: 5f47 09bd 98f2 39bc d41c 67bd 2591 88bc
00000270: 7932 13bd e2d4 f1bc d9cb 3f3d 4f62 07bd
00000280: 7a10 0ebd 7af5 c13c 3eaf d03b 8026 1a3c
00000290: cff1 cdbc 5faf e83b 18c5 47bd 9cdc d5bc
000002a0: a67e 9bbd 9de6 00bd 4240 1ebd 63a5 503c
000002b0: 7164 1a3b 0ba9 8abc 3fd2 5c3d 84cb 9a3d
000002c0: df8c 133d 14b9 c6bc 2fa4 a4bd 10f0 633d
000002d0: acae 00bd 84a8 72bb 7b2f 60bd 39ac dd3b
000002e0: fa23 5dbd abe3 ba3d 839a 6fbd d507 d0bc
000002f0: ed49 a1bc f2be 40bd 45e2 cc3c f8e4 11bc
00000300: 7201 1abd 8091 81bc e0bf 873d de78 e2bc
00000310: cdda 233d a95d 8a3c d648 0e3d 5b9a 90bd
00000320: 705c c53b c14d 15bd 87f6 603d 9a50 41bd
00000330: 77d2 663d ef33 db3c 6d59 9cbc b680 8cbc
00000340: 7f5d 283d 6944 963c 5bdc 313c c9c4 48bb
00000350: 9bdc 2bbd 6463 dc3c 5d84 a53d ad3c 6b3d
00000360: 5779 2b3d dc55 2abd 3ee0 ccbc 7113 2c3d
00000370: e8da 14bc 7b06 b13d f21d a2bc 30cd 80bd
00000380: 8b68 453c 2397 01bd 28c0 873a 3887 633d
00000390: f257 633d 5a05 643d 1d04 8abc defb dabc
000003a0: 2cfd 4c3d b520 a7bc 89ec 6cbc 14dd 123d
000003b0: df2b 0cbd 20db 3e3c 6b18 6b3c 007b 50bd
000003c0: c39d 41bd a841 6b3c 5e69 423d de73 833c
000003d0: aa76 04bd 72b8 973c 089b 49bd ed43 51bc
000003e0: a207 32bd a070 103d 11e1 413d b671 59bc
000003f0: 8b6b 30bc 2fe3 ac3c 4121 d93a f8a3 bb3b
0.010118771 0.002093871 -0.026924573 0.011870078 -0.011435023 -0.016942667 0.002503746 0.0063736695
-0.0022240935 0.00077988365 0.001833777 0.018583884 0.0043167425 0.0033882943 -0.019091217 -0.037155934
-0.015085781 -0.0001047637 0.030874455 0.009188837 -0.027556876 -0.05180113 -0.03207366 0.0118824765
-0.0071285623 0.003679776 0.026049718 0.0124610765 -0.02518623 0.01025428 0.0053505353 0.030710155
0.024593348 -0.027294321 0.0047291126 -0.023019874 0.023090363 0.017352682 0.03412059 -0.029430393
0.009878079 -0.018245587 0.021417623 -0.011578752 -0.01980991 -0.0043780184 -0.049584776 0.0138139
0.0009355611 0.010567076 -0.02009124 -0.009235277 0.04022681 -0.007981726 0.035502214 0.0024537551
-0.00716878 -0.013911653 -0.0025648596 0.005556504 -0.023627833 -0.010066107 0.0033270968 0.036106754
0.013923642 -0.010579495 -0.014871261 0.00759371 -0.017460128 -0.016069863 0.03635451 -0.028442543
0.025901461 0.0064183827 0.0085006 -0.0021318418 0.0063838144 0.0048625018 -0.014279936 0.012325379
-0.01714054 -0.019041006 0.021565985 0.0027204477 0.028745145 -0.0232663 -0.013751109 0.024021845
0.031035949 0.015987756 -0.0016126037 -0.030806305 0.010610499 0.00020399908 -0.025279766 -0.025488092
0.021153955 0.012030295 -0.0038536524 -0.0026695174 0.0448613 -0.01125576 0.03549392 -5.1278246e-05
-0.01127116 -0.025539018 0.034924537 -0.018117044 0.054102287 0.007915774 0.010386099 0.023011
0.054335687 -0.033380464 0.041210268 0.049086835 0.0440462 0.021099979 -0.029655373 -0.040509347
-0.008170042 0.02026972 0.084326714 -0.060524244 0.011608763 -0.02589993 -0.052368604 0.011967701
0.04089708 0.051306136 -0.032326374 0.011517875 0.05253288 0.048918776 0.023269137 0.04787532
0.029689511 0.01461846 -0.051350556 -0.056106962 -0.03249177 -0.01365419 -0.033730105 0.029891666
0.010985993 -0.018970883 0.016320916 0.037021335 0.020917337 0.021757962 -0.037377536 0.040857993
-0.03351533 -0.011349343 -0.056423977 -0.016670773 -0.035936806 -0.029520456 0.046825264 -0.03305274
-0.034683682 0.023676623 0.0063685467 0.009408593 -0.025139717 0.007100984 -0.048771948 -0.026106171
-0.07592516 -0.03146993 -0.0386355 0.012734744 0.0023558403 -0.01692631 0.053911444 0.07558349
0.036023017 -0.024258174 -0.08039128 0.055648863 -0.03141658 -0.0037026713 -0.05473278 0.0067649153
-0.053989388 0.091254555 -0.058496963 -0.02539436 -0.01968857 -0.0470571 0.025010237 -0.008904688
-0.037599035 -0.01581645 0.06628394 -0.027645525 0.040003587 0.016890364 0.03473743 -0.07060691
0.0060229823 -0.036451105 0.054922607 -0.04719601 0.05635306 0.026758162 -0.01908561 -0.017151218
0.04110479 0.018343167 0.0108557595 -0.0030634871 -0.041958433 0.026902862 0.08081887 0.05743091
0.041863766 -0.041585788 -0.02500927 0.04201073 -0.009085394 0.08643814 -0.01978967 -0.062891364
0.012048851 -0.031638276 0.001035695 0.055548877 0.055503793 0.055669166 -0.016847664 -0.026731428
0.05004613 -0.020401338 -0.014460691 0.035855368 -0.034221526 0.011648923 0.014349083 -0.050898552
-0.047269594 0.014358915 0.047463767 0.01604646 -0.03233973 0.018520568 -0.049220115 -0.012772542
-0.04346431 0.035263658 0.04733378 -0.01327174 -0.010767828 0.021104423 0.0016565697 0.0057263337

nnalign.in_layer.bias f4 [15]
00000000: 80c2 8333 f1cb 66b3 cbfe fab3 8185 9a30
00000010: 05ae 1c35 354e 91b5 586b 4b33 30b9 3032
00000020: 618c b533 34fe c5b3 53d6 0cb2 7c13 0335
00000030: 6f6c a6b2 a860 05b3 548f 59b0
6.135542e-08 -5.373653e-08 -1.1687879e-07 1.1242919e-09 5.836776e-07 -1.0826103e-06 4.736225e-08 1.0286655e-08
8.454004e-08 -9.2197666e-08 -8.197804e-09 4.8829656e-07 -1.9374253e-08 -3.1054384e-08 -7.914782e-10

nnalign.out_layer.weight f4 [1, 15]
00000000: 1eb9 bebd 2c2a 373e 923b 3d3e b489 e0bd
00000010: 486f e8bd 464d 0cbe 665a 773d 3ffe 35be
00000020: 00a7 febd b145 dbbd 4bb7 0e3e c8c3 e93d
00000030: 5d05 063e cf5f 3b3e 02fd 12be
-0.09312652 0.17887181 0.18479756 -0.10963765 -0.1134935 -0.13701352 0.060388945 -0.17772768
-0.124341965 -0.10706652 0.13937108 0.114142954 0.13087983 0.18298267 -0.14354327

nnalign.bn1.weight f4 [15]
00000000: d270 133f adbb 163f d6ed 1a3f 263c 163f
00000010: 34a0 163f e632 1a3f af2e 0f3f 6a13 1d3f
00000020: 62db 1d3f 3e5a 153f 2624 193f 64b3 173f
00000030: 1f5b 143f 27ce 183f 771f 1b3f
0.57594025 0.5888012 0.6051916 0.5868553 0.588382 0.60233915 0.5593061 0.6135775
0.61662877 0.58340824 0.59820783 0.59258103 0.5795154 0.59689564 0.60594887

nnalign.bn1.bias f4 [15]
00000000: f89a f3bb 041c b53c 0548 7c3c b6ed 6fbc
00000010: b5b9 b7bb 5c25 f3bc 021a 4aba d75b 6abb
00000020: d8fb 19bd 4695 19bc 0302 21b9 b3ab d9bb
00000030: 1635 fe3b 1889 c2bb d9e3 b4bc
-0.007434245 0.022108085 0.01539803 -0.014644077 -0.005606855 -0.0296809 -0.0007709564 -0.0035760307
-0.037593693 -0.0093739685 -0.00015354906 -0.0066427826 0.007757793 -0.005936753 -0.022081302

nnalign.bn1.running_mean f4 [15]
00000000: dc15 253b 39b4 f63e 758f 673e afec 7f3c
00000010: 9285 c63b 24b2 68ba 45b7 0e3e a1cc 82bc
00000020: 0600 393b b136 493d bfd4 803e ff06 9b3b
00000030: 2572 773e 9d8d c33e 02c6 093d
0.002519003 0.48184374 0.22613318 0.015620395 0.0060584033 -0.00088766427 0.139371 -0.015966715
0.0028228774 0.049124423 0.25162312 0.0047310586 0.24164636 0.3819398 0.0336361

nnalign.bn1.running_var f4 [15]
00000000: 3640 253d 0fcf 5d3f 48cb 883e 1170 a03c
00000010: 98d9 9f3d 81d8 153c 5615 cd3d ce2c b63d
00000020: 564e 2a3c e02d bb3d 45c7 a63e 704a 513c
00000030: 0a00 a43e 7316 073f fa14 5f3d
0.04034444 0.8664407 0.2671759 0.019584687 0.078051746 0.009145857 0.10013835 0.088952646
0.010394653 0.09139609 0.32573906 0.012774095 0.3203128 0.5276863 0.054463364

in_layer.weight f4 [15, 100]
00000000: 34c9 253c 5339 093b ec90 dcbc b77a 423c
00000010: f659 3bbc 59cb 8abc e315 243b 37da d03b
00000020: 19c2 11bb 1b71 4c3a 585b f03a 3b3d 983c
00000030: 7673 8d3b 250e 5e3b 2f65 9cbc d230 18bd
00000040: 5a2a 77bc 95b4 dbb8 6dec fc3c c78c 163c
00000050: f5be e1bc 6c2d 54bd ac5f 03bd b8ae 423c
00000060: b796 e9bb 6628 713b 3866 d53c 8b29 4c3c
00000070: 5a53 cebc 9101 283c 8b53 af3b dd93 fb3c
00000080: fd77 c93c 5798 dfbc acf6 9a3b 2d94 bcbc
00000090: 0028 bd3c 3627 8e3c 08c2 0b3d 0218 f1bc
000000a0: abd7 213c c577 95bc 0374 af3c ceb4 3dbc
000000b0: 6448 a2bc 7b75 8fbb 6819 4bbd b253 623c
000000c0: 7140 753a 8721 2d3c 6296 a4bc 8f4f 17bc
000000d0: dec4 243d c9c5 02bc c56a 113d 2ecf 203b
000000e0: 16e8 eabb b4ed 63bc 3417 28bb 5513 b63b
000000f0: 288f c1bc 50ec 24bc 6c0b 5a3b ade4 133d
00000100: fd1f 643c 9e55 2dbc 97a6 73bc a8d4 f83b
00000110: 8b08 8fbc f2a4 83bc 77e8 143d 5600 e9bc
00000120: 4d2f d43c 4c51 d23b 1a46 0b3c 5fb6 0bbb
00000130: 512f d13b 9f55 9f3b 65f6 69bc 63f0 493c
00000140: 516a 8cbc e2fb 9bbc 26ab b03c 8a49 323b
00000150: f07a eb3c f898 bebc 554c 61bc 76c9 c43c
00000160: 1a3f fe3c c1f8 823c 005e d3ba 815d fcbc
00000170: a9d7 2d3c 96e8 5539 8317 cfbc 67cc d0bc
00000180: 0f4b ad3c b71a 453c 8f8d 7cbb 12f3 2ebb
00000190: 7cc0 373d 146a 38bc 1362 113d 9913 57b8
000001a0: acaa 38bc 3437 d1bc 080d 0f3d 326a 94bc
000001b0: 5c9a 5d3d 2ab1 013c 752a 2a3c 9181 bc3c
000001c0: 198f 5e3d f4b9 08bd 19cc 283d 470f 493d
000001d0: ca69 343d ddd9 ac3c d3ef f2bc 21ed 25bd
000001e0: a4db 05bc af0c a63c 7cb3 ac3d 45e8 77bd
000001f0: ae32 3e3c 172c d4bc 7680 56bd 2d14 443c
00000200: b283 273d 6226 523d a968 04bd 78b5 3c3c
00000210: b82c 573d 0e5f 483d eb9e be3c e918 443d
00000220: 6b37 f33c 4482 6f3c f654 52bd 6ad0 65bd
00000230: 1716 05bd d3b5 5fbc 9428 0abd 5edf f43c
00000240: 98fe 333c d368 9bbc 71b3 853c afa3 173d
00000250: d65a ab3c c13d b23c 3019 19bd b65a 273d
00000260: 5f47 09bd 98f2 39bc d41c 67bd 2591 88bc
00000270: 7932 13bd e2d4 f1bc d9cb 3f3d 4f62 07bd
00000280: 7a10 0ebd 7af5 c13c 3eaf d03b 8026 1a3c
00000290: cff1 cdbc 5faf e83b 18c5 47bd 9cdc d5bc
000002a0: a67e 9bbd 9de6 00bd 4240 1ebd 63a5 503c
000002b0: 7164 1a3b 0ba9 8abc 3fd2 5c3d 84cb 9a3d
000002c0: df8c 133d 14b9 c6bc 2fa4 a4bd 10f0 633d
000002d0: acae 00bd 84a8 72bb 7b2f 60bd 39ac dd3b
000002e0: fa23 5dbd abe3 ba3d 839a 6fbd d507 d0bc
000002f0: ed49 a1bc f2be 40bd 45e2 cc3c f8e4 11bc
00000300: 7201 1abd 8091 81bc e0bf 873d de78 e2bc
00000310: cdda 233d a95d 8a3c d648 0e3d 5b9a 90bd
00000320: 705c c53b c14d 15bd 87f6 603d 9a50 41bd
00000330: 77d2 663d ef33 db3c 6d59 9cbc b680 8cbc
00000340: 7f5d 283d 6944 963c 5bdc 313c c9c4 48bb
00000350: 9bdc 2bbd 6463 dc3c 5d84 a53d ad3c 6b3d
00000360: 5779 2b3d dc55 2abd 3ee0 ccbc 7113 2c3d
00000370: e8da 14bc 7b06 b13d f21d a2bc 30cd 80bd
00000380: 8b68 453c 2397 01bd 28c0 873a 3887 633d
00000390: f257 633d 5a05 643d 1d04 8abc defb dabc
000003a0: 2cfd 4c3d b520 a7bc 89ec 6cbc 14dd 123d
000003b0: df2b 0cbd 20db 3e3c 6b18 6b3c 007b 50bd
000003c0: c39d 41bd a841 6b3c 5e69 423d de73 833c
000003d0: aa76 04bd 72b8 973c 089b 49bd ed43 51bc
000003e0: a207 32bd a070 103d 11e1 413d b671 59bc
000003f0: 8b6b 30bc 2fe3 ac3c 4121 d93a f8a3 bb3b
0.010118771 0.002093871 -0.026924573 0.011870078 -0.011435023 -0.016942667 0.002503746 0.0063736695
-0.0022240935 0.00077988365 0.001833777 0.018583884 0.0043167425 0.0033882943 -0.019091217 -0.037155934
-0.015085781 -0.0001047637 0.030874455 0.009188837 -0.027556876 -0.05180113 -0.03207366 0.0118824765
-0.0071285623 0.003679776 0.026049718 0.0124610765 -0.02518623 0.01025428 0.0053505353 0.030710155
0.024593348 -0.027294321 0.0047291126 -0.023019874 0.023090363 0.017352682 0.03412059 -0.029430393
0.009878079 -0.018245587 0.021417623 -0.011578752 -0.01980991 -0.0043780184 -0.049584776 0.0138139
0.0009355611 0.010567076 -0.02009124 -0.009235277 0.04022681 -0.007981726 0.035502214 0.0024537551
-0.00716878 -0.013911653 -0.0025648596 0.005556504 -0.023627833 -0.010066107 0.0033270968 0.036106754
0.013923642 -0.010579495 -0.014871261 0.00759371 -0.017460128 -0.016069863 0.03635451 -0.028442543
0.025901461 0.0064183827 0.0085006 -0.0021318418 0.0063838144 0.0048625018 -0.014279936 0.012325379
-0.01714054 -0.019041006 0.021565985 0.0027204477 0.028745145 -0.0232663 -0.013751109 0.024021845
0.031035949 0.015987756 -0.0016126037 -0.030806305 0.010610499 0.00020399908 -0.025279766 -0.025488092
0.021153955 0.012030295 -0.0038536524 -0.0026695174 0.0448613 -0.01125576 0.03549392 -5.1278246e-05
-0.01127116 -0.025539018 0.034924537 -0.018117044 0.054102287 0.007915774 0.010386099 0.023011
0.054335687 -0.033380464 0.041210268 0.049086835 0.0440462 0.021099979 -0.029655373 -0.040509347
-0.008170042 0.02026972 0.084326714 -0.060524244 0.011608763 -0.02589993 -0.052368604 0.011967701
0.04089708 0.051306136 -0.032326374 0.011517875 0.05253288 0.048918776 0.023269137 0.04787532
0.029689511 0.01461846 -0.051350556 -0.056106962 -0.03249177 -0.01365419 -0.033730105 0.029891666
0.010985993 -0.018970883 0.016320916 0.037021335 0.020917337 0.021757962 -0.037377536 0.040857993
-0.03351533 -0.011349343 -0.056423977 -0.016670773 -0.035936806 -0.029520456 0.046825264 -0.03305274
-0.034683682 0.023676623 0.0063685467 0.009408593 -0.025139717 0.007100984 -0.048771948 -0.026106171
-0.07592516 -0.03146993 -0.0386355 0.012734744 0.0023558403 -0.01692631 0.053911444 0.07558349
0.036023017 -0.024258174 -0.08039128 0.055648863 -0.03141658 -0.0037026713 -0.05473278 0.0067649153
-0.053989388 0.091254555 -0.058496963 -0.02539436 -0.01968857 -0.0470571 0.025010237 -0.008904688
-0.037599035 -0.01581645 0.06628394 -0.027645525 0.040003587 0.016890364 0.03473743 -0.07060691
0.0060229823 -0.036451105 0.054922607 -0.04719601 0.05635306 0.026758162 -0.01908561 -0.017151218
0.04110479 0.018343167 0.0108557595 -0.0030634871 -0.041958433 0.026902862 0.08081887 0.05743091
0.041863766 -0.041585788 -0.02500927 0.04201073 -0.009085394 0.08643814 -0.01978967 -0.062891364
0.012048851 -0.031638276 0.001035695 0.055548877 0.055503793 0.055669166 -0.016847664 -0.026731428
0.05004613 -0.020401338 -0.014460691 0.035855368 -0.034221526 0.011648923 0.014349083 -0.050898552
-0.047269594 0.014358915 0.047463767 0.01604646 -0.03233973 0.018520568 -0.049220115 -0.012772542
-0.04346431 0.035263658 0.04733378 -0.01327174 -0.010767828 0.021104423 0.0016565697 0.0057263337

in_layer.bias f4 [15]
00000000: 80c2 8333 f1cb 66b3 cbfe fab3 8185 9a30
00000010: 05ae 1c35 354e 91b5 586b 4b33 30b9 3032
00000020: 618c b533 34fe c5b3 53d6 0cb2 7c13 0335
00000030: 6f6c a6b2 a860 05b3 548f 59b0
6.135542e-08 -5.373653e-08 -1.1687879e-07 1.1242919e-09 5.836776e-07 -1.0826103e-06 4.736225e-08 1.0286655e-08
8.454004e-08 -9.2197666e-08 -8.197804e-09 4.8829656e-07 -1.9374253e-08 -3.1054384e-08 -7.914782e-10

out_layer.weight f4 [1, 15]
00000000: 1eb9 bebd 2c2a 373e 923b 3d3e b489 e0bd
00000010: 486f e8bd 464d 0cbe 665a 773d 3ffe 35be
00000020: 00a7 febd b145 dbbd 4bb7 0e3e c8c3 e93d
00000030: 5d05 063e cf5f 3b3e 02fd 12be
-0.09312652 0.17887181 0.18479756 -0.10963765 -0.1134935 -0.13701352 0.060388945 -0.17772768
-0.124341965 -0.10706652 0.13937108 0.114142954 0.13087983 0.18298267 -0.14354327

bn1.weight f4 [15]
00000000: d270 133f adbb 163f d6ed 1a3f 263c 163f
00000010: 34a0 163f e632 1a3f af2e 0f3f 6a13 1d3f
00000020: 62db 1d3f 3e5a 153f 2624 193f 64b3 173f
00000030: 1f5b 143f 27ce 183f 771f 1b3f
0.57594025 0.5888012 0.6051916 0.5868553 0.588382 0.60233915 0.5593061 0.6135775
0.61662877 0.58340824 0.59820783 0.59258103 0.5795154 0.59689564 0.60594887

bn1.bias f4 [15]
00000000: f89a f3bb 041c b53c 0548 7c3c b6ed 6fbc
00000010: b5b9 b7bb 5c25 f3bc 021a 4aba d75b 6abb
00000020: d8fb 19bd 4695 19bc 0302 21b9 b3ab d9bb
00000030: 1635 fe3b 1889 c2bb d9e3 b4bc
-0.007434245 0.022108085 0.01539803 -0.014644077 -0.005606855 -0.0296809 -0.0007709564 -0.0035760307
-0.037593693 -0.0093739685 -0.00015354906 -0.0066427826 0.007757793 -0.005936753 -0.022081302

bn1.running_mean f4 [15]
00000000: dc15 253b 39b4 f63e 758f 673e afec 7f3c
00000010: 9285 c63b 24b2 68ba 45b7 0e3e a1cc 82bc
00000020: 0600 393b b136 493d bfd4 803e ff06 9b3b
00000030: 2572 773e 9d8d c33e 02c6 093d
0.002519003 0.48184374 0.22613318 0.015620395 0.0060584033 -0.00088766427 0.139371 -0.015966715
0.0028228774 0.049124423 0.25162312 0.0047310586 0.24164636 0.3819398 0.0336361

bn1.running_var f4 [15]
00000000: 3640 253d 0fcf 5d3f 48cb 883e 1170 a03c
00000010: 98d9 9f3d 81d8 153c 5615 cd3d ce2c b63d
00000020: 564e 2a3c e02d bb3d 45c7 a63e 704a 513c
00000030: 0a00 a43e 7316 073f fa14 5f3d
0.04034444 0.8664407 0.2671759 0.019584687 0.078051746 0.009145857 0.10013835 0.088952646
0.010394653 0.09139609 0.32573906 0.012774095 0.3203128 0.5276863 0.054463364

mu f4 [100]
00000000: 1867 28bf d972 b2bf 10f6 9abf 8298 e0bf
00000010: 132c 04c0 d88e 31bf 54fa 96bf 4427 fabf
00000020: ded1 97bf 2c99 75bf 3dde 4cbf fe66 82bf
00000030: b6a6 a9be 7217 98bf 6c1a d4bf ef4b 1ebf
00000040: 90ce edbe 23d4 0dc0 43fe 3ebf bb2b 5cbf
00000050: 1b3d 29bf 0e4a c2bf 5b56 99bf 68f0 d9bf
00000060: 04d8 02c0 810f 3bbf 5537 99bf 4a4a f7bf
00000070: 7130 a2bf 1f11 6dbf 8cf3 49bf d477 8dbf
00000080: 5f60 afbe 6145 a1bf d057 c8bf a2c4 1ebf
00000090: 5be7 dfbe 5840 11c0 6839 59bf 5017 55bf
000000a0: c110 23bf 1091 b7bf 3baf 83bf fb48 c8bf
000000b0: 3fd2 01c0 a683 2ebf 095d 8cbf d66a e7bf
000000c0: 7d7b 91bf 70a9 90bf 39f0 89bf 6874 80bf
000000d0: d2d4 0fbf 6bcd abbf 6baa c4bf 29d5 04bf
000000e0: 7c97 e2be 725c 11c0 8157 57bf 624c 7dbf
000000f0: 39e2 1cbf b937 b3bf 57a4 7bbf 0487 c0bf
00000100: abd4 01c0 fe5d 24bf baf3 80bf 296d dfbf
00000110: 15dc 8fbf 11e2 9dbf bc11 97bf 96af 70bf
00000120: 374d 29bf 549b b9bf 3360 b3bf 33e3 ebbe
00000130: 2770 d0be e1b6 17c0 8dc6 6ebf 6815 88bf
00000140: 8dc8 37bf 2501 c1bf ccb0 adbf d687 fbbf
00000150: 39b1 ffbf a50c 63bf 6095 a9bf 3b77 04c0
00000160: f390 a9bf 64f4 37bf 8488 26bf de3a 8fbf
00000170: 7356 96be 7fa0 81bf 966d e0bf 2cd6 46bf
00000180: 8bfb febe d26b 0dc0 833d 35bf 04af 21bf
-0.6578231 -1.3941299 -1.2106342 -1.7546542 -2.06519 -0.6935859 -1.1795144 -1.9543233
-1.1860921 -0.95936847 -0.8002661 -1.0187681 -0.33135003 -1.1882155 -1.6570563 -0.61834615
-0.46446657 -2.2160728 -0.7460672 -0.8600423 -0.66108865 -1.517885 -1.1979479 -1.7026491
-2.0444345 -0.7307053 -1.1970011 -1.9319546 -1.2671033 -0.9260425 -0.7888725 -1.1052194
-0.34253213 -1.2599298 -1.5651798 -0.6201879 -0.43731198 -2.2695522 -0.8485322 -0.832387
-0.6369744 -1.4341145 -1.0287851 -1.5647272 -2.0284574 -0.6816963 -1.0965892 -1.8079479
-1.1365811 -1.1301708 -1.0776435 -1.0035524 -0.56184113 -1.3422064 -1.5364507 -0.51887757
-0.44256198 -2.2712674 -0.84117895 -0.98944676 -0.6128269 -1.400138 -0.9829764 -1.5041203
-2.0286052 -0.6420592 -1.007438 -1.7455188 -1.1239039 -1.2334615 -1.1802287 -0.9401792
-0.66133446 -1.4500527 -1.4013733 -0.46071777 -0.40710565 -2.370537 -0.93271714 -1.0631533
-0.7179039 -1.5078474 -1.3569579 -1.9650829 -1.9975959 -0.8869117 -1.3248711 -2.0697773
-1.324736 -0.71857285 -0.65052056 -1.118984 -0.2936283 -1.0127105 -1.7533443 -0.7767055
-0.49801287 -2.2097058 -0.70796984 -0.6315768

sigma f4 [100]
00000000: 2ba9 da3f c8f6 1440 7783 0d40 0f85 2940
00000010: ecf3 0540 908a 0040 05fa 0840 84de 2440
00000020: e214 0c40 8e4a 2c40 3a89 3340 2239 0b40
00000030: acf9 0940 9c2e 3d40 b2c5 2c40 76ce 0840
00000040: 7f60 bc3f 0f7f 2940 ac23 0e40 0351 1940
00000050: b665 d63f 003e 1140 666a 1040 0b63 2c40
00000060: 1909 0840 d1e5 ff3f 1ee7 0a40 f7f2 2640
00000070: dccf 0b40 4a39 2e40 66f2 3540 df4d 0640
00000080: b42d 0b40 8fd2 3940 fb06 3340 be46 0940
00000090: 78ae be3f 71e2 2a40 2807 0a40 2a62 1b40
000000a0: cfbe d73f 31e0 1140 bcaa 1040 fb4e 2d40
000000b0: 95fe 0c40 f6a8 0140 2f44 0b40 c644 2840
000000c0: 533a 0e40 6cc6 2d40 2b79 2d40 8ca4 0740
000000d0: 638a 0340 d89c 3f40 807c 2d40 4efb 0740
000000e0: 0cb3 c03f 9d4a 3040 3516 0d40 c447 1d40
000000f0: 8c6f d43f 5091 1140 d30f 0e40 0f8d 2740
00000100: 4e5b 0d40 1829 0140 9f71 0d40 33a6 2940
00000110: c926 0d40 ba70 2c40 826a 2c40 4cd9 0640
00000120: c531 0040 7763 3d40 0897 3240 2c56 0640
00000130: f451 c33f eabf 2a40 7b0c 0a40 4d63 1c40
00000140: 6379 d43f b16a 1640 1586 1240 e4f8 2840
00000150: 891e 0640 3d41 0340 28cb 0b40 e51b 2b40
00000160: 1c7f 1040 cb47 3040 357d 3240 d361 1340
00000170: 11b2 0240 6aa8 4040 462d 2e40 bb1b 0740
00000180: 1ef4 b83f e44c 2640 b0b6 0d40 2c5b 2140
1.7082876 2.3275623 2.211149 2.6487463 2.0930128 2.0084572 2.14026 2.5760813
2.1887746 2.6920505 2.8052506 2.175362 2.1558638 2.9559698 2.6995664 2.1376014
1.4716948 2.64838 2.2209272 2.3955696 1.674979 2.2694092 2.256494 2.693545
2.1255553 1.9992009 2.1703563 2.6085794 2.1845617 2.7222466 2.8429198 2.0985029
2.1746645 2.9034765 2.797301 2.1449428 1.4896994 2.670071 2.1566868 2.4278665
1.6855105 2.2793086 2.2604208 2.7079456 2.2030385 2.0259376 2.1760366 2.6291976
2.2223098 2.7152357 2.7105205 2.1194181 2.0553215 2.993948 2.7107239 2.1247134
1.5054641 2.754554 2.2044804 2.4575052 1.6596541 2.2744942 2.2197158 2.6179845
2.2086978 2.0181332 2.21006 2.650769 2.2054923 2.6943803 2.6940007 2.1070127
2.0030377 2.9591959 2.7904682 2.0990095 1.5259385 2.6679635 2.1570117 2.4435608
1.6599544 2.350262 2.2894337 2.640191 2.0956137 2.0508568 2.1842747 2.6735775
2.2577581 2.754382 2.788892 2.3028457 2.0421183 3.0102792 2.7215133 2.1110675
1.4449499 2.598443 2.2142754 2.5211897

mu f4 [2]
00000000: 0ac0 a03f 33f3 723f
1.2558606 0.9490234

sigma f4 [2]
00000000: 3874 1a40 e71c fb3c
2.4133434 0.03065343
