models/HLA_DR_PerPositionStructure_IleIo/checkpoint_best_kcv_HLA_DR_subsample_all_partitions_922k_f02_RERUNS_FEB3_CORRECT_HYPERPARAMS-HLA_DR_PerPositionStructure_KFold_2_250204_0005_IleIo.pt (torch, 249761 bytes, 3 tensors)

in_layer.weight f4 [64, 960]
0.025458202 -0.011756462 0.021686658 -0.013242811 0.037012335 -0.021809699 -0.021453025 -0.020430375
0.018458696 -0.010246151 -0.055599798 -0.0062725767 -0.009790896 0.05540468 0.0036576393 0.025218032
0.011421272 -0.04906096 -0.026186265 0.04730531 -0.08296392 0.0029693246 -0.003245636 0.018589774
-0.14672253 0.015523763 -0.015061205 -0.0018734942 0.021249436 -0.01407445 -0.08114823 -0.0046342383
-0.0029809107 0.022567386 -0.03287096 -0.042085078 -0.016117875 0.0013155128 -0.0055207987 0.016006073
0.014364089 0.023500418 0.07395978 0.083443165 -0.036856137 -0.030011589 0.004901777 -0.011846858
0.027240943 -0.10052698 -0.04321913 0.0024247316 -0.004386289 0.06810182 -0.049250983 -0.05961486
0.004696805 -0.0012705461 -0.0037833836 -0.001412709 0.011009122 -0.061071903 -0.032834213 0.07414186
0.05712083 0.048497774 0.08376216 -0.008710175 0.01590033 0.05137357 -0.08481743 0.059598453
-0.042927146 -0.004083389 -0.09670172 0.010955093 0.09324709 -0.08610278 -0.08816001 -0.054196708
0.040418148 -0.039459947 -0.006757638 0.0440127 0.012777061 -0.009849827 0.0632477 0.047689617
-0.038636643 -0.0005426651 -0.049186703 -0.08477197 0.06550417 0.12904401 0.022324132 -0.015973765
0.018660957 -0.053268157 -0.04047738 -0.072449856 -0.008637105 0.010502562 0.0050480533 0.0096368315
0.042873785 0.043116976 0.037763115 0.0010197256 -0.01782223 -0.006285714 0.0238154 -0.0139712775
-0.026603213 -0.0079437075 -0.014811918 -0.045560043 0.011476741 0.034363743 -0.010001378 -0.011012978
-0.020722337 -0.010694704 0.020232812 0.016450735 -0.016376797 -0.10738721 0.023555432 0.10445951
-0.10025705 -0.05740747 -0.060850535 0.04247019 -0.013109576 0.04745133 0.041751366 0.025458176
0.086166546 0.0057727685 0.034732938 -0.05093765 -0.19659695 -0.021922152 0.037333515 0.028873663
0.0075589027 0.0528253 0.014088367 -0.02577485 0.019805644 -0.022127587 -0.03730832 -0.009198749
0.022942789 0.087799475 -0.018034255 0.02991343 -0.00769275 -0.066115424 -0.044449903 0.054477528
0.004989798 -0.026641075 0.079729244 -0.05076758 -0.021412041 -0.0047771847 -0.07416331 0.0017766964
-0.017247874 0.012852365 -0.047069233 0.038207494 -0.0017188727 -0.022607239 0.013084139 0.046187147
0.01442832 -0.0836547 -0.04721289 0.068507314 -0.007828174 0.01702393 -0.018005313 0.023057317
-0.06299991 0.017607665 -0.002754679 0.032895062 0.05215204 0.007549502 0.075471476 0.028858168
-0.00051019125 -0.025061911 -0.036416966 0.0070342817 0.01761481 0.053891163 -0.0187592 0.08116102
0.070080474 -0.09303651 -0.14235553 -0.07785953 0.024907717 0.1416228 -0.08006923 0.028893616
-0.007959767 -0.0077326163 -0.012607988 -0.10724272 0.026623175 -0.030756058 0.02116221 0.107016884
-0.016823662 0.026485732 -0.009458726 0.013724551 -0.041685052 0.0026197643 -0.05035793 0.019130085
0.051499348 -0.6395658 -0.9975049 -0.94476634 -0.96890354 1.8768463 -1.3037409 -1.0801376
-0.67929745 -0.7488439 0.11497082 1.0555462 -1.543804 0.53934926 1.058097 -1.4231893
-0.6044139 -0.90730405 0.74628067 0.42035717 -0.33560595 -0.69271404 -1.4472793 -0.8732926
-1.110125 1.881419 -1.2895894 -0.88236386 -0.40970504 -1.0929871 0.626251 1.0704569
00000000: b88d d03c 2d9e 40bc 38a8 b13c 60f8 58bc
00000010: 3f9a 173d 41aa b2bc 41be afbc 9a5d a7bc
00000020: b136 973c 79df 27bc 9dbc 63bd 308a cdbb
00000030: ff69 20bc 05f0 623d 01b5 6f3b 0c96 ce3c
00000040: 4920 3b3c 25f4 48bd 9484 d6bc 36c3 413d
00000050: fde8 a9bd 0099 423b bcb4 54bb 9549 983c
00000060: 6e3e 16be 6257 7e3c 46c3 76bc 0990 f5ba
00000070: 4c13 ae3c 8698 66bc 0b31 a6bd cfda 97bb
00000080: 625b 43bb 3ddf b83c b3a3 06bd 6761 2cbd
00000090: a209 84bc 496d ac3a d1e7 b4bb 2b1f 833c
000000a0: 5b57 6b3c f383 c03c 3a78 973d 40e4 aa3d
000000b0: 76f6 16bd ddda f5bc 169f a03b 5319 42bc
000000c0: 6628 df3c 17e1 cdbd 8b06 31bd 3fe8 1e3b
000000d0: dcba 8fbb f878 8b3d 66bb 49bd b62e 74bd
000000e0: a8e7 993b 7488 a6ba a5f2 77bb a62a b9ba
000000f0: 9b5f 343c 8826 7abd 2b7d 06bd b0d7 973d
00000100: 88f7 693d 9aa5 463d 7f8b ab3d 1fb5 0ebc
00000110: 6941 823c 186d 523d c3b4 adbd 821d 743d
00000120: 60d4 2fbd f3cd 85bb 8d0b c6bd fe7c 333c
00000130: 55f8 be3d a856 b0bd 3c8d b4bd 5efd 5dbd
00000140: 808d 253d c1a0 21bd 2d6f ddbb a946 343d
00000150: e156 513c 2b61 21bc 0388 813d 3056 433d
00000160: 7541 1ebd a341 0eba ff77 49bd ed9c adbd
00000170: 0d27 863d 1d24 043e 19e1 b63c 6adb 82bc
00000180: ddde 983c b62f 5abd 9ccb 25bd 9760 94bd
00000190: a582 0dbc f012 2c3c 246a a53b cde3 1d3c
000001a0: 6c9c 2f3d 6d9b 303d 7fad 1a3d 50a8 853a
000001b0: edff 91bc 64f8 cdbb 8418 c33c c9e7 64bc
000001c0: fbee d9bc 5326 02bc b0ad 72bc 2b9d 3abd
000001d0: f108 3c3c ffc0 0c3d d2dc 23bc c76f 34bc
000001e0: e4c1 a9bc d738 2fbc 48bf a53c b1c3 863c
000001f0: a228 86bc d3ed dbbd 52f7 c03c deee d53d
00000200: 9153 cdbd 1824 6bbd 693e 79bd 39f5 2d3d
00000210: 8cc9 56bc 535c 423d 7b03 2b3d aa8d d03c
00000220: 1678 b03d 7e29 bd3b 2044 0e3d ffa3 50bd
00000230: b650 49be 1696 b3bc 07eb 183d 7688 ec3c
00000240: acb0 f73b 575f 583d e5d2 663c c725 d3bc
00000250: 723f a23c ea44 b5bc 9cd0 18bd 5ab6 16bc
00000260: 84f2 bb3c 36d0 b33d 93bc 93bc 020d f53c
00000270: 7713 fcbb 8667 87bd 1a11 36bd d423 5f3d
00000280: 7681 a33b 623e dabc 1649 a33d aaf1 4fbd
00000290: 4e68 afbc ee89 9cbb efe2 97bd 0ae0 e83a
000002a0: 6a4b 8dbc ba92 523c abcb 40bd 767f 1c3d
000002b0: cc4b e1ba d132 b9bc db5e 563c bc2e 3d3d
000002c0: c364 6c3c 2853 abbd 4e62 41bd 904d 8c3d
000002d0: be41 00bc c575 8b3c e17f 93bc b3e2 bc3c
000002e0: 1906 81bd f33d 903c d887 34bb f9bc 063d
000002f0: 619d 553d d061 f73b ca90 9a3d f767 ec3c
00000300: 5bbe 05ba a34e cdbc f529 15bd d57f e63b
00000310: ef4c 903c fbbc 5c3d e5ac 99bc c037 a63d
00000320: 5a86 8f3d ed89 bebd a6c5 11be d174 9fbd
00000330: 450b cc3c 9105 113e 56fb a3bd 4eb2 ec3c
00000340: af69 02bc e361 fdbb bc91 4ebc 12a2 dbbd
00000350: d818 da3c 21f4 fbbc 5f5c ad3c ab2b db3d
00000360: c7d1 89bc 9bf8 d83c c6f8 1abc f0dc 603c
00000370: f2bd 2abd 5ab0 2b3b 1e44 4ebd b2b6 9c3c
00000380: fbf0 523d 96ba 23bf 7b5c 7fbf 35dc 71bf
00000390: 100a 78bf 803c f03f fbe0 a6bf f341 8abf
000003a0: 70e6 2dbf 3cb4 3fbf d275 eb3d 231c 873f
000003b0: 5f9b c5bf cb12 0a3f b96f 873f 112b b6bf
000003c0: dfba 1abf 1445 68bf 400c 3f3f 0e39 d73e
000003d0: 8bd4 abbe b555 31bf 7340 b9bf 1b90 5fbf
000003e0: 9318 8ebf 56d2 f03f 4411 a5bf 99e2 61bf
000003f0: dcc4 d1be 00e7 8bbf fc51 203f bb04 893f

in_layer.bias f4 [64]
0.0013435165 -0.024544418 0.02959083 -0.019274075 0.032991458 -7.991752e-05 0.0043162894 0.0106506925
-0.012044821 0.021637237 -0.01903279 0.016635358 -0.004867449 -0.011200562 -0.028314661 0.014493951
-0.0060165613 0.010926722 -0.0039236727 0.011794764 -0.004692924 -0.030402754 -0.00990655 -0.028534831
-0.0122213755 -0.023328664 0.015808854 0.02185015 -0.025223643 0.01373298 -0.010545566 -0.01889357
-0.008766414 0.020925729 -0.0035129583 0.009150323 -0.025532056 -0.017191188 -0.012844116 0.0037223792
-0.010140567 -0.006008237 -0.013108275 -0.028806059 0.0068447758 0.033148464 -0.027675984 0.0064273328
-0.0095590595 0.03304046 -0.00014439956 0.007547809 0.02792424 -0.0068901153 0.0023183543 0.012035599
0.007916337 0.020583844 0.0067726737 -0.029198308 0.008537093 0.027125832 -0.0099158455 0.026499884
00000000: ef18 b03a 6011 c9bc 7868 f23c aae4 9dbc
00000010: 0d22 073d 6499 a7b8 a96f 8d3b 3e80 2e3c
00000020: a457 45bc 9340 b13c a7ea 9bbc e046 883c
00000030: 1f7f 9fbb 9082 37bc 26f4 e7bc 0978 6d3c
00000040: 9326 c5bb fe05 333c 2792 80bb d33e 413c
00000050: 1ac7 99bb 320f f9bc 154f 22bc e1c1 e9bc
00000060: 2a3c 48bc c11b bfbc 9281 813c 16ff b23c
00000070: d0a1 cebc 4b00 613c 4fc7 2cbc b0c6 9abc
00000080: 01a1 0fbc 6f6c ab3c a939 66bb 3deb 153c
00000090: 9a28 d1bc 89d4 8cbc 2170 52bc 29f3 733b
000000a0: 9f24 26bc bfe0 c4bb 17c4 56bc affa ebbc
000000b0: 244a e03b afc6 073d bfb8 e2bc 609c d23b
000000c0: 9a9d 1cbc 6f55 073d f669 17b9 9c53 f73b
000000d0: 60c1 e43c 7ac6 e1bb 88ef 173b f630 453c
000000e0: 86b3 013c 739f a83c 4eed dd3b 4a31 efbc
000000f0: 2adf 0b3c fe36 de3c 1276 22bc 4916 d93c

out_layer.weight f4 [1, 64]
-0.43831047 -0.447413 0.43702683 -0.47547558 0.290981 -0.4020314 -0.4384483 -0.4206069
0.05513933 -0.29443866 -0.43490475 0.30522287 0.48460996 -0.54710037 -0.4223715 0.15359718
0.35101816 -0.4326007 0.12131469 -0.0444493 -0.20141764 -0.24456336 0.33200645 -0.30336335
-0.46940434 -0.45364976 0.38332635 0.44125268 -0.2522606 -0.41765913 -0.42142546 0.22322366
-0.42754114 0.5745685 -0.46491522 0.33907348 -0.5897841 -0.5061016 -0.36858454 0.27170452
-0.40601745 -0.49917534 -0.34319052 0.343566 0.3754331 -0.20004538 -0.41906703 0.30776274
-0.4839338 -0.4120206 0.33565703 0.2988824 0.30460984 0.29607818 0.29989618 -0.44009492
-0.3387677 0.23319781 0.32105085 0.28185344 -0.36113682 -0.23308575 -0.50478864 -0.29554796
00000000: 3b6a e0be 5113 e5be fbc1 df3e 8971 f3be
00000010: 76fb 943e 0fd7 cdbe 4c7c e0be ca59 d7be
00000020: c7d9 613d aac0 96be d6ab debe 2c46 9c3e
00000030: cc1e f83e c50e 0cbf 1441 d8be 9448 1d3e
00000040: a7b8 b33e d77d ddbe d673 f83d 7810 36bd
00000050: 6d40 4ebe d16e 7abe c0fc a93e 7152 9bbe
00000060: c455 f0be c844 e8be 5a43 c43e dfeb e13e
00000070: 4d28 81be 6bd7 d5be 14c5 d7be be94 643e
00000080: ace6 dabe ec16 133f 5e09 eebe 0a9b ad3e
00000090: 17fc 16bf e08f 01bf 1db7 bcbe db1c 8b3e
000000a0: 85e1 cfbe e993 ffbe abb6 afbe e2e7 af3e
000000b0: c438 c03e b2d8 4cbe f48f d6be 1493 9d3e
000000c0: 2cc6 f7be 5df4 d2be 3ddb ab3e 1d07 993e
000000d0: d2f5 9b3e 8f97 973e fe8b 993e 1f54 e1be
000000e0: f672 adbe 68cb 6e3e c760 a43e 184f 903e
000000f0: ede6 b8be 08ae 6ebe d439 01bf 1052 97be
