output/230530_EF_COMPARISON/230530_CEDAR_WITH_EF_230530_163155_52N6h/checkpoint_best_kcv_230530_cedar_aligned_f7_230530_CEDAR_WITH_EF_230530_163155_52N6h.pt (torch, 19939 bytes, 25 tensors)

ef_inlayer.weight f4 [5, 4]
000000 09 a4 f7 3e 1d 53 1d 3c a2 82 09 bd ca e4 49 be
       0.48367336 0.009602335 -0.033571847 -0.19716182
000010 16 ae 6b be 1e 34 ef 3d 76 13 3b be 91 cc 97 3e
       -0.23015627 0.116798624 -0.18269143 0.2964826
000020 03 94 d9 be a5 75 dc be 4b 15 1c 3e bd 2d 44 3e
       -0.42495736 -0.43058506 0.15242498 0.19158073
000030 d1 8e c2 3e 42 c5 f6 be 55 19 04 3c a7 26 8a 3d
       0.37999585 -0.4819737 0.00806268 0.067456536
000040 cb eb de 3c c3 c9 5a bd 38 03 b3 3d 7d 02 da 3d
       0.027212044 -0.05341507 0.08740848 0.10645006

ef_inlayer.bias f4 [5]
000000 79 d3 48 35 0b a0 7d 3d d6 4d 71 3e 4e 14 a7 32
       7.481354e-07 0.061920207 0.23564848 1.9450592e-08
000010 bb a5 eb 3d
       0.1150622

ef_outlayer.weight f4 [1, 5]
000000 f1 f2 0e be 38 69 86 3d 44 0a b3 3e 3c e6 f4 3d
       -0.13959862 0.06563038 0.3496877 0.11957976
000010 56 3d 7f be
       -0.24925742

ef_bn1.weight f4 [5]
000000 77 fc 6d 3f 38 5f 68 3f cc 13 6f 3f e0 bf 66 3f
       0.92963356 0.9077029 0.9338958 0.9013653
000010 99 91 75 3f
       0.9592529

ef_bn1.bias f4 [5]
000000 48 97 e1 3d b3 5b b3 bd d2 a8 d2 bd c6 16 b7 bd
       0.11015183 -0.087577246 -0.10286106 -0.089398906
000010 92 4d d5 3d
       0.10415186

ef_bn1.running_mean f4 [5]
000000 80 eb 06 40 4a b5 a6 40 64 84 b6 c0 21 0b 23 3e
       2.1081238 5.20963 -5.703661 0.15922214
000010 66 ae 26 c0
       -2.6043944

ef_bn1.running_var f4 [5]
000000 e4 90 66 3f 32 8d 11 3f 89 78 de 3f d7 f5 f5 3f
       0.90064836 0.5685607 1.7380534 1.9215649
000010 7c 9a 88 3d
       0.066700906

nnalign.in_layer.weight f4 [25, 100]
000000 24 ee d7 ba 3c 8d 51 bc f8 b1 bc b8 9e 6c 68 3a
       -0.001647417 -0.012790021 -8.997688e-05 0.0008866283
000010 37 68 10 3c 9d 55 26 3c 74 03 41 bc ae 4f a5 bc
       0.008813909 0.010152248 -0.011780608 -0.020179596
000020 32 86 63 3c 7e ce 32 3c cf 54 35 3c ab 74 9c bb
       0.013886975 0.010913489 0.011067583 -0.00477465
000030 4d 9b 11 bc 19 8e 77 bc 5a 30 97 3c 1d 62 49 3c
       -0.008887124 -0.015109562 0.018455673 0.012291458
000040 9d 27 96 3b 74 c0 a6 bc 12 20 d8 3c 96 2c 62 bc
       0.004582359 -0.02035544 0.02638248 -0.013804575
000050 29 9f bb 3c 9c 8c 57 3b ab 6a 7a 3c c7 1e 15 bc
       0.022903042 0.0032890206 0.015284221 -0.009101576
000060 b3 49 15 bc c5 4f 29 bc 13 27 15 3c 54 a8 ba ba
       -0.00911181 -0.01033396 0.009103554 -0.001424084
000070 6a d8 88 bb 6c 86 ca bb 55 35 41 3c a9 f5 86 3b
       -0.004176189 -0.006180575 0.0117925005 0.0041186404
000080 bf b5 4f 3b e3 8e 2d 3c 20 bb f9 3a 4c 7f fb 3c
       0.0031694022 0.010593149 0.001905296 0.030700348
000090 eb f8 01 3b fa 1f 34 bb a9 b1 1f ba 69 00 fa 3a
       0.0019832205 -0.002748488 -0.0006091842 0.0019073609
0000a0 89 c4 c3 39 fb de fd bb a5 b3 54 bc a4 23 54 3c
       0.00037339728 -0.0077475286 -0.012982284 0.0129479505
0000b0 41 71 ab 3c 1f 8c 84 bb cd 7a 88 bb 4a 6f e2 3b
       0.020928027 -0.004045024 -0.0041650296 0.0069102393
0000c0 c2 4e 23 3b ce db ff bc 07 05 80 bc 24 45 70 3c
       0.002491877 -0.03123274 -0.015627397 0.014664922
0000d0 f2 26 c9 3c c8 82 3a bb e5 17 a3 bc c2 4f 1e 3b
       0.024554703 -0.00284593 -0.019908855 0.0024156426
0000e0 68 ed 34 ba 66 89 0c 3c 1f 5f 09 3a 30 50 98 bb
       -0.00069018314 0.00857768 0.00052403094 -0.004648231
0000f0 1b 45 39 bb 0e d3 22 3c e8 66 47 3b bd e9 8f bc
       -0.002826995 0.009938015 0.0030426327 -0.01756751
000100 0f 0a d2 ba 36 ae 3a 3c 87 42 db ba 11 f4 6c 3b
       -0.0016024726 0.011394074 -0.0016728201 0.0036156217
000110 26 13 59 bc b2 49 1f 3b a4 35 45 bb 78 7a 50 3b
       -0.013249194 0.00243054 -0.0030091787 0.0031811278
000120 07 e3 da 3b b1 d0 81 bb c4 9d 7e 38 43 53 ba 3c
       0.006679896 -0.0039616455 6.070525e-05 0.02274478
000130 90 12 5a bb df 6d dd bb 79 fa f7 bb ca b3 0b bc
       -0.0033275224 -0.0067574824 -0.0075677005 -0.008526752
000140 ea 8f 81 3c 32 46 a8 bc 45 4d 22 3c b5 7c ab 3b
       0.015815694 -0.020541284 0.009906118 0.005233372
000150 9d f1 4f bc ab 16 58 3c 60 8a 6e 3c 5e 44 df 3b
       -0.012691882 0.013188998 0.014559358 0.00681357
000160 d0 5e 91 bb a5 1b 2e 3c e1 44 91 bc ff 34 83 bb
       -0.0044363514 0.010626708 -0.01773304 -0.0040041204
000170 c7 ad ec ba 44 a6 8e ba 21 15 93 bc fa a8 a9 bb
       -0.0018057161 -0.0010883291 -0.017954411 -0.0051776143
000180 4a 5c ea bb 39 cd 9f 3c 5e 2c a8 bb 99 dd 94 ba
       -0.007152115 0.019507037 -0.005132242 -0.0011357545
000190 6a af 7c bc 6b 02 ff bc 2e 57 5f bc bc b1 17 3a
       -0.015422681 -0.031129083 -0.013631625 0.00057866774
0001a0 85 de 7b bc fa b9 e4 bc b5 02 13 3d 79 e8 ab 3c
       -0.015372877 -0.027920712 0.035891254 0.020984875
0001b0 e7 e4 01 bd e2 b6 e1 3b f7 b1 3a bb 06 be d4 3c
       -0.03171244 0.0068882564 -0.0028487423 0.025969516
0001c0 c0 62 a5 3c 2e 59 5c 3c f9 26 a1 bc 79 2e eb bc
       0.02018869 0.0134489965 -0.019671904 -0.028708683
0001d0 22 57 73 bc 45 6d f4 bb 14 99 90 bc ed 37 fa ba
       -0.014852317 -0.007459315 -0.017651118 -0.0019090154
0001e0 c6 db 78 bc 46 d7 89 bc 72 92 8c 3b 72 7e 13 bc
       -0.015189117 -0.016826283 0.0042899186 -0.009002315
0001f0 3d 52 a7 3c 32 48 44 3c f0 ea 89 bc d3 1e 11 bd
       0.020424956 0.011980103 -0.01683566 -0.035429787
000200 0a a1 b8 3c 17 0c 87 3c 20 73 b6 bb d0 83 85 bc
       0.022537727 0.016485257 -0.005567923 -0.016298205
000210 36 35 f2 bc 84 1f 16 3c 2c 0e f9 3c 3c df 9f bc
       -0.029566389 0.009162787 0.030402265 -0.019515626
000220 f1 92 e9 bc e7 da 47 3c bf 6f f7 3c 69 3b 49 ba
       -0.02851245 0.0121981865 0.030204652 -0.00076763943
000230 09 c9 51 3c a0 26 8e 3c 19 44 e2 3b d3 65 c2 bb
       0.012804278 0.017352402 0.0069050905 -0.0059325485
000240 9a 87 04 bd 74 08 e0 bc 15 17 a0 3a a0 a9 6b bb
       -0.032355882 -0.02734778 0.001221391 -0.0035959259
000250 72 b8 de 3c b1 df ec 3c fc e4 d2 3b 81 3e 0d bd
       0.02718756 0.028915258 0.0064359885 -0.034483436
000260 27 21 fa bc 9a c1 cf 3c 9f e4 20 3d cd f2 7b 3b
       -0.030533386 0.025360871 0.03928053 0.003844428
000270 e0 08 bc bc 50 eb 81 3b 09 52 0b 3d ad b6 e5 bb
       -0.02295345 0.003964819 0.03401378 -0.007010302
000280 35 c5 d0 3b ad ad 9a bc 40 3e 61 bc b4 8e a6 bc
       0.006371165 -0.018881643 -0.013747752 -0.020331718
000290 a0 4c 7a 3c 50 a4 29 bd 8b d0 02 bc d1 c8 85 bc
       0.015277058 -0.041416466 -0.007984291 -0.016331108
0002a0 14 38 4d 3d 4f 6e 90 3c 37 a4 6b 3c d6 cc 06 bd
       0.05010231 0.017630724 0.014382414 -0.03291019
0002b0 d9 dc 03 3d a1 75 23 3b 50 d2 ca bb 44 0f 9e 3a
       0.03219304 0.0024941938 -0.006189622 0.0012058993
0002c0 74 56 e5 bc 22 a4 37 3c ba e3 03 3d 6d c0 94 bb
       -0.027995326 0.011208566 0.0321996 -0.0045395405
0002d0 92 b9 0d 3d 58 86 1a 3c 96 81 da bc 75 c1 00 bc
       0.0346008 0.009431444 -0.02667312 -0.007858624
0002e0 63 ae 29 3b cd d2 02 bd f0 74 22 bd fa 45 7e 3b
       0.0025891296 -0.031939317 -0.0396623 0.0038799034
0002f0 27 32 09 3d af 93 c1 3c 6c 72 db 3c 97 75 3e 3d
       0.033495095 0.023629991 0.026787959 0.04649886
000300 30 0e 2f 3d 10 52 33 bd 20 a2 8c bc 28 45 e7 bc
       0.04273814 -0.043779433 -0.017167151 -0.028231218
000310 b4 0a c2 3a b8 b6 7c bc de e9 c6 3c b8 3a ef bc
       0.0014804215 -0.015424423 0.024281438 -0.029202804
000320 39 97 dc 3a a3 22 86 3c a1 02 2d 3b 89 8b a3 bc
       0.0016829736 0.016373938 0.0026399272 -0.019963996
000330 35 69 96 bb 85 ae 5b 3c be 75 89 bb 11 d0 98 bc
       -0.0045901784 0.013408308 -0.004194944 -0.018653901
000340 81 a0 b8 3c d0 4c ac 3c cd 67 2f bc 6a dd f8 bb
       0.022537472 0.02103272 -0.0107059 -0.007594754
000350 76 f3 a1 bc c5 ed d7 3c 23 11 18 3d d6 ba 87 3c
       -0.019769412 0.026358495 0.037125718 0.016568583
000360 fe 8a 8d 3c d1 5e 9f bb 82 a0 80 bb 8c 5d 4a bb
       0.01727819 -0.004863598 -0.003925384 -0.0030878512
000370 62 3e e5 3c 84 89 19 3c c4 a9 fb 3b eb ed 41 bb
       0.027983848 0.009371165 0.0076801497 -0.0029591273
000380 7f d1 16 bc 9f 67 41 bc 16 84 31 bb e8 83 4b 3c
       -0.009205221 -0.01180449 -0.0027086786 0.012421586
000390 2c 09 07 bd 30 5b 27 bc 2a f2 da bc 83 88 89 3c
       -0.03296773 -0.010214612 -0.026726801 0.016788727
0003a0 a2 c5 73 3c ee 5a ec 3c 51 8f ee 3c e8 2f e2 3c
       0.014878662 0.028851952 0.029121073 0.027610734
0003b0 d1 63 27 3c 65 5c b3 bb b7 5b 8b 3c 90 f7 54 bb
       0.010216669 -0.005473661 0.017011506 -0.0032496192
0003c0 5f 3d 8f 3b e4 0e 73 bb 93 a7 17 bc e2 28 98 bc
       0.0043713297 -0.0037087733 -0.009256261 -0.018574182
0003d0 18 4a d4 bb 79 f2 05 3d a1 0f 1d bb 70 40 82 bc
       -0.006478559 0.032701943 -0.0023965614 -0.015899867
0003e0 2c 6e 0f 3c bc f8 96 3c 80 82 a6 bb 45 c5 0a 3c
       0.008754294 0.018429153 -0.005081475 0.008469884
0003f0 1b fd 9e bc 73 0b aa 3c 3f 1a 11 bd af a5 d8 3c
       -0.0194078 0.020757413 -0.03542542 0.026446192

nnalign.in_layer.bias f4 [25]
000000 b8 2b a5 b9 11 79 c1 b9 1a a2 ba bb 5c 32 37 b3
       -0.00031503825 -0.0003690203 -0.0056955935 -4.265381e-08
000010 37 29 52 bb 39 de e9 30 82 39 fd 34 41 5f 2c 3c
       -0.0032068023 1.7016141e-09 4.7166765e-07 0.010520757
000020 7a 6c 6a b2 74 cb cf 3b 41 cf 5a bb 8b ec e4 b5
       -1.3645257e-08 0.006341392 -0.0033387693 -1.7056167e-06
000030 fc 6a bf b8 a6 52 02 b8 ae 6f 1c bc fa 2b 5b bc
       -9.127517e-05 -3.1071388e-05 -0.009548111 -0.013377184
000040 d5 7b d1 bb 0e 54 68 3c 19 08 e9 b9 e6 34 bd 39
       -0.0063929358 0.014180196 -0.00044447256 0.00036088302
000050 7a 73 23 37 ee 2d 92 30 61 75 41 32 95 2c 57 b2
       9.742444e-06 1.0635952e-09 1.1260767e-08 -1.2524784e-08
000060 90 1d 34 b7
       -1.0735719e-05

nnalign.out_layer.weight f4 [1, 25]
000000 37 c9 4e 3d db 5c 50 be 1e a4 de 3d af be 07 bd
       0.050484862 -0.20347922 0.108711466 -0.033140834
000010 d7 ee 08 be a9 a6 4c 3e 97 64 2a be d5 65 a7 bd
       -0.1337236 0.19985451 -0.16639934 -0.0817372
000020 a6 a6 b2 3d da 02 a6 3d f3 43 d3 bd f8 ca 66 bd
       0.08723192 0.08106013 -0.10315695 -0.05634591
000030 07 16 3f 3e c1 d2 35 3e db e5 be bd cd c8 27 be
       0.18660747 0.17756177 -0.09321185 -0.16385193
000040 4d 39 21 be df 4f 00 3e c0 d5 28 be 7c 0f f5 3d
       -0.15744515 0.12530468 -0.16487789 0.11965844
000050 04 b4 6c 3d 2c fa f3 3d 4c db 2d be 88 6b 47 be
       0.057788864 0.11912951 -0.16978186 -0.19474614
000060 86 56 d0 bd
       -0.10172753

nnalign.bn1.weight f4 [25]
000000 7c 29 65 3f 73 7d 65 3f 10 5c 65 3f 60 16 65 3f
       0.89516425 0.89644545 0.895936 0.89487267
000010 d2 39 65 3f 76 8b 65 3f 53 51 65 3f f9 37 65 3f
       0.8954135 0.89665926 0.89577216 0.8953853
000020 f9 3d 65 3f dc 10 65 3f 97 47 65 3f 38 22 65 3f
       0.8954769 0.8947885 0.8956236 0.8950534
000030 9b 7d 65 3f 6b 64 65 3f 48 44 65 3f 68 4e 65 3f
       0.89644784 0.8960635 0.89557314 0.89572763
000040 58 63 65 3f 73 4e 65 3f 58 44 65 3f 3c 55 65 3f
       0.8960471 0.8957283 0.8955741 0.8958318
000050 aa 26 65 3f 06 61 65 3f 69 6d 65 3f 40 64 65 3f
       0.8951212 0.8960117 0.8962007 0.89606094
000060 4b 3f 65 3f
       0.895497

nnalign.bn1.bias f4 [25]
000000 8f 8b 00 bb 6c d6 30 3c 74 ed 20 ba 39 5b 15 3a
       -0.0019614433 0.01079331 -0.0006138899 0.0005697492
000010 12 8a 35 3c 2d 37 6e bb c2 fc 2e 3c 0d 1f c8 3b
       0.011080282 -0.0036348805 0.010680379 0.006107217
000020 42 d4 99 bb 6e fc b0 39 5c 3a 1c 3c 1d a3 6f 3b
       -0.0046944926 0.0003375741 0.009535398 0.003656573
000030 0e 41 8c bb 3e 2e 60 b9 cc 87 93 3b 67 2d 5c 3c
       -0.004280216 -0.00021379531 0.0045022722 0.013438559
000040 45 43 0c 3c 17 62 5a ba 7a e0 ba 3b 51 f1 19 3a
       0.00856096 -0.00083306566 0.005703029 0.0005872446
000050 c9 a8 59 3a ec 3a c0 ba f2 55 d0 3b cf 2e 8b 3c
       0.0008303044 -0.0014665998 0.0063579017 0.016990094
000060 88 57 6c 3b
       0.0036062915

nnalign.bn1.running_mean f4 [25]
000000 1c 7d 5a bb 28 a1 e3 bc 5c 2a 21 bc e1 c0 13 3d
       -0.003333873 -0.027786806 -0.009836759 0.036072616
000010 08 9b 89 bd e4 e4 53 3c 6f 36 13 bd 61 06 eb bb
       -0.06719023 0.01293299 -0.035940584 -0.0071723913
000020 3b 27 91 3c 3d 5f d4 ba f1 6b 03 bd dd 9f 0a bc
       0.017718902 -0.00162027 -0.032085363 -0.008460966
000030 24 04 81 3c 95 e4 e2 3b c9 5b 54 bc 7a d8 66 bd
       0.015749045 0.0069242218 -0.012961336 -0.056358792
000040 1c 2b db bb 73 fd ee 3b f3 a5 86 bc 33 b2 81 3c
       -0.0066884886 0.007293397 -0.016436553 0.015832042
000050 22 00 f3 bb c0 37 04 3d be 7e 8f bb 3a 90 1b bd
       -0.0074157873 0.03227973 -0.0043791225 -0.037979342
000060 4f 02 c2 bb
       -0.0059206854

nnalign.bn1.running_var f4 [25]
000000 76 4a 13 3c 4a 26 9a 3d 11 51 e4 3c 24 19 8b 3c
       0.008989921 0.07526834 0.027870687 0.016979761
000010 3d 98 90 3d 1e e0 a2 3d 82 72 8d 3d 73 31 f7 3c
       0.07060287 0.07952903 0.06906606 0.030174946
000020 cc b0 f8 3c 14 97 8a 3d f8 44 d8 3c 1c f7 89 3c
       0.03035774 0.06767097 0.026400074 0.016841464
000030 4d d5 62 3d 64 ca b9 3d 5c 50 a7 3c 1d 5b 55 3d
       0.0553792 0.09071806 0.02042406 0.052088846
000040 9e 71 45 3d ba f5 43 3d fc 02 c5 3d 90 64 15 3d
       0.048204057 0.047841765 0.0961971 0.036472857
000050 76 d1 8a 3c 66 c9 25 3d 1f a8 81 3d a0 80 a8 3d
       0.016945582 0.04047527 0.06330895 0.08227658
000060 c5 15 ef 3c
       0.029185185

in_layer.weight f4 [25, 100]
000000 24 ee d7 ba 3c 8d 51 bc f8 b1 bc b8 9e 6c 68 3a
       -0.001647417 -0.012790021 -8.997688e-05 0.0008866283
000010 37 68 10 3c 9d 55 26 3c 74 03 41 bc ae 4f a5 bc
       0.008813909 0.010152248 -0.011780608 -0.020179596
000020 32 86 63 3c 7e ce 32 3c cf 54 35 3c ab 74 9c bb
       0.013886975 0.010913489 0.011067583 -0.00477465
000030 4d 9b 11 bc 19 8e 77 bc 5a 30 97 3c 1d 62 49 3c
       -0.008887124 -0.015109562 0.018455673 0.012291458
000040 9d 27 96 3b 74 c0 a6 bc 12 20 d8 3c 96 2c 62 bc
       0.004582359 -0.02035544 0.02638248 -0.013804575
000050 29 9f bb 3c 9c 8c 57 3b ab 6a 7a 3c c7 1e 15 bc
       0.022903042 0.0032890206 0.015284221 -0.009101576
000060 b3 49 15 bc c5 4f 29 bc 13 27 15 3c 54 a8 ba ba
       -0.00911181 -0.01033396 0.009103554 -0.001424084
000070 6a d8 88 bb 6c 86 ca bb 55 35 41 3c a9 f5 86 3b
       -0.004176189 -0.006180575 0.0117925005 0.0041186404
000080 bf b5 4f 3b e3 8e 2d 3c 20 bb f9 3a 4c 7f fb 3c
       0.0031694022 0.010593149 0.001905296 0.030700348
000090 eb f8 01 3b fa 1f 34 bb a9 b1 1f ba 69 00 fa 3a
       0.0019832205 -0.002748488 -0.0006091842 0.0019073609
0000a0 89 c4 c3 39 fb de fd bb a5 b3 54 bc a4 23 54 3c
       0.00037339728 -0.0077475286 -0.012982284 0.0129479505
0000b0 41 71 ab 3c 1f 8c 84 bb cd 7a 88 bb 4a 6f e2 3b
       0.020928027 -0.004045024 -0.0041650296 0.0069102393
0000c0 c2 4e 23 3b ce db ff bc 07 05 80 bc 24 45 70 3c
       0.002491877 -0.03123274 -0.015627397 0.014664922
0000d0 f2 26 c9 3c c8 82 3a bb e5 17 a3 bc c2 4f 1e 3b
       0.024554703 -0.00284593 -0.019908855 0.0024156426
0000e0 68 ed 34 ba 66 89 0c 3c 1f 5f 09 3a 30 50 98 bb
       -0.00069018314 0.00857768 0.00052403094 -0.004648231
0000f0 1b 45 39 bb 0e d3 22 3c e8 66 47 3b bd e9 8f bc
       -0.002826995 0.009938015 0.0030426327 -0.01756751
000100 0f 0a d2 ba 36 ae 3a 3c 87 42 db ba 11 f4 6c 3b
       -0.0016024726 0.011394074 -0.0016728201 0.0036156217
000110 26 13 59 bc b2 49 1f 3b a4 35 45 bb 78 7a 50 3b
       -0.013249194 0.00243054 -0.0030091787 0.0031811278
000120 07 e3 da 3b b1 d0 81 bb c4 9d 7e 38 43 53 ba 3c
       0.006679896 -0.0039616455 6.070525e-05 0.02274478
000130 90 12 5a bb df 6d dd bb 79 fa f7 bb ca b3 0b bc
       -0.0033275224 -0.0067574824 -0.0075677005 -0.008526752
000140 ea 8f 81 3c 32 46 a8 bc 45 4d 22 3c b5 7c ab 3b
       0.015815694 -0.020541284 0.009906118 0.005233372
000150 9d f1 4f bc ab 16 58 3c 60 8a 6e 3c 5e 44 df 3b
       -0.012691882 0.013188998 0.014559358 0.00681357
000160 d0 5e 91 bb a5 1b 2e 3c e1 44 91 bc ff 34 83 bb
       -0.0044363514 0.010626708 -0.01773304 -0.0040041204
000170 c7 ad ec ba 44 a6 8e ba 21 15 93 bc fa a8 a9 bb
       -0.0018057161 -0.0010883291 -0.017954411 -0.0051776143
000180 4a 5c ea bb 39 cd 9f 3c 5e 2c a8 bb 99 dd 94 ba
       -0.007152115 0.019507037 -0.005132242 -0.0011357545
000190 6a af 7c bc 6b 02 ff bc 2e 57 5f bc bc b1 17 3a
       -0.015422681 -0.031129083 -0.013631625 0.00057866774
0001a0 85 de 7b bc fa b9 e4 bc b5 02 13 3d 79 e8 ab 3c
       -0.015372877 -0.027920712 0.035891254 0.020984875
0001b0 e7 e4 01 bd e2 b6 e1 3b f7 b1 3a bb 06 be d4 3c
       -0.03171244 0.0068882564 -0.0028487423 0.025969516
0001c0 c0 62 a5 3c 2e 59 5c 3c f9 26 a1 bc 79 2e eb bc
       0.02018869 0.0134489965 -0.019671904 -0.028708683
0001d0 22 57 73 bc 45 6d f4 bb 14 99 90 bc ed 37 fa ba
       -0.014852317 -0.007459315 -0.017651118 -0.0019090154
0001e0 c6 db 78 bc 46 d7 89 bc 72 92 8c 3b 72 7e 13 bc
       -0.015189117 -0.016826283 0.0042899186 -0.009002315
0001f0 3d 52 a7 3c 32 48 44 3c f0 ea 89 bc d3 1e 11 bd
       0.020424956 0.011980103 -0.01683566 -0.035429787
000200 0a a1 b8 3c 17 0c 87 3c 20 73 b6 bb d0 83 85 bc
       0.022537727 0.016485257 -0.005567923 -0.016298205
000210 36 35 f2 bc 84 1f 16 3c 2c 0e f9 3c 3c df 9f bc
       -0.029566389 0.009162787 0.030402265 -0.019515626
000220 f1 92 e9 bc e7 da 47 3c bf 6f f7 3c 69 3b 49 ba
       -0.02851245 0.0121981865 0.030204652 -0.00076763943
000230 09 c9 51 3c a0 26 8e 3c 19 44 e2 3b d3 65 c2 bb
       0.012804278 0.017352402 0.0069050905 -0.0059325485
000240 9a 87 04 bd 74 08 e0 bc 15 17 a0 3a a0 a9 6b bb
       -0.032355882 -0.02734778 0.001221391 -0.0035959259
000250 72 b8 de 3c b1 df ec 3c fc e4 d2 3b 81 3e 0d bd
       0.02718756 0.028915258 0.0064359885 -0.034483436
000260 27 21 fa bc 9a c1 cf 3c 9f e4 20 3d cd f2 7b 3b
       -0.030533386 0.025360871 0.03928053 0.003844428
000270 e0 08 bc bc 50 eb 81 3b 09 52 0b 3d ad b6 e5 bb
       -0.02295345 0.003964819 0.03401378 -0.007010302
000280 35 c5 d0 3b ad ad 9a bc 40 3e 61 bc b4 8e a6 bc
       0.006371165 -0.018881643 -0.013747752 -0.020331718
000290 a0 4c 7a 3c 50 a4 29 bd 8b d0 02 bc d1 c8 85 bc
       0.015277058 -0.041416466 -0.007984291 -0.016331108
0002a0 14 38 4d 3d 4f 6e 90 3c 37 a4 6b 3c d6 cc 06 bd
       0.05010231 0.017630724 0.014382414 -0.03291019
0002b0 d9 dc 03 3d a1 75 23 3b 50 d2 ca bb 44 0f 9e 3a
       0.03219304 0.0024941938 -0.006189622 0.0012058993
0002c0 74 56 e5 bc 22 a4 37 3c ba e3 03 3d 6d c0 94 bb
       -0.027995326 0.011208566 0.0321996 -0.0045395405
0002d0 92 b9 0d 3d 58 86 1a 3c 96 81 da bc 75 c1 00 bc
       0.0346008 0.009431444 -0.02667312 -0.007858624
0002e0 63 ae 29 3b cd d2 02 bd f0 74 22 bd fa 45 7e 3b
       0.0025891296 -0.031939317 -0.0396623 0.0038799034
0002f0 27 32 09 3d af 93 c1 3c 6c 72 db 3c 97 75 3e 3d
       0.033495095 0.023629991 0.026787959 0.04649886
000300 30 0e 2f 3d 10 52 33 bd 20 a2 8c bc 28 45 e7 bc
       0.04273814 -0.043779433 -0.017167151 -0.028231218
000310 b4 0a c2 3a b8 b6 7c bc de e9 c6 3c b8 3a ef bc
       0.0014804215 -0.015424423 0.024281438 -0.029202804
000320 39 97 dc 3a a3 22 86 3c a1 02 2d 3b 89 8b a3 bc
       0.0016829736 0.016373938 0.0026399272 -0.019963996
000330 35 69 96 bb 85 ae 5b 3c be 75 89 bb 11 d0 98 bc
       -0.0045901784 0.013408308 -0.004194944 -0.018653901
000340 81 a0 b8 3c d0 4c ac 3c cd 67 2f bc 6a dd f8 bb
       0.022537472 0.02103272 -0.0107059 -0.007594754
000350 76 f3 a1 bc c5 ed d7 3c 23 11 18 3d d6 ba 87 3c
       -0.019769412 0.026358495 0.037125718 0.016568583
000360 fe 8a 8d 3c d1 5e 9f bb 82 a0 80 bb 8c 5d 4a bb
       0.01727819 -0.004863598 -0.003925384 -0.0030878512
000370 62 3e e5 3c 84 89 19 3c c4 a9 fb 3b eb ed 41 bb
       0.027983848 0.009371165 0.0076801497 -0.0029591273
000380 7f d1 16 bc 9f 67 41 bc 16 84 31 bb e8 83 4b 3c
       -0.009205221 -0.01180449 -0.0027086786 0.012421586
000390 2c 09 07 bd 30 5b 27 bc 2a f2 da bc 83 88 89 3c
       -0.03296773 -0.010214612 -0.026726801 0.016788727
0003a0 a2 c5 73 3c ee 5a ec 3c 51 8f ee 3c e8 2f e2 3c
       0.014878662 0.028851952 0.029121073 0.027610734
0003b0 d1 63 27 3c 65 5c b3 bb b7 5b 8b 3c 90 f7 54 bb
       0.010216669 -0.005473661 0.017011506 -0.0032496192
0003c0 5f 3d 8f 3b e4 0e 73 bb 93 a7 17 bc e2 28 98 bc
       0.0043713297 -0.0037087733 -0.009256261 -0.018574182
0003d0 18 4a d4 bb 79 f2 05 3d a1 0f 1d bb 70 40 82 bc
       -0.006478559 0.032701943 -0.0023965614 -0.015899867
0003e0 2c 6e 0f 3c bc f8 96 3c 80 82 a6 bb 45 c5 0a 3c
       0.008754294 0.018429153 -0.005081475 0.008469884
0003f0 1b fd 9e bc 73 0b aa 3c 3f 1a 11 bd af a5 d8 3c
       -0.0194078 0.020757413 -0.03542542 0.026446192

in_layer.bias f4 [25]
000000 b8 2b a5 b9 11 79 c1 b9 1a a2 ba bb 5c 32 37 b3
       -0.00031503825 -0.0003690203 -0.0056955935 -4.265381e-08
000010 37 29 52 bb 39 de e9 30 82 39 fd 34 41 5f 2c 3c
       -0.0032068023 1.7016141e-09 4.7166765e-07 0.010520757
000020 7a 6c 6a b2 74 cb cf 3b 41 cf 5a bb 8b ec e4 b5
       -1.3645257e-08 0.006341392 -0.0033387693 -1.7056167e-06
000030 fc 6a bf b8 a6 52 02 b8 ae 6f 1c bc fa 2b 5b bc
       -9.127517e-05 -3.1071388e-05 -0.009548111 -0.013377184
000040 d5 7b d1 bb 0e 54 68 3c 19 08 e9 b9 e6 34 bd 39
       -0.0063929358 0.014180196 -0.00044447256 0.00036088302
000050 7a 73 23 37 ee 2d 92 30 61 75 41 32 95 2c 57 b2
       9.742444e-06 1.0635952e-09 1.1260767e-08 -1.2524784e-08
000060 90 1d 34 b7
       -1.0735719e-05

out_layer.weight f4 [1, 25]
000000 37 c9 4e 3d db 5c 50 be 1e a4 de 3d af be 07 bd
       0.050484862 -0.20347922 0.108711466 -0.033140834
000010 d7 ee 08 be a9 a6 4c 3e 97 64 2a be d5 65 a7 bd
       -0.1337236 0.19985451 -0.16639934 -0.0817372
000020 a6 a6 b2 3d da 02 a6 3d f3 43 d3 bd f8 ca 66 bd
       0.08723192 0.08106013 -0.10315695 -0.05634591
000030 07 16 3f 3e c1 d2 35 3e db e5 be bd cd c8 27 be
       0.18660747 0.17756177 -0.09321185 -0.16385193
000040 4d 39 21 be df 4f 00 3e c0 d5 28 be 7c 0f f5 3d
       -0.15744515 0.12530468 -0.16487789 0.11965844
000050 04 b4 6c 3d 2c fa f3 3d 4c db 2d be 88 6b 47 be
       0.057788864 0.11912951 -0.16978186 -0.19474614
000060 86 56 d0 bd
       -0.10172753

bn1.weight f4 [25]
000000 7c 29 65 3f 73 7d 65 3f 10 5c 65 3f 60 16 65 3f
       0.89516425 0.89644545 0.895936 0.89487267
000010 d2 39 65 3f 76 8b 65 3f 53 51 65 3f f9 37 65 3f
       0.8954135 0.89665926 0.89577216 0.8953853
000020 f9 3d 65 3f dc 10 65 3f 97 47 65 3f 38 22 65 3f
       0.8954769 0.8947885 0.8956236 0.8950534
000030 9b 7d 65 3f 6b 64 65 3f 48 44 65 3f 68 4e 65 3f
       0.89644784 0.8960635 0.89557314 0.89572763
000040 58 63 65 3f 73 4e 65 3f 58 44 65 3f 3c 55 65 3f
       0.8960471 0.8957283 0.8955741 0.8958318
000050 aa 26 65 3f 06 61 65 3f 69 6d 65 3f 40 64 65 3f
       0.8951212 0.8960117 0.8962007 0.89606094
000060 4b 3f 65 3f
       0.895497

bn1.bias f4 [25]
000000 8f 8b 00 bb 6c d6 30 3c 74 ed 20 ba 39 5b 15 3a
       -0.0019614433 0.01079331 -0.0006138899 0.0005697492
000010 12 8a 35 3c 2d 37 6e bb c2 fc 2e 3c 0d 1f c8 3b
       0.011080282 -0.0036348805 0.010680379 0.006107217
000020 42 d4 99 bb 6e fc b0 39 5c 3a 1c 3c 1d a3 6f 3b
       -0.0046944926 0.0003375741 0.009535398 0.003656573
000030 0e 41 8c bb 3e 2e 60 b9 cc 87 93 3b 67 2d 5c 3c
       -0.004280216 -0.00021379531 0.0045022722 0.013438559
000040 45 43 0c 3c 17 62 5a ba 7a e0 ba 3b 51 f1 19 3a
       0.00856096 -0.00083306566 0.005703029 0.0005872446
000050 c9 a8 59 3a ec 3a c0 ba f2 55 d0 3b cf 2e 8b 3c
       0.0008303044 -0.0014665998 0.0063579017 0.016990094
000060 88 57 6c 3b
       0.0036062915

bn1.running_mean f4 [25]
000000 1c 7d 5a bb 28 a1 e3 bc 5c 2a 21 bc e1 c0 13 3d
       -0.003333873 -0.027786806 -0.009836759 0.036072616
000010 08 9b 89 bd e4 e4 53 3c 6f 36 13 bd 61 06 eb bb
       -0.06719023 0.01293299 -0.035940584 -0.0071723913
000020 3b 27 91 3c 3d 5f d4 ba f1 6b 03 bd dd 9f 0a bc
       0.017718902 -0.00162027 -0.032085363 -0.008460966
000030 24 04 81 3c 95 e4 e2 3b c9 5b 54 bc 7a d8 66 bd
       0.015749045 0.0069242218 -0.012961336 -0.056358792
000040 1c 2b db bb 73 fd ee 3b f3 a5 86 bc 33 b2 81 3c
       -0.0066884886 0.007293397 -0.016436553 0.015832042
000050 22 00 f3 bb c0 37 04 3d be 7e 8f bb 3a 90 1b bd
       -0.0074157873 0.03227973 -0.0043791225 -0.037979342
000060 4f 02 c2 bb
       -0.0059206854

bn1.running_var f4 [25]
000000 76 4a 13 3c 4a 26 9a 3d 11 51 e4 3c 24 19 8b 3c
       0.008989921 0.07526834 0.027870687 0.016979761
000010 3d 98 90 3d 1e e0 a2 3d 82 72 8d 3d 73 31 f7 3c
       0.07060287 0.07952903 0.06906606 0.030174946
000020 cc b0 f8 3c 14 97 8a 3d f8 44 d8 3c 1c f7 89 3c
       0.03035774 0.06767097 0.026400074 0.016841464
000030 4d d5 62 3d 64 ca b9 3d 5c 50 a7 3c 1d 5b 55 3d
       0.0553792 0.09071806 0.02042406 0.052088846
000040 9e 71 45 3d ba f5 43 3d fc 02 c5 3d 90 64 15 3d
       0.048204057 0.047841765 0.0961971 0.036472857
000050 76 d1 8a 3c 66 c9 25 3d 1f a8 81 3d a0 80 a8 3d
       0.016945582 0.04047527 0.06330895 0.08227658
000060 c5 15 ef 3c
       0.029185185

mu f4 [100]
000000 9e b9 29 bf aa a6 b1 bf b7 c9 9d bf 63 80 e3 bf
       -0.66298854 -1.3878987 -1.2327183 -1.7773556
000010 a4 4d 03 c0 a9 c7 31 bf 66 c2 97 bf cc 9c fe bf
       -2.0516138 -0.6944528 -1.1856201 -1.9891601
000020 4d aa 99 bf 40 cb 70 bf 19 a0 46 bf 7f ec 81 bf
       -1.2005097 -0.94060135 -0.7758804 -1.0150298
000030 c7 61 a2 be 59 57 96 bf 79 e0 d4 bf 7b ce 1f bf
       -0.31715223 -1.1745406 -1.6631004 -0.6242444
000040 13 65 ec be 3d 8b 0d c0 ee e5 3d bf 32 8b 57 bf
       -0.46170864 -2.2116234 -0.7417897 -0.8419677
000050 ba 7a 28 bf ad 39 c1 bf 25 4d 9c bf ad d1 dc bf
       -0.65812266 -1.5095726 -1.2211043 -1.7251488
000060 d1 d5 01 c0 90 2f 3b bf 49 d6 99 bf 76 a6 fa bf
       -2.0286753 -0.7311945 -1.201852 -1.958205
000070 44 88 a4 bf 3b 1f 68 bf c8 c5 42 bf 77 01 8d bf
       -1.2854085 -0.90672654 -0.7608304 -1.1016072
000080 86 49 a7 be 5f 4b a0 bf 95 c6 c9 bf f6 01 1f bf
       -0.3267328 -1.2523001 -1.5763727 -0.6211237
000090 72 da dc be 65 d2 11 c0 88 cb 5a bf 6c bf 4f bf
       -0.4313541 -2.2784665 -0.85466814 -0.8115146
0000a0 3a ed 1f bf af e0 b6 bf 57 ed 85 bf 0d 39 ca bf
       -0.62471354 -1.4287318 -1.0463055 -1.579866
0000b0 2f f6 00 c0 40 84 2e bf d1 b4 8c bf c0 61 ea bf
       -2.0150259 -0.6817055 -1.0992681 -1.8311081
0000c0 b8 d0 93 bf 02 57 8e bf fb 0e 87 bf ff f5 7f bf
       -1.1548071 -1.1120303 -1.0551447 -0.99984735
0000d0 91 44 0d bf 3f 36 ab bf ee e8 c4 bf 57 a5 02 bf
       -0.5518275 -1.337593 -1.5383584 -0.5103354
0000e0 f4 6b dc be b4 6d 12 c0 a3 2c 59 bf f0 d2 77 bf
       -0.43051112 -2.2879457 -0.84833735 -0.9680624
0000f0 b0 15 1b bf 3a bc b3 bf 2f 9d 80 bf 73 fe c2 bf
       -0.6057997 -1.4041817 -1.0047969 -1.5233902
000100 95 1c 01 c0 09 6c 26 bf 5c 0b 82 bf 82 f9 e3 bf
       -2.0173695 -0.650086 -1.0159717 -1.7810519
000110 25 af 92 bf 3a 47 9a bf 95 da 92 bf 00 30 72 bf
       -1.14597 -1.2052987 -1.1472956 -0.9460449
000120 21 8b 24 bf ce 77 b7 bf d1 13 b3 bf ac 40 eb be
       -0.64274794 -1.4333436 -1.3990422 -0.45947778
000130 51 d7 ca be 68 81 18 c0 e5 94 6f bf 73 8d 84 bf
       -0.39617398 -2.3828983 -0.9358657 -1.0355667
000140 c7 00 37 bf 7f 30 c1 bf f5 6e b0 bf ad cc fd bf
       -0.7148556 -1.5092925 -1.3783861 -1.9828087
000150 cc 39 ff bf db 38 64 bf af c5 aa bf a6 45 06 c0
       -1.9939513 -0.89149255 -1.3341578 -2.098001
000160 90 d9 ab bf 76 6b 31 bf 6b 6b 1c bf c3 2f 90 bf
       -1.342577 -0.693046 -0.61101407 -1.1264576
000170 78 e7 88 be cb 36 80 bf 88 08 e1 bf 01 26 47 bf
       -0.26739097 -1.0016721 -1.7580729 -0.77792364
000180 f9 16 fa be 45 23 0e c0 9e 87 37 bf f4 c8 1b bf
       -0.48845652 -2.2209027 -0.7169131 -0.60853505

sigma f4 [100]
000000 32 9a da 3f 5a d7 15 40 ea 06 0d 40 6e c7 28 40
       1.7078307 2.341269 2.203547 2.6371722
000010 62 d9 06 40 32 90 00 40 e8 ec 08 40 ea 84 23 40
       2.107018 2.008801 2.1394596 2.5549874
000020 ea 6b 0b 40 07 1f 2c 40 c9 b0 33 40 3d 0e 0c 40
       2.1784616 2.6893938 2.807665 2.188369
000030 f3 cb 09 40 71 be 3c 40 89 39 2d 40 55 91 09 40
       2.153073 2.9491236 2.7066367 2.1494954
000040 d2 18 bc 3f 4f 7f 29 40 de f8 0d 40 40 d3 18 40
       1.4695075 2.6483953 2.2183146 2.3878937
000050 29 c0 d6 3f b8 40 12 40 79 9c 0f 40 09 78 2b 40
       1.6777393 2.2852 2.2439253 2.6792014
000060 c2 76 08 40 bc 4a 00 40 95 f4 0a 40 23 16 26 40
       2.1322484 2.0045614 2.171178 2.595101
000070 29 3c 0b 40 13 14 2e 40 e7 5a 36 40 6a ff 06 40
       2.175547 2.7199752 2.8492982 2.1093392
000080 87 20 0b 40 46 43 39 40 82 25 33 40 2c c7 09 40
       2.1738603 2.894731 2.7991643 2.1527815
000090 81 0c be 3f b5 cc 29 40 36 3d 09 40 07 f7 1a 40
       1.4847566 2.6531193 2.144361 2.4213274
0000a0 c9 e2 d8 3f 68 6a 12 40 8e d6 0f 40 0e 45 2c 40
       1.6944209 2.2877445 2.2474704 2.6917148
0000b0 9c b6 0c 40 cc e2 01 40 7b ed 0a 40 ff ca 26 40
       2.1986456 2.0294676 2.1707447 2.60614
0000c0 58 43 0d 40 d9 60 2d 40 7e 91 2d 40 62 fc 07 40
       2.2072353 2.709036 2.7120051 2.1247792
0000d0 92 02 03 40 dc 26 3f 40 9b c6 2d 40 e2 76 08 40
       2.0470319 2.9867468 2.715247 2.132256
0000e0 79 5e c0 3f af d5 2e 40 4e 75 0c 40 39 ae 1c 40
       1.5028831 2.7317922 2.1946597 2.4481337
0000f0 f4 94 d5 3f 5f da 11 40 8a 01 0e 40 d4 4a 27 40
       1.6686082 2.2789533 2.218844 2.6139421
000100 54 e6 0c 40 ec 56 01 40 db 1a 0d 40 c7 a5 27 40
       2.201558 2.0209303 2.2047641 2.6194932
000110 b2 19 0c 40 af 0b 2c 40 4d d8 2c 40 c1 28 07 40
       2.1890683 2.688213 2.700702 2.1118624
000120 8b 04 00 40 cf 6e 3d 40 f5 bf 33 40 17 fa 06 40
       2.0002773 2.9598882 2.8085911 2.1090143
000130 4a e5 c2 3f ee 8d 29 40 e0 72 09 40 59 cc 1b 40
       1.5226223 2.6492877 2.1476364 2.4343474
000140 e7 f0 d4 3f 3b d8 16 40 c0 52 12 40 49 8e 28 40
       1.6636018 2.3569477 2.2863007 2.6336844
000150 9b 36 05 40 fe 3b 03 40 38 60 0b 40 26 96 29 40
       2.0814579 2.0505366 2.1777477 2.6497893
000160 11 ce 0f 40 b3 d7 2f 40 f4 45 33 40 76 3a 13 40
       2.2469523 2.7475402 2.8011446 2.3004432
000170 1a 23 03 40 21 dd 3f 40 02 df 2e 40 1f b4 07 40
       2.0490174 2.9978716 2.7323613 2.1203687
000180 0d c5 b8 3f 6b 17 25 40 79 82 0c 40 04 a8 20 40
       1.4435135 2.5795543 2.1954634 2.5102549

mu f4 [3]
000000 dd 69 9d 3f 22 0c 73 3f cb 33 11 bf
       1.2297932 0.9494039 -0.56719655

sigma f4 [3]
000000 b9 e4 10 40 0c 18 f6 3c 34 68 fc 3f
       2.2639601 0.030040763 1.97193
