output/231020_mhc_pfr_nobnorm/CSL_mhc_pfr_nobnorm_nostd_burn_60nh_all_KFold_2_231020_1303_None/checkpoint_best_kcv_train_all5_correct_f02_CSL_mhc_pfr_nobnorm_nostd_burn_60nh_all_KFold_2_231020_1303_None.pt (torch, 218143 bytes, 3 tensors)

in_layer.weight f4 [60, 900]
0.0024605684 -0.010428364 0.0042693964 -0.0051547736 -0.0022710932 -0.0074298056 -0.014430863 -0.006190645
-0.0023010091 0.020460032 0.003539302 -0.0030433433 0.00065754174 0.014329066 -0.0059214393 -0.004658124
-0.0047003976 -0.0003635444 0.0073752175 0.0072750538 0.012451799 0.016140502 0.013524863 -0.011020412
-0.00054253 0.0052181915 -0.012881366 0.0058979867 0.0041922648 0.014404277 -0.0004406123 0.018124845
-0.00031005376 -0.023332736 -0.009507321 0.009095698 0.00039532591 -0.01820833 -0.0056276075 0.016986452
0.01138794 0.012077041 -0.00089646503 0.0037818742 -0.011631471 -0.0034309854 -0.007853872 -0.0031633144
0.007914244 -0.0044442383 0.009492514 0.0020107816 0.007292127 -0.0018310567 -0.00021638555 0.0035751762
-0.006513928 -0.004507866 0.0019809622 -0.007100572 0.008994057 -0.00072871556 0.011151891 0.012999664
-0.0078038257 0.0022749088 -0.007806713 -0.0064407717 0.0044217417 0.005218918 0.0059378464 0.009139007
0.0092657395 -0.0057152878 0.0075812405 0.01592587 0.003505373 -0.013284887 -0.010285827 -0.0052751764
0.010142661 0.006901116 0.008464215 -0.009775907 -0.0064296694 -0.0019979149 -0.016597226 0.018923437
-0.00073008356 0.0057284054 -0.0024999334 0.008394562 -0.0018436721 -0.008045106 -0.002517061 0.0025701658
-0.0036221372 -0.01300017 -0.011119181 -0.0022975786 0.023963727 0.008220304 0.007890673 -0.00023462037
-0.00808441 -0.012532166 -0.017722625 0.015709644 -0.0052612945 -0.0023282364 -0.00804876 0.0051304596
-0.009293912 -0.018170377 0.0108154705 0.025432587 0.011978843 -0.013474558 -0.01649462 0.001657978
0.03780478 0.008286326 0.028315686 -0.010173544 -0.008052963 0.0019848635 -0.013425894 0.011185704
0.0047827843 -0.0012303214 -0.005626546 0.0012457249 -0.0002768153 -0.022060543 0.016549733 0.013849543
0.0037476944 -0.006072684 -0.012566576 0.00039675803 0.027280942 0.0164067 -0.0061890916 -0.028998433
-0.0033328258 -0.0019200211 -0.027101858 0.0076217838 0.0004856696 0.0029276232 0.0065192715 0.0059982324
0.0036183877 -0.004482162 0.012363396 0.010314619 0.0052681 -0.0037196313 -0.003718682 0.0047571464
0.011191245 0.00715921 0.010555828 -0.020897701 -0.0074545406 -0.009439406 -0.016654003 -0.00063798565
0.009558529 0.010943038 0.0039388356 -0.0028946418 0.010190359 0.014715564 -0.0073666335 0.009242665
-0.004758292 -0.0073822048 0.0037916575 0.010028412 0.008977704 -0.0023008306 -0.0044401223 -0.020565705
-0.009651777 -0.00054008915 -0.015720138 0.0038879304 -0.0068666744 -0.0019683482 0.0031333165 0.0009842867
0.006696809 -0.0028866949 -0.013194729 0.0066128457 -0.0015224736 -0.0018038331 0.004225669 -0.0024157504
0.01590025 0.009463368 -0.0023970397 -0.02091593 -0.029573271 -0.0035220282 -0.02036069 0.0018570904
0.00032549637 -0.005383018 -0.0156124355 0.0162397 -0.008343117 -0.014301474 -0.008604715 0.008699134
-0.008822316 -0.013656666 0.00737493 -0.002776363 0.0010883305 0.0013587489 0.0016928692 0.0024739506
0.0010474033 0.0020802333 0.002816577 0.001398386 -0.0012404541 -0.0010925635 -0.00038525547 0.0028369615
-0.00013401208 -0.005642475 0.001856843 0.0017416801 0.0010881803 -0.0025474252 -0.0075500803 -0.0010545186
-0.0014914939 0.0016091106 -7.455825e-05 0.0028425143 -4.1390966e-05 0.0014937075 0.0057115625 -0.00035313267
0.0012188649 -0.0028650942 -0.0019744267 0.0016773604 -0.0031013961 -0.000745285 0.0010590667 -0.0006933552
00000000: 7d41 213b bbdb 2abc 4be6 8b3b 60e9 a8bb
00000010: 9fd6 14bb ba75 f3bb 6d6f 6cbc e5da cabb
00000020: 87cc 16bb cc9b a73c a2f3 673b d472 47bb
00000030: e15e 2c3a 75c4 6a3c a208 c2bb 2da3 98bb
00000040: cb05 9abb 1a9a beb9 cfab f13b 9363 ee3b
00000050: a102 4c3c 1639 843c 6397 5d3c f58e 34bc
00000060: 9238 0eba 5dfd aa3b 5d0c 53bc e643 c13b
00000070: 445f 893b ebff 6b3c fb01 e7b9 8e7a 943c
00000080: b68e a2b9 4b24 bfbc 98c4 1bbc 1f06 153c
00000090: bf43 cf39 a329 95bc cb67 b8bb 2c27 8b3c
000000a0: 7b94 3a3c c8de 453c c000 6bba 52d9 773b
000000b0: ed91 3ebc 62da 60bb 87ad 00bc 9c4f 4fbb
000000c0: bfaa 013c f9a0 91bb 7d86 1b3c 51c7 033b
000000d0: cbf2 ee3b 1100 f0ba 8ee5 62b9 814d 6a3b
000000e0: ca72 d5bb b9b6 93bb 08d3 013b eaab e8bb
000000f0: cf5b 133c 4607 3fba 6cb6 363c 8bfc 543c
00000100: 3cb7 ffbb a316 153b 75cf ffbb 1c0d d3bb
00000110: 42e4 903b 7503 ab3b 4492 c23b c6bb 153c
00000120: 54cf 173c 4f47 bbbb 0e6c f83b f876 823c
00000130: 66ba 653b dba8 59bc e385 28bc 63db acbb
00000140: 672d 263c c222 e23b 7ead 0a3c 202b 20bc
00000150: faaf d2bb 73ef 02bb e8f6 87bc 5305 9b3c
00000160: 1463 3fba 59b5 bb3b ecd5 23bb 5889 093c
00000170: 5fa7 f1ba 9fcf 03bc 47f5 24bb 3a70 283b
00000180: 6161 6dbb aafe 54bc 3a2d 36bc f992 16bb
00000190: 944f c43c 74ae 063c e247 013c 6d04 76b9
000001a0: 7974 04bc b753 4dbc 0a2f 91bc 83b1 803c
000001b0: f066 acbb 5395 18bb f2de 03bc 6a1d a83b
000001c0: 7e45 18bc 0bda 94bc 5f33 313c 0058 d03c
000001d0: e942 443c 64c4 5cbc ba1f 87bc 8350 d93a
000001e0: 2fd9 1a3d 5fc3 073c 4cf6 e73c f0ae 26bc
000001f0: 93f0 03bc 7c14 023b 48f8 5bbc 3e44 373c
00000200: e7b8 9c3b bc42 a1ba e45e b8bb 9747 a33a
00000210: 8521 91b9 50b8 b4bc 4e93 873c 32e9 623c
00000220: e19b 753b 5efd c6bb 0ae4 4dbc f603 d039
00000230: 487c df3c 5867 863c ddcd cabb 1f8e edbc
00000240: 8a6b 5abb 38a9 fbba b704 debc 28c0 f93b
00000250: 78a1 fe39 5edd 3f3b 9d9f d53b d28c c43b
00000260: 7922 6d3b 1adf 92bb d78f 4a3c a6fe 283c
00000270: 07a0 ac3b 0fc5 73bb 22b5 73bb d6e1 9b3b
00000280: 7c5b 373c ce97 ea3b 5af2 2c3c a831 abbc
00000290: 3845 f4bb bda7 1abc fa6d 88bc 7e3e 27ba
000002a0: 609b 1c3c 6e4a 333c 5911 813b 08b4 3dbb
000002b0: 77f5 263c 8d19 713c cd63 f1bb 8c6e 173c
000002c0: 72eb 9bbb 6ce6 f1bb 757d 783b 354e 243c
000002d0: 3817 133c 88c9 16bb 727e 91bb 6979 a8bc
000002e0: 7d22 1ebc c594 0dba 85c7 80bc a6cc 7e3b
000002f0: d701 e1bb 67ff 00bb 5458 4d3b 2e03 813a
00000300: e870 db3b b42e 3dbb b42e 58bc 92b0 d83b
00000310: bd8d c7ba 986e ecba 7b77 8a3b 9151 1ebb
00000320: 3e41 823c 3e0c 1b3c a717 1dbb e257 abbc
00000330: a543 f2bc d4d1 66bb 76cb a6bc 9d69 f33a
00000340: 62a7 aa39 0764 b0bb 4dcb 7fbc 1f09 853c
00000350: 92b1 08bc bb50 6abc cafa 0cbc d086 0e3c
00000360: 7a8b 10bc 35c0 5fbc 66a9 f13b a4f3 35bb
00000370: 50a6 8e3a 0c18 b23a 44e3 dd3a 0122 223b
00000380: 0649 893a 8654 083b 5296 383b 0c4a b73a
00000390: bc96 a2ba 5934 8fba 1dfc c9b9 51ec 393b
000003a0: 9885 0cb9 83e4 b8bb 5061 f33a 1649 e43a
000003b0: 46a1 8e3a b4f2 26bb aa66 f7bb c637 8aba
000003c0: 3b7e c3ba cbe8 d23a 285c 9cb8 7a49 3a3b
000003d0: 369b 2db8 82c8 c33a 0f28 bb3b aa24 b9b9
000003e0: 52c2 9f3a 4ec4 3bbb 6265 01bb e0da db3a
000003f0: cb40 4bbb 3b5f 43ba 62d0 8a3a 48c2 35ba

in_layer.bias f4 [60]
-0.00014949637 -1.2999673e-05 9.0120255e-07 6.379153e-05 -1.5854965e-08 -2.060086e-08 7.329911e-07 5.683511e-07
-4.3472253e-05 -8.934631e-05 -5.0916974e-06 0.00021743574 4.9745424e-05 0.00018614401 -3.753249e-05 -0.00034812815
-6.651962e-16 -2.8858908e-08 0.00018256839 -3.4947686e-06 -9.15262e-14 0.00027842776 2.7109438e-05 -0.0006123279
7.164313e-05 1.1676928e-14 2.9526534e-10 0.0003608104 2.2547e-41 0.000112433874 0.00016225704 0.00024756917
5.298035e-09 0.00037781143 -0.00015997396 0.00016116134 0.00019459255 -1.7201688e-11 -0.0001234598 -6.033937e-26
5.222729e-09 0.00010732392 -2.7709888e-05 -9.031182e-05 -9.2771515e-09 1.3336714e-07 -0.00030282425 -4.415125e-06
0.00028697983 -0.00015917621 -0.0002442859 -1.2234789e-05 0.00033159798 -1.53102e-40 0.000148432 -4.8790756e-05
0.0004528445 6.7119812e-12 2.994758e-06 0.00015420877
00000000: 20c2 1cb9 2c19 5ab7 2bea 7135 d1c7 8538
00000010: 7031 88b2 c5f5 b0b2 c4c2 4435 ca90 1835
00000020: fa55 36b8 6f5f bbb8 59d9 aab6 76ff 6339
00000030: bea5 5038 a72f 4339 346c 1db8 f884 b6b9
00000040: d1ba 3fa6 69e5 f7b2 d46f 3f39 ab87 6ab6
00000050: 4319 cea9 f1f9 9139 1369 e337 a184 20ba
00000060: 1d3f 9638 535a 5228 e752 a22f 272b bd39
00000070: da3e 0000 7aca eb38 8b23 2a39 2ccc 8139
00000080: 020a b631 fe14 c639 afbe 27b9 6bfd 2839
00000090: 8a0b 4c39 c24e 97ad fd74 01b9 9f64 9595
000000a0: 9c73 b331 1713 e138 8872 e8b7 ca65 bdb8
000000b0: 5861 1fb2 ae33 0f34 62c4 9eb9 a325 94b6
000000c0: c875 9639 8ae8 26b9 8013 80b9 0544 4db7
000000d0: 54da ad39 c9aa 0180 69a4 1b39 ada4 4cb8
000000e0: c36b ed39 2728 ec2c 8df9 4836 1ab3 2139

out_layer.weight f4 [1, 60]
0.14618993 0.021418465 -1.2985321e-05 0.052864753 1.3063394e-07 1.7048433e-07 -1.3217116e-05 2.5257048e-06
-0.0592567 0.11515701 -0.045805983 -0.15362023 -0.0004575373 -0.130995 0.004401571 0.1543782
-3.6466767e-15 2.618672e-07 -0.15352134 -1.4611658e-05 9.121832e-13 -0.16834252 -0.09821036 0.17640515
0.025325364 8.6468305e-13 -1.7194868e-07 -0.15410307 -1.1160127e-09 -0.111804314 -0.10871772 -0.0483443
-7.8404355e-08 -0.15747963 0.0427252 -0.091257475 0.13008527 -8.244039e-09 0.11574675 -6.975179e-08
-1.7456404e-08 -0.09817486 -0.18288584 0.110989064 3.310682e-07 1.2372759e-06 0.18977274 -0.00059821573
-0.13447264 0.097390875 0.10368677 0.14643937 -0.12020494 -4.8436126e-20 -0.15915291 -0.10421411
-0.056862235 -1.665838e-06 -0.00010955377 -0.07430616
00000000: d0b2 153e c775 af3c 87db 59b7 b688 583d
00000010: 6244 0c34 600e 3734 15bf 5db7 477f 2936
00000020: 27b7 72bd 70d7 eb3d 0e9f 3bbd 9f4e 1dbe
00000030: 9ee1 efb9 8e23 06be 0e3b 903b 5215 1e3e
00000040: a862 83a7 c196 8c34 b334 1dbe 9824 75b7
00000050: dd60 802b fb61 2cbe 8322 c9bd 8da3 343e
00000060: 2377 cf3c fb62 732b e5a0 38b4 32cd 1dbe
00000070: 3562 99b0 a9f9 e4bd 65a7 debd ac04 46bd
00000080: 405f a8b3 5742 21be 9f00 2f3d 33e5 babd
00000090: 1335 053e aba1 0db2 a20c ed3d 74ca 95b3
000000a0: 0af3 95b2 e70f c9bd 6d46 3bbe 3c4e e33d
000000b0: abbd b134 7a10 a635 c953 423e 94d1 1cba
000000c0: 32b3 09be de74 c73d bb59 d43d 34f4 153e
000000d0: 022e f6bd afbb 649f fbf8 22be 356e d5bd
000000e0: 60e8 68bd c295 dfb5 3bc0 e5b8 d42d 98bd
