output/BL50LO_xx17_15_true_true_zp15_5_5_true_zp15_1exx4_1exx2_64_ELXXrankXXmut/BL50LO_xx17_15_true_true_zp15_5_5_true_zp15_1exx4_1exx2_64_ELXXrankXXmut_230601_0102_71tso/checkpoint_best_kcv_230530_cedar_aligned_f8_BL50LO_xx17_15_true_true_zp15_5_5_true_zp15_1exx4_1exx2_64_ELXXrankXXmut_230601_0102_71tso.pt (torch, 15459 bytes, 23 tensors)

ef_inlayer.weight f4 [5, 2]
-0.010645331 0.1921267 0.54430777 -0.15051095 0.26361957 -0.554041 0.35903051 0.45306003
0.6509715 0.4333452
00000000: c169 2ebc ddbc 443e c157 0b3f 8b1f 1abe
00000010: 25f9 863e a2d5 0dbf d9d2 b73e 7cf7 e73e
00000020: 11a6 263f 6cdf dd3e

ef_inlayer.bias f4 [5]
-0.020426033 0.0002116035 -0.46266386 -0.19820316 0.12898691
00000000: 7f54 a7bc e2e1 5d39 47e2 ecbe c5f5 4abe
00000010: 2515 043e

ef_outlayer.weight f4 [1, 5]
-0.034118876 -0.4324556 0.3688186 0.35381162 -0.49976352
00000000: 3cc0 0bbd d26a ddbe cbd5 bc3e cc26 b53e
00000010: 01e1 ffbe

ef_bn1.weight f4 [5]
0.7617728 0.9660588 0.7727992 0.82778573 0.9924635
00000000: 8b03 433f a14f 773f 2bd6 453f c4e9 533f
00000010: 1712 7e3f

ef_bn1.bias f4 [5]
0.1401274 0.20998663 -0.22318585 -0.20075922 0.21848628
00000000: 8f7d 0f3e bc06 573e d58a 64be d393 4dbe
00000010: deba 5f3e

ef_bn1.running_mean f4 [5]
0.10276625 0.4749948 -0.57074016 0.5025213 1.1286753
00000000: 1d77 d23d 8532 f33e 071c 12bf 3ca5 003f
00000010: 6f78 903f

ef_bn1.running_var f4 [5]
0.15415025 0.313635 1.3578461 0.8771512 0.9595051
00000000: 90d9 1d3e c494 a03e e7cd ad3f fb8c 603f
00000010: 20a2 753f

nnalign.in_layer.weight f4 [15, 100]
-0.005395286 0.020545727 0.025862753 -0.004017924 -0.039215226 -0.0070636044 0.040748388 -0.040676534
-0.012411017 -0.012029137 0.050672747 0.0065417956 -0.016142372 -0.018657343 -0.07328678 -0.00447903
0.010840969 -0.008422765 -0.0060503627 -0.020946851 -0.03992645 -0.015320801 -0.043477762 0.017017553
0.042323947 -0.04663362 -0.008652175 -0.010674744 0.02477856 0.0040130527 -0.040714893 -0.015630048
-0.043435782 -0.0144106075 -0.01713721 0.033189304 -0.012391822 0.02722909 -0.043894533 0.00088517094
0.029523604 0.015320487 0.017332474 -0.03403943 0.019105492 0.0416533 -0.015995912 0.0118734045
-0.028386043 0.030960614 -0.010421792 0.031345133 0.0185455 0.05282116 -0.014366722 -0.011729618
-0.006326887 -0.015518327 -0.032737836 -0.020121738 -0.024094874 -0.042179324 -0.036132768 -0.012815029
-0.0068738754 -0.05443658 0.0137398355 0.065337405 0.002245328 -0.0140144015 0.054893088 0.006081508
0.04742575 -0.00959365 -0.034821533 -0.02674892 -0.05309967 0.0097092595 0.026744882 0.02932742
0.020810578 -0.06037234 0.004962445 -0.028977651 0.02554799 0.021428214 -0.040870424 -0.024133693
-0.0045357794 0.052276738 -0.040302455 0.032237273 -0.062106416 0.03871255 -0.011728645 0.03372642
0.053464256 -0.017546507 -0.023262396 0.059178673 -0.04864285 -0.0014162209 0.0012824131 -0.025253031
-0.076336905 0.03472864 0.031302087 0.014511948 -0.031010518 -0.051849797 0.03572917 -0.050484076
-0.033733517 -0.01141889 -0.019253504 -0.048671193 -0.019701041 0.042585343 0.036489584 0.037479732
-0.009818286 0.009365064 -0.02907041 0.05126717 0.044097703 -0.04544894 0.004249525 0.0087515
-0.021659328 0.01145245 -0.0034398257 -0.004811381 -0.009454036 -0.003080421 -0.0010244487 -0.03107075
-0.002077539 -0.0054831845 0.030688621 -0.04620736 -0.0054824087 0.036668215 0.0045831306 -0.0031949615
0.006469906 -0.05765331 0.0010476862 0.041231405 0.023242535 -0.028681656 -0.023475895 -0.031289037
0.05393513 -0.012169276 0.023383433 -0.03685795 0.00026135502 -0.06348415 0.016022103 -0.034395836
0.010124843 -0.09705329 -0.07486534 0.005487873 -0.040100202 0.020484138 0.019025266 0.013996767
-0.018350411 0.06262754 0.029296814 0.040862806 0.0368605 -0.02872973 -0.06397441 -0.007884496
-0.03383823 0.067530714 -0.017609458 0.030612629 0.044771664 0.02467699 0.014981576 -0.060275096
0.061127696 -0.010762652 -0.02672719 0.022088146 -0.01754986 0.0075478912 -0.015101894 0.0205948
-0.015035166 0.051699016 0.009027433 0.015113707 -0.07430673 0.045449767 0.055061635 0.029326728
0.0029734198 -0.0009171496 -0.02559869 -0.0072088544 0.0037659425 -0.03086191 -0.035157885 0.0045663854
0.009099862 0.041430753 -0.043568972 -0.0030545515 0.0006949589 -0.0026546596 -0.066180564 -0.07759747
-0.071717374 0.051527064 -0.025016468 0.03418004 -0.018887388 0.016562577 -0.04645178 0.021593837
-0.015579334 -0.019260388 -0.04203982 0.015605262 -0.031842098 -0.030007472 0.030417789 -0.029944023
0.029102731 0.035433758 0.035578836 0.04255544 0.033952564 0.025041524 0.061216585 0.058894146
0.034947615 -0.018239517 0.02937163 -0.012542268 0.006826853 0.02795892 -0.05538153 0.030655747
-0.034811564 0.061265115 0.048871435 0.05463923 -0.0660306 -0.02281358 -0.012212222 -0.056768313
00000000: f0ca b0bb 834f a83c 20de d33c caa8 83bb
00000010: 25a0 20bd cf75 e7bb c8e7 263d 709c 26bd
00000020: 9457 4bbc dc15 45bc 3a8e 4f3d 8f5c d63b
00000030: 023d 84bc 49d7 98bc 6117 96bd d4c4 92bb
00000040: 529e 313c a3ff 09bc 1f42 c6bb bb98 abbc
00000050: eb89 23bd 1904 7bbc bd15 32bd 6568 8b3c
00000060: e05b 2d3d e502 3fbd dac1 0dbc 1fe5 2ebc
00000070: 68fc ca3c ed7f 833b a9c4 26bd 960a 80bc
00000080: b8e9 31bd 781a 6cbc 5663 8cbc 82f1 073d
00000090: 1207 4bbc 8a0f df3c c1ca 33bd d10a 683a
000000a0: 7cdb f13c c802 7b3c d5fc 8d3c ee6c 0bbd
000000b0: 1f83 9c3c a79c 2a3d dc09 83bc ab88 423c
000000c0: d989 e8bc 1da1 fd3c 2ac0 2abc c163 003d
000000d0: bbec 973c 005b 583d 6662 6bbc 952d 40bc
000000e0: c651 cfbb 9540 7ebc 1c18 06bd 58d6 a4bc
000000f0: 9d62 c5bc 3ac4 2cbd f4ff 13bd 21f6 51bc
00000100: 3f3e e1bb e4f8 5ebd 0c1d 613c 9ecf 853d
00000110: 5a26 133b a99c 65bc 93d7 603d 6347 c73b
00000120: 8141 423d af2e 1dbc 06a1 0ebd 8d20 dbbc
00000130: 0a7f 59bd 9613 1f3c 1518 db3c 0f40 f03c
00000140: f27a aa3c fd48 77bd 019c a23b 8a62 edbc
00000150: 054a d13c 398a af3c bf67 27bd 06b4 c5bc
00000160: e0a0 94bb 2220 563d 3014 25bd 3b0b 043d
00000170: 4c63 7ebd 0d91 1e3d 8129 40bc b724 0a3d
00000180: 56fd 5a3d b1bd 8fbc c890 bebc 5665 723d
00000190: ba3d 47bd 7da0 b9ba a516 a83a 72df cebc
000001a0: 8656 9cbd 9e3f 0e3d 9e36 003d 86c3 6d3c
000001b0: c509 febc 7460 54bd c058 123d 64c8 4ebd
000001c0: 282c 0abd 4c16 3bbc 86b9 9dbc 725b 47bd
000001d0: 1464 a1bc f86d 2e3d 1a76 153d 5984 193d
000001e0: e0dc 20bc ed6f 193c 1225 eebc 86fd 513d
000001f0: cb9f 343d ab28 3abd 993f 8b3b 7462 0f3c
00000200: e76e b1bc 0fa3 3b3c b36e 61bb caa8 9dbb
00000210: 1ae5 1abc e3e0 49bb cb46 86ba 1688 febc
00000220: 5227 08bb 49ac b3bb b466 fb3c ee43 3dbd
00000230: c7a5 b3bb 6931 163d 162e 963b 8f62 51bb
00000240: 8101 d43b e125 6cbd 8452 893a 43e2 283d
00000250: 2167 be3c cbf5 eabc 8550 c0bc ef28 00bd
00000260: 15eb 5c3d a561 47bc 9d8e bf3c 5df8 16bd
00000270: 7a06 8939 fa03 82bd c940 833c a6e2 0cbd
00000280: abe2 253c e0c3 c6bd 0053 99bd 9ed3 b33b
00000290: 1c40 24bd 5ace a73c e0da 9b3c b252 653c
000002a0: 9a53 96bc de42 803d dfff ef3c c25f 273d
000002b0: 09fb 163d 9c5a ebbc 0405 83bd f92d 01bc
000002c0: f599 0abd 8b4d 8a3d b641 90bc 56c7 fa3c
000002d0: 7e62 373d 6627 ca3c 4975 753c 05e3 76bd
000002e0: 0961 7a3d d655 30bc fbf2 dabc 33f2 b43c
000002f0: b9c4 8fbc 4d54 f73b ef6d 77bc 6db6 a83c
00000300: 0f56 76bc 59c2 533d cce7 133c 7b9f 773c
00000310: 202e 98bd 8929 3a3d 4f88 613d 9b3e f03c
00000320: b5dd 423b de6c 70ba 58b4 d1bc 4138 ecbb
00000330: 08ce 763b 1ed2 fcbc b701 10bd 9ea1 953b
00000340: 9617 153c 4bb3 293d 6175 32bd df2e 48bb
00000350: e72d 363a ccf9 2dbb ad89 87bd 6ceb 9ebd
00000360: 8fe0 92bd 0b0e 533d 56ef ccbc 5f00 0c3d
00000370: b9b9 9abc 3eae 873c 3944 3ebd 8fe5 b03c
00000380: 7740 7fbc f6c7 9dbc f231 2cbd 36ad 7f3c
00000390: dc6c 02bd 3bd2 f5bc ba2e f93c 2b4d f5bc
000003a0: da68 ee3c fd22 113d 1dbb 113d 9d4e 2e3d
000003b0: d811 0b3d e223 cd3c 3ebe 7a3d fd3a 713d
000003c0: 3b25 0f3d 0a6b 95bc c69c f03c 167e 4dbc
000003d0: cbb3 df3b 1b0a e53c bed7 62bd c321 fb3c
000003e0: 9296 0ebd 21f1 7a3d 6a2d 483d 63cd 5f3d
000003f0: 0d3b 87bd 8ce3 babc c615 48bc e485 68bd

nnalign.in_layer.bias f4 [15]
-5.5053963e-05 -4.2716997e-10 4.6667092e-09 6.9118853e-09 1.27759705e-08 5.6292118e-09 -1.9844542e-08 1.299783e-05
2.6707408e-08 -9.981022e-07 3.2541283e-08 2.6707767e-06 -7.082662e-08 -4.6790256e-09 4.7472057e-09
00000000: bee9 66b8 d4d6 eaaf cf58 a031 967d ed31
00000010: 507d 5b32 126b c131 9c76 aab2 4111 5a37
00000020: 366a e532 88f6 85b5 85c3 0b33 983b 3336
00000030: 5919 98b3 25c5 a0b1 dd1c a331

nnalign.out_layer.weight f4 [1, 15]
-0.11616531 -0.22446182 -0.17620513 -0.18223059 -0.23348989 0.17225851 -0.09552999 0.10029719
0.22641239 -0.17047553 -0.19257693 -0.18453074 -0.10836074 -0.20140544 -0.080057435
00000000: 14e8 edbd 52d9 65be 1e6f 34be a89a 3abe
00000010: f917 6fbe 8964 303e 3aa5 c3bd 9d68 cd3d
00000020: a6d8 673e 2391 2ebe e332 45be a0f5 3cbe
00000030: 3cec ddbd 3a3d 4ebe 27f5 a3bd

nnalign.bn1.weight f4 [15]
0.7596948 0.76859707 0.7622233 0.7634263 0.7717967 0.76320225 0.7571797 0.76252776
0.7773589 0.7673581 0.7697171 0.76613784 0.75924855 0.77131647 0.75809705
00000000: 5c7b 423f c7c2 443f 1121 433f e86f 433f
00000010: 7894 453f 3961 433f 87d6 413f 0535 433f
00000020: fe00 473f 9571 443f 2e0c 453f 9c21 443f
00000030: 1d5e 423f ff74 453f a612 423f

nnalign.bn1.bias f4 [15]
0.0052671935 0.005627956 0.0030346673 -0.0023341398 0.011084844 -0.014530582 -0.0003883008 -0.0030028622
0.0036433632 -0.013681136 0.0022705882 0.0015989823 0.0022299269 0.009437872 0.0022027986
00000000: 6c98 ac3b b76a b83b 45e1 463b 5ef8 18bb
00000010: 359d 353c ae11 6ebc da94 cbb9 abcb 44bb
00000020: 7ec5 6e3b d826 60bc 26ce 143b f194 d13a
00000030: f723 123b 4ea1 1a3c d45c 103b

nnalign.bn1.running_mean f4 [15]
-0.025351552 -0.14213833 -0.020131208 0.45449364 -0.19754207 -0.5383166 -0.04445293 0.020396162
0.14323984 0.17776847 -0.06958684 0.003933941 -0.046915546 -0.06256903 0.01272563
00000000: 0fae cfbc b68c 11be 34ea a4bc 64b3 e83e
00000010: 7848 4abe 1ecf 09bf 4714 36bd da15 a73c
00000020: 77ad 123e f008 363e 8c83 8ebd 4ae8 803b
00000030: 842a 40bd 3124 80bd 297f 503c

nnalign.bn1.running_var f4 [15]
0.12875766 0.2178768 0.22958082 0.7141186 0.30891645 0.8524366 0.15322825 0.020796845
0.29773113 0.31825373 0.18263109 0.21938106 0.13469055 0.21049511 0.0495494
00000000: 0cd9 033e 191b 5f3e 3c17 6b3e 7ad0 363f
00000010: 4c2a 9e3e 4939 5a3f dee7 1c3e 255e aa3c
00000020: 3770 983e 27f2 a23e a503 3b3e 6ea5 603e
00000030: 52ec 093e 088c 573e 50f4 4a3d

in_layer.weight f4 [15, 100]
-0.005395286 0.020545727 0.025862753 -0.004017924 -0.039215226 -0.0070636044 0.040748388 -0.040676534
-0.012411017 -0.012029137 0.050672747 0.0065417956 -0.016142372 -0.018657343 -0.07328678 -0.00447903
0.010840969 -0.008422765 -0.0060503627 -0.020946851 -0.03992645 -0.015320801 -0.043477762 0.017017553
0.042323947 -0.04663362 -0.008652175 -0.010674744 0.02477856 0.0040130527 -0.040714893 -0.015630048
-0.043435782 -0.0144106075 -0.01713721 0.033189304 -0.012391822 0.02722909 -0.043894533 0.00088517094
0.029523604 0.015320487 0.017332474 -0.03403943 0.019105492 0.0416533 -0.015995912 0.0118734045
-0.028386043 0.030960614 -0.010421792 0.031345133 0.0185455 0.05282116 -0.014366722 -0.011729618
-0.006326887 -0.015518327 -0.032737836 -0.020121738 -0.024094874 -0.042179324 -0.036132768 -0.012815029
-0.0068738754 -0.05443658 0.0137398355 0.065337405 0.002245328 -0.0140144015 0.054893088 0.006081508
0.04742575 -0.00959365 -0.034821533 -0.02674892 -0.05309967 0.0097092595 0.026744882 0.02932742
0.020810578 -0.06037234 0.004962445 -0.028977651 0.02554799 0.021428214 -0.040870424 -0.024133693
-0.0045357794 0.052276738 -0.040302455 0.032237273 -0.062106416 0.03871255 -0.011728645 0.03372642
0.053464256 -0.017546507 -0.023262396 0.059178673 -0.04864285 -0.0014162209 0.0012824131 -0.025253031
-0.076336905 0.03472864 0.031302087 0.014511948 -0.031010518 -0.051849797 0.03572917 -0.050484076
-0.033733517 -0.01141889 -0.019253504 -0.048671193 -0.019701041 0.042585343 0.036489584 0.037479732
-0.009818286 0.009365064 -0.02907041 0.05126717 0.044097703 -0.04544894 0.004249525 0.0087515
-0.021659328 0.01145245 -0.0034398257 -0.004811381 -0.009454036 -0.003080421 -0.0010244487 -0.03107075
-0.002077539 -0.0054831845 0.030688621 -0.04620736 -0.0054824087 0.036668215 0.0045831306 -0.0031949615
0.006469906 -0.05765331 0.0010476862 0.041231405 0.023242535 -0.028681656 -0.023475895 -0.031289037
0.05393513 -0.012169276 0.023383433 -0.03685795 0.00026135502 -0.06348415 0.016022103 -0.034395836
0.010124843 -0.09705329 -0.07486534 0.005487873 -0.040100202 0.020484138 0.019025266 0.013996767
-0.018350411 0.06262754 0.029296814 0.040862806 0.0368605 -0.02872973 -0.06397441 -0.007884496
-0.03383823 0.067530714 -0.017609458 0.030612629 0.044771664 0.02467699 0.014981576 -0.060275096
0.061127696 -0.010762652 -0.02672719 0.022088146 -0.01754986 0.0075478912 -0.015101894 0.0205948
-0.015035166 0.051699016 0.009027433 0.015113707 -0.07430673 0.045449767 0.055061635 0.029326728
0.0029734198 -0.0009171496 -0.02559869 -0.0072088544 0.0037659425 -0.03086191 -0.035157885 0.0045663854
0.009099862 0.041430753 -0.043568972 -0.0030545515 0.0006949589 -0.0026546596 -0.066180564 -0.07759747
-0.071717374 0.051527064 -0.025016468 0.03418004 -0.018887388 0.016562577 -0.04645178 0.021593837
-0.015579334 -0.019260388 -0.04203982 0.015605262 -0.031842098 -0.030007472 0.030417789 -0.029944023
0.029102731 0.035433758 0.035578836 0.04255544 0.033952564 0.025041524 0.061216585 0.058894146
0.034947615 -0.018239517 0.02937163 -0.012542268 0.006826853 0.02795892 -0.05538153 0.030655747
-0.034811564 0.061265115 0.048871435 0.05463923 -0.0660306 -0.02281358 -0.012212222 -0.056768313
00000000: f0ca b0bb 834f a83c 20de d33c caa8 83bb
00000010: 25a0 20bd cf75 e7bb c8e7 263d 709c 26bd
00000020: 9457 4bbc dc15 45bc 3a8e 4f3d 8f5c d63b
00000030: 023d 84bc 49d7 98bc 6117 96bd d4c4 92bb
00000040: 529e 313c a3ff 09bc 1f42 c6bb bb98 abbc
00000050: eb89 23bd 1904 7bbc bd15 32bd 6568 8b3c
00000060: e05b 2d3d e502 3fbd dac1 0dbc 1fe5 2ebc
00000070: 68fc ca3c ed7f 833b a9c4 26bd 960a 80bc
00000080: b8e9 31bd 781a 6cbc 5663 8cbc 82f1 073d
00000090: 1207 4bbc 8a0f df3c c1ca 33bd d10a 683a
000000a0: 7cdb f13c c802 7b3c d5fc 8d3c ee6c 0bbd
000000b0: 1f83 9c3c a79c 2a3d dc09 83bc ab88 423c
000000c0: d989 e8bc 1da1 fd3c 2ac0 2abc c163 003d
000000d0: bbec 973c 005b 583d 6662 6bbc 952d 40bc
000000e0: c651 cfbb 9540 7ebc 1c18 06bd 58d6 a4bc
000000f0: 9d62 c5bc 3ac4 2cbd f4ff 13bd 21f6 51bc
00000100: 3f3e e1bb e4f8 5ebd 0c1d 613c 9ecf 853d
00000110: 5a26 133b a99c 65bc 93d7 603d 6347 c73b
00000120: 8141 423d af2e 1dbc 06a1 0ebd 8d20 dbbc
00000130: 0a7f 59bd 9613 1f3c 1518 db3c 0f40 f03c
00000140: f27a aa3c fd48 77bd 019c a23b 8a62 edbc
00000150: 054a d13c 398a af3c bf67 27bd 06b4 c5bc
00000160: e0a0 94bb 2220 563d 3014 25bd 3b0b 043d
00000170: 4c63 7ebd 0d91 1e3d 8129 40bc b724 0a3d
00000180: 56fd 5a3d b1bd 8fbc c890 bebc 5665 723d
00000190: ba3d 47bd 7da0 b9ba a516 a83a 72df cebc
000001a0: 8656 9cbd 9e3f 0e3d 9e36 003d 86c3 6d3c
000001b0: c509 febc 7460 54bd c058 123d 64c8 4ebd
000001c0: 282c 0abd 4c16 3bbc 86b9 9dbc 725b 47bd
000001d0: 1464 a1bc f86d 2e3d 1a76 153d 5984 193d
000001e0: e0dc 20bc ed6f 193c 1225 eebc 86fd 513d
000001f0: cb9f 343d ab28 3abd 993f 8b3b 7462 0f3c
00000200: e76e b1bc 0fa3 3b3c b36e 61bb caa8 9dbb
00000210: 1ae5 1abc e3e0 49bb cb46 86ba 1688 febc
00000220: 5227 08bb 49ac b3bb b466 fb3c ee43 3dbd
00000230: c7a5 b3bb 6931 163d 162e 963b 8f62 51bb
00000240: 8101 d43b e125 6cbd 8452 893a 43e2 283d
00000250: 2167 be3c cbf5 eabc 8550 c0bc ef28 00bd
00000260: 15eb 5c3d a561 47bc 9d8e bf3c 5df8 16bd
00000270: 7a06 8939 fa03 82bd c940 833c a6e2 0cbd
00000280: abe2 253c e0c3 c6bd 0053 99bd 9ed3 b33b
00000290: 1c40 24bd 5ace a73c e0da 9b3c b252 653c
000002a0: 9a53 96bc de42 803d dfff ef3c c25f 273d
000002b0: 09fb 163d 9c5a ebbc 0405 83bd f92d 01bc
000002c0: f599 0abd 8b4d 8a3d b641 90bc 56c7 fa3c
000002d0: 7e62 373d 6627 ca3c 4975 753c 05e3 76bd
000002e0: 0961 7a3d d655 30bc fbf2 dabc 33f2 b43c
000002f0: b9c4 8fbc 4d54 f73b ef6d 77bc 6db6 a83c
00000300: 0f56 76bc 59c2 533d cce7 133c 7b9f 773c
00000310: 202e 98bd 8929 3a3d 4f88 613d 9b3e f03c
00000320: b5dd 423b de6c 70ba 58b4 d1bc 4138 ecbb
00000330: 08ce 763b 1ed2 fcbc b701 10bd 9ea1 953b
00000340: 9617 153c 4bb3 293d 6175 32bd df2e 48bb
00000350: e72d 363a ccf9 2dbb ad89 87bd 6ceb 9ebd
00000360: 8fe0 92bd 0b0e 533d 56ef ccbc 5f00 0c3d
00000370: b9b9 9abc 3eae 873c 3944 3ebd 8fe5 b03c
00000380: 7740 7fbc f6c7 9dbc f231 2cbd 36ad 7f3c
00000390: dc6c 02bd 3bd2 f5bc ba2e f93c 2b4d f5bc
000003a0: da68 ee3c fd22 113d 1dbb 113d 9d4e 2e3d
000003b0: d811 0b3d e223 cd3c 3ebe 7a3d fd3a 713d
000003c0: 3b25 0f3d 0a6b 95bc c69c f03c 167e 4dbc
000003d0: cbb3 df3b 1b0a e53c bed7 62bd c321 fb3c
000003e0: 9296 0ebd 21f1 7a3d 6a2d 483d 63cd 5f3d
000003f0: 0d3b 87bd 8ce3 babc c615 48bc e485 68bd

in_layer.bias f4 [15]
-5.5053963e-05 -4.2716997e-10 4.6667092e-09 6.9118853e-09 1.27759705e-08 5.6292118e-09 -1.9844542e-08 1.299783e-05
2.6707408e-08 -9.981022e-07 3.2541283e-08 2.6707767e-06 -7.082662e-08 -4.6790256e-09 4.7472057e-09
00000000: bee9 66b8 d4d6 eaaf cf58 a031 967d ed31
00000010: 507d 5b32 126b c131 9c76 aab2 4111 5a37
00000020: 366a e532 88f6 85b5 85c3 0b33 983b 3336
00000030: 5919 98b3 25c5 a0b1 dd1c a331

out_layer.weight f4 [1, 15]
-0.11616531 -0.22446182 -0.17620513 -0.18223059 -0.23348989 0.17225851 -0.09552999 0.10029719
0.22641239 -0.17047553 -0.19257693 -0.18453074 -0.10836074 -0.20140544 -0.080057435
00000000: 14e8 edbd 52d9 65be 1e6f 34be a89a 3abe
00000010: f917 6fbe 8964 303e 3aa5 c3bd 9d68 cd3d
00000020: a6d8 673e 2391 2ebe e332 45be a0f5 3cbe
00000030: 3cec ddbd 3a3d 4ebe 27f5 a3bd

bn1.weight f4 [15]
0.7596948 0.76859707 0.7622233 0.7634263 0.7717967 0.76320225 0.7571797 0.76252776
0.7773589 0.7673581 0.7697171 0.76613784 0.75924855 0.77131647 0.75809705
00000000: 5c7b 423f c7c2 443f 1121 433f e86f 433f
00000010: 7894 453f 3961 433f 87d6 413f 0535 433f
00000020: fe00 473f 9571 443f 2e0c 453f 9c21 443f
00000030: 1d5e 423f ff74 453f a612 423f

bn1.bias f4 [15]
0.0052671935 0.005627956 0.0030346673 -0.0023341398 0.011084844 -0.014530582 -0.0003883008 -0.0030028622
0.0036433632 -0.013681136 0.0022705882 0.0015989823 0.0022299269 0.009437872 0.0022027986
00000000: 6c98 ac3b b76a b83b 45e1 463b 5ef8 18bb
00000010: 359d 353c ae11 6ebc da94 cbb9 abcb 44bb
00000020: 7ec5 6e3b d826 60bc 26ce 143b f194 d13a
00000030: f723 123b 4ea1 1a3c d45c 103b

bn1.running_mean f4 [15]
-0.025351552 -0.14213833 -0.020131208 0.45449364 -0.19754207 -0.5383166 -0.04445293 0.020396162
0.14323984 0.17776847 -0.06958684 0.003933941 -0.046915546 -0.06256903 0.01272563
00000000: 0fae cfbc b68c 11be 34ea a4bc 64b3 e83e
00000010: 7848 4abe 1ecf 09bf 4714 36bd da15 a73c
00000020: 77ad 123e f008 363e 8c83 8ebd 4ae8 803b
00000030: 842a 40bd 3124 80bd 297f 503c

bn1.running_var f4 [15]
0.12875766 0.2178768 0.22958082 0.7141186 0.30891645 0.8524366 0.15322825 0.020796845
0.29773113 0.31825373 0.18263109 0.21938106 0.13469055 0.21049511 0.0495494
00000000: 0cd9 033e 191b 5f3e 3c17 6b3e 7ad0 363f
00000010: 4c2a 9e3e 4939 5a3f dee7 1c3e 255e aa3c
00000020: 3770 983e 27f2 a23e a503 3b3e 6ea5 603e
00000030: 52ec 093e 088c 573e 50f4 4a3d

mu f4 [100]
-0.6761023 -1.3986068 -1.2225834 -1.7632203 -2.0629413 -0.6935959 -1.1854663 -1.9576278
-1.1897168 -0.9499211 -0.7843986 -1.0267494 -0.3153387 -1.195046 -1.6590645 -0.65497917
-0.48786166 -2.215482 -0.7522196 -0.8576736 -0.67683476 -1.5268968 -1.2256227 -1.723879
-2.0425632 -0.73649573 -1.2074655 -1.9369009 -1.2800096 -0.90944976 -0.76283467 -1.1221792
-0.32040912 -1.2599584 -1.5694258 -0.6658746 -0.4710363 -2.2687862 -0.85773253 -0.8235543
-0.64572644 -1.4452342 -1.0593529 -1.5887601 -2.0243883 -0.6898675 -1.1058788 -1.8144065
-1.1460434 -1.1095273 -1.0521966 -1.0223995 -0.5401884 -1.3364961 -1.5417252 -0.5638913
-0.47599745 -2.2723012 -0.84134007 -0.9748915 -0.6270751 -1.4123478 -1.0187889 -1.5334995
-2.021554 -0.6519772 -1.0184112 -1.7661266 -1.1354656 -1.202916 -1.1419792 -0.9640046
-0.63098055 -1.4275153 -1.4214194 -0.5091082 -0.435939 -2.3625271 -0.9217838 -1.0397106
-0.7318969 -1.5180877 -1.3932904 -1.9984218 -1.9946195 -0.89586186 -1.3379424 -2.0916646
-1.3305358 -0.6893157 -0.60682327 -1.1449997 -0.25989842 -0.9838967 -1.7796787 -0.8189339
-0.5202729 -2.1935356 -0.6908857 -0.6087186
00000000: 0a15 2dbf 8c05 b3bf 9d7d 9cbf 34b1 e1bf
00000010: 3b07 04c0 808f 31bf 5cbd 97bf 8c93 fabf
00000020: a448 98bf 072e 73bf 59ce 48bf 866c 83bf
00000030: 1374 a1be 44f7 98bf 3a5c d4bf b7ac 27bf
00000040: 01c9 f9be 75ca 0dc0 7791 40bf 7f90 5bbf
00000050: 0b45 2dbf 5b71 c3bf 34e1 9cbf 11a8 dcbf
00000060: 5bb9 02c0 fc8a 3cbf 3b8e 9abf 5eec f7bf
00000070: 5bd7 a3bf b3d1 68bf 2249 43bf 91a3 8fbf
00000080: aa0c a4be 5146 a1bf f2e2 c8bf c276 2abf
00000090: ab2b f1be cb33 11c0 5c94 5bbf 74d4 52bf
000000a0: 544e 25bf 6ffd b8bf e098 87bf 7e5c cbbf
000000b0: 948f 01c0 289b 30bf 708d 8dbf 793e e8bf
000000c0: 8db1 92bf fe04 8ebf 61ae 86bf fddd 82bf
000000d0: c949 0abf 4e12 abbf 4057 c5bf 2e5b 10bf
000000e0: f0b5 f3be 626d 11c0 1062 57bf 7d92 79bf
000000f0: fe87 20bf d0c7 b4bf ad67 82bf b649 c4bf
00000100: 2461 01c0 fae7 26bf 4c5b 82bf 7010 e2bf
00000110: f056 91bf 27f9 99bf 602c 92bf 01c9 76bf
00000120: f187 21bf d2b8 b6bf 12f1 b5bf ea54 02bf
00000130: 6633 dfbe a533 17c0 06fa 6bbf 3d15 85bf
00000140: 985d 3bbf b350 c2bf 5757 b2bf 49cc ffbf
00000150: b14f ffbf 3457 65bf b241 abbf d5dd 05c0
00000160: ff4e aabf fe76 30bf c558 1bbf 5a8f 92bf
00000170: 6811 85be a7e0 7bbf 83cc e3bf a7a5 51bf
00000180: 9b30 05bf e362 0cc0 e3dd 30bf fbd4 1bbf

sigma f4 [100]
1.6997327 2.3373413 2.213659 2.6531892 2.131045 2.012263 2.143359 2.5956683
2.194102 2.697707 2.8160753 2.1738687 2.1700299 2.9459994 2.716595 2.1141117
1.4575249 2.6471045 2.2177222 2.404815 1.6724589 2.2900863 2.2571921 2.6963606
2.1644905 2.0104017 2.179959 2.6338482 2.1925664 2.7319186 2.859663 2.0994318
2.1930199 2.8965442 2.8235795 2.1243372 1.4650612 2.6631372 2.14592 2.4408891
1.690122 2.296194 2.2541876 2.7059922 2.240762 2.032907 2.189653 2.6524339
2.2351568 2.727014 2.726183 2.1190047 2.070904 2.9851837 2.7363577 2.1029606
1.4835354 2.740421 2.2040136 2.4699342 1.6612792 2.2880602 2.2184079 2.6252077
2.2354662 2.0323956 2.2258968 2.6695616 2.2158408 2.70571 2.7088153 2.1097784
2.017698 2.9586647 2.8036814 2.0801547 1.5111607 2.6583364 2.1627212 2.4559827
1.6607317 2.362362 2.286116 2.63937 2.108947 2.0587642 2.1959481 2.6865814
2.2738416 2.761112 2.80052 2.2988577 2.051403 3.002292 2.7238834 2.0977678
1.4361116 2.5945287 2.2203202 2.528671
00000000: d790 d93f 0097 1540 97ac 0d40 dacd 2940
00000010: 0b63 0840 ebc8 0040 cb2c 0940 6e1f 2640
00000020: 2b6c 0c40 3ba7 2c40 943a 3440 aa20 0b40
00000030: c5e1 0a40 418b 3c40 b1dc 2d40 9b4d 0740
00000040: 2d90 ba3f 296a 2940 29ef 0d40 7de8 1940
00000050: 2213 d63f c690 1240 d675 1040 2c91 2c40
00000060: 0387 0a40 6caa 0040 7384 0b40 f890 2840
00000070: 0253 0c40 c1d7 2e40 b804 3740 175d 0640
00000080: 705a 0c40 fb60 3940 87b5 3440 24f5 0740
00000090: 2087 bb3f d770 2a40 c156 0940 8737 1c40
000000a0: eb55 d83f d8f4 1240 9c44 1040 fa2e 2d40
000000b0: a568 0f40 261b 0240 4623 0c40 7ac1 2940
000000c0: cf0c 0f40 6687 2e40 c879 2e40 c69d 0740
000000d0: b189 0440 400d 3f40 7c20 2f40 e896 0640
000000e0: 7de4 bd3f 0f63 2f40 8f0e 0d40 6713 1e40
000000f0: cca4 d43f 946f 1240 65fa 0d40 6703 2840
00000100: e111 0f40 c512 0240 1875 0e40 19da 2a40
00000110: 56d0 0d40 5a2a 2d40 3b5d 2d40 9c06 0740
00000120: f721 0140 c35a 3d40 846f 3340 4121 0540
00000130: b76d c13f 2f22 2a40 066a 0a40 d22e 1d40
00000140: db92 d43f f030 1740 b94f 1240 70eb 2840
00000150: fdf8 0640 cbc2 0340 6a8a 0c40 f3f0 2b40
00000160: 9f86 1140 0fb6 3040 b83b 3340 7c20 1340
00000170: 304a 0340 8d25 4040 1b54 2e40 d441 0640
00000180: 81d2 b73f c20c 2640 ba19 0e40 bfd5 2140
