output/230530_EF_COMPARISON/230530_CEDAR_NO_EF_230530_164919_73yiO/checkpoint_best_kcv_230530_cedar_aligned_f8_230530_CEDAR_NO_EF_230530_164919_73yiO.pt (torch, 16196 bytes, 16 tensors)

nnalign.in_layer.weight f4 [25, 100]
0.011005803 -0.031027185 0.012513739 -0.0014193833 -0.011856224 -0.01581052 -0.025080599 0.029299749
0.0038716623 0.039645422 0.021203494 -0.03365041 0.021075733 -0.043872505 -0.035019215 -0.019266358
-0.0024709555 -0.039586842 0.059446324 0.009422373 0.008391953 0.056012902 -0.03821607 -0.044218402
-0.0008411316 0.011358988 -0.031405613 0.0064906976 -0.035044298 0.06263974 0.009173261 -0.042431157
0.042694956 0.020696264 0.08026962 0.037731014 -0.0026868547 0.0688959 -0.019876694 0.022915445
0.005195342 -0.01876562 0.08893652 0.0052259597 -0.060873553 -0.0049108923 -0.025612285 0.0030015784
-0.0029408876 0.054978214 0.044244956 -0.016749747 -0.0647478 -0.060214084 -0.04373029 -0.05099272
0.00983903 0.04551481 0.0038995722 0.042557426 -0.02655363 0.024670267 -0.022946188 -0.020275842
0.05914153 0.02521866 0.011368324 -0.060421377 -0.01685201 -0.039152164 -0.036225263 -0.032964997
-0.029677877 0.05460628 -0.0023543402 0.06583908 0.019114347 0.06254393 0.049386714 -0.054978818
0.051403742 -0.09839128 -0.06403356 0.033331007 0.013681121 0.036250427 0.012530294 -0.015870899
0.020912435 0.022777222 -0.049789164 -0.085045815 -0.03538935 -0.10339357 -0.041912574 -0.07060227
0.027817106 -0.01939416 0.033303466 -0.015291976 0.007961109 -0.0013514997 -0.027035112 0.020428026
-0.014848876 -0.026696334 0.030327985 0.031758416 -0.0175411 -0.020601658 -0.035482872 0.020765293
-0.01140251 0.041639086 -0.006613803 0.039521758 0.01777234 0.022605037 0.026975483 -0.02148062
0.010715723 -0.022166124 -0.03503586 -0.04463682 0.03400707 0.020237055 -0.029660461 0.037212655
0.038744815 -0.022394858 -0.02995942 0.025005132 0.0102607915 -0.0019063875 0.0075419242 0.018534446
0.01634201 0.01644739 -0.005077753 0.028267927 -0.023998069 0.008508307 -0.016673513 -0.010904188
0.045577165 0.052646883 -0.06472006 0.0037723007 0.015664004 0.021091675 -0.0073798387 0.040517226
0.013447133 -0.0032740752 0.016368095 0.022932595 -0.005992994 0.007209703 0.0018938411 -0.079133466
-0.0105038835 0.040540237 0.04087093 -0.065500885 0.009194249 0.0025240756 -0.049706068 0.01233117
-0.009601696 -0.027484607 -0.028706307 0.008200658 -0.021725742 0.012929419 0.0316834 -0.058076873
0.050178472 0.016208725 0.00554279 0.017682197 0.055569444 0.07850483 -0.009953008 0.0038228205
0.053339265 0.052599434 -0.057144303 -0.03301759 0.052123766 -0.015003068 0.008072169 0.043298066
-0.07218289 -0.03064488 0.031491496 -0.013854361 -0.029360807 0.037379112 -0.05787979 0.0733808
0.022942545 -0.006242174 -0.029584862 0.025045583 0.04567344 -0.017479924 0.014467109 -0.02344425
-0.0012026889 0.047490295 -0.021901693 -0.014536914 0.012892652 -0.027454387 0.04108176 0.03861717
-0.045820355 0.024692878 0.013895088 -0.013230334 0.008208802 -0.04305339 -0.061563566 -0.023674337
0.027886325 0.027168239 0.026531383 0.045764122 -0.037055206 -0.042228945 0.026419837 0.03656675
-0.046651267 0.046692338 -0.050305262 0.058154643 -0.00016196977 -0.019328605 0.039825607 0.046372317
-0.013759342 -0.027450794 -0.0022278 -0.049066585 0.06769521 0.053744733 -0.016018081 0.02065271
0.009562609 0.013214234 -0.015271163 0.030393561 -0.02152739 -0.023098825 0.0022964075 0.011639539
00000000: af51 343c b92c febc 6d06 4d3c 9a0a baba
00000010: 9c40 42bc 1085 81bc d475 cdbc 0706 f03c
00000020: b7bb 7d3b 3d63 223d f3b2 ad3c 03d5 09bd
00000030: 04a7 ac3c a8b3 33bd 4f70 0fbd 7bd4 9dbc
00000040: c1ef 21bb d025 22bd fd7d 733d 4c60 1a3c
00000050: 677e 093c c96d 653d 7488 1cbd 5b1e 35bd
00000060: 637f 5cba 0c1b 3a3c 2ca3 00bd ebaf d43b
00000070: 9c8a 0fbd 4449 803d 724b 163c 4bcc 2dbd
00000080: e8e0 2e3d 368b a93c 6664 a43d d68b 1a3d
00000090: f115 30bb 4b19 8d3d 73d4 a2bc 2cb9 bb3c
000000a0: b03d aa3b 5cba 99bc 5a24 b63d 873e ab3b
000000b0: 8c56 79bd 8deb a0bb dbd0 d1bc 21b6 443b
000000c0: e8bb 40bb d630 613d 333a 353d c436 89bc
000000d0: 7f9a 84bd 0ba3 76bd 881e 33bd bedd 50bd
000000e0: e233 213c bd6d 3a3d f78f 7f3b b250 2e3d
000000f0: 0087 d9bc 4d19 ca3c a5f9 bbbc 8619 a6bc
00000100: 643e 723d 5d97 ce3c 3542 3a3c 687c 77bd
00000110: 3a0d 8abc 055e 20bd f160 14bd 4e06 07bd
00000120: 051f f3bc d6aa 5f3d 464b 1abb a4d6 863d
00000130: b195 9c3c 0817 803d b949 4a3d 7831 61bd
00000140: bb8c 523d 5e81 c9bd 0724 83bd 1886 083d
00000150: c826 603c 547b 143d dd4b 4d3c b003 82bc
00000160: 8e50 ab3c 4c97 ba3c b9ef 4bbd 802c aebd
00000170: 6cf4 10bd 02c0 d3bd 85ac 2bbd ec97 90bd
00000180: b3e0 e33c 80e0 9ebc 3769 083d 328b 7abc
00000190: 506f 023c ce24 b1ba bd78 ddbc ad58 a73c
000001a0: b348 73bc 45b2 dabc 6572 f83c 1d15 023d
000001b0: 5ab2 8fbc cfc4 a8bc 7d56 11bd fa1b aa3c
000001c0: 98d1 3abc bf8d 2a3d 9ab8 d8bb 91e1 213d
000001d0: 4c97 913c 332e b93c b0fb dc3c 20f8 afbc
000001e0: 0091 2f3c bb95 b5bc c381 0fbd 19d5 36bd
000001f0: ff4a 0b3d 2ec8 a53c 7ffa f2bc 4c6c 183d
00000200: e2b2 1e3d 6c75 b7bc 756d f5bc 90d7 cc3c
00000210: e11c 283c c0df f9ba 3f22 f73b 8dd5 973c
00000220: aedf 853c adbc 863c 4863 a6bb 2492 e73c
00000230: 9997 c4bc 6d66 0b3c e496 88bc 7ba7 32bc
00000240: 1faf 3a3d 42a4 573d f38b 84bd b438 773b
00000250: cc51 803c 73c8 ac3c 93d2 f1bb 64f5 253d
00000260: 5d51 5c3c de91 56bb 6216 863c 23dd bb3c
00000270: e160 c4bb 5f3f ec3b c33a f83a ba10 a2bd
00000280: 7b18 2cbc 850d 263d 4768 273d 5425 86bd
00000290: 7aa3 163c f66a 253b 9798 4bbd ad08 4a3c
000002a0: 6f50 1dbc 6627 e1bc 7d29 ebbc 0d5c 063c
000002b0: 2ffa b1bc ead5 533c 74c6 013d 04e2 6dbd
000002c0: f187 4d3d 29c8 843c 4ba0 b53b 41da 903c
000002d0: c99c 633d 24c7 a03d f111 23bc 4988 7a3b
000002e0: 467a 5a3d 8172 573d 2510 6abd 743d 07bd
000002f0: bb7f 553d 6ecf 75bc 2141 043c 5059 313d
00000300: 9fd4 93bd f90a fbbc 3afd 003d 67fd 62bc
00000310: 1386 f0bc d71a 193d 5c13 6dbd ac48 963d
00000320: 01f2 bb3c 278b ccbb f45b f2bc 652c cd3c
00000330: 1314 3b3d 0f32 8fbc 7407 6d3c 280e c0bc
00000340: 8ba3 9dba 2f85 423d 2e6b b3bc 3d2c 6ebc
00000350: b43b 533c 06e8 e0bc 5945 283d 0a2d 1e3d
00000360: 20ae 3bbd b848 ca3c 39a8 633c 0bc4 58bc
00000370: 367e 063c c058 30bd 142a 7cbd aff0 c1bc
00000380: dd71 e43c ed8f de3c 5858 d93c 2973 3b3d
00000390: 33c7 17bd 42f8 2cbd 6a6e d83c 04c7 153d
000003a0: 6615 3fbd 7740 3f3d e40c 4ebd 9033 6e3d
000003b0: 6ed6 29b9 0657 9ebc 2d20 233d e6f0 3d3d
000003c0: dd6e 61bc 7de0 e0bc 4800 12bb 0bfa 48bd
000003d0: c9a3 8a3d 7023 5c3d 5a38 83bc df2f a93c
000003e0: 7dac 1c3c 8480 583c e633 7abc ebfb f83c
000003f0: 365a b0bc bf39 bdbc 537f 163b c4b3 3e3c

nnalign.in_layer.bias f4 [25]
-3.053044e-09 9.5998786e-08 1.0022342e-08 9.287274e-09 6.90102e-09 1.4282754e-09 -2.3029867e-09 3.6001302e-09
-6.9641195e-09 1.6150304e-08 -3.3572047e-09 -2.2711264e-08 -7.820654e-09 5.8814216e-08 3.2647858e-08 9.335561e-08
-6.641848e-08 1.448378e-08 6.281933e-08 1.3015614e-07 3.656655e-08 1.0567379e-08 -1.5752876e-08 -3.5693834e-08
-4.961234e-09
00000000: b8cd 51b1 e427 ce33 ba2e 2c32 dd8d 1f32
00000010: 041e ed31 f94c c430 9242 1eb1 2966 7731
00000020: 0b49 efb1 e5ba 8a32 92b4 66b1 9916 c3b2
00000030: 9a5b 06b2 ea9a 7c33 b338 0c33 ca7a c833
00000040: f2a1 8eb3 57d4 7832 4be7 8633 0cc1 0b34
00000050: 590d 1d33 d38b 3532 f150 87b2 c94d 19b3
00000060: 7a77 aab1

nnalign.out_layer.weight f4 [1, 25]
0.24397473 -0.1542213 -0.15407547 0.18444347 0.19019876 0.13590628 0.20439285 0.14409705
-0.12760647 -0.18991944 -0.23577495 -0.15100698 -0.25862628 0.13467272 -0.17791866 -0.25292963
-0.21550716 -0.24435508 0.13150376 -0.14863738 -0.17244154 -0.13942076 -0.1686383 -0.107936524
-0.1667127
00000000: 83d4 793e 30ec 1dbe f6c5 1dbe c0de 3c3e
00000010: 77c3 423e 042b 0b3e 5c4c 513e 2d8e 133e
00000020: 45ab 02be 3e7a 42be fd6e 71be 93a1 1abe
00000030: aa6a 84be a5e7 093e 4f30 36be fe7f 81be
00000040: e9ad 5cbe 3838 7abe eca8 063e 6634 18be
00000050: 8494 30be 51c4 0ebe 85af 2cbe d30d ddbd
00000060: bcb6 2abe

nnalign.bn1.weight f4 [25]
0.7747378 0.6579962 0.6591712 0.66912144 0.6773748 0.7029031 0.73896974 0.6660259
0.67768365 0.68746024 0.7437064 0.66909164 0.71134484 0.67444164 0.68058425 0.74351317
0.72122526 0.71264243 0.702446 0.66672313 0.6760278 0.66175926 0.7088767 0.66487503
0.7216227
00000000: 3755 463f 7072 283f 72bf 283f 8b4b 2b3f
00000010: 6f68 2d3f 75f1 333f 1f2d 3d3f ac80 2a3f
00000020: ad7c 2d3f 65fd 2f3f 8b63 3e3f 9749 2b3f
00000030: b21a 363f 35a8 2c3f c53a 2e3f e156 3e3f
00000040: 38a2 383f bc6f 363f 80d3 333f 5eae 2a3f
00000050: 2810 2d3f 0e69 293f f278 353f 4035 2a3f
00000060: 44bc 383f

nnalign.bn1.bias f4 [25]
-0.06869626 0.07336979 0.0750976 -0.06187067 -0.061926264 -0.053138476 -0.05671106 -0.06393844
0.063123666 0.07025011 0.062177125 0.06356076 0.068471126 -0.076086596 0.06460605 0.06153066
0.06920456 0.05599344 -0.055834718 0.071044676 0.06536916 0.07135 0.06657894 0.07497335
0.06504467
00000000: a0b0 8cbd e742 963d c5cc 993d 1a6c 7dbd
00000010: 65a6 7dbd bba7 59bd db49 68bd 28f2 82bd
00000020: fb46 813d 4adf 8f3d 71ad 7e3d 252c 823d
00000030: 973a 8c3d 4ad3 9bbd 2d50 843d 9307 7c3d
00000040: 1fbb 8d3d 6159 653d f2b2 64bd df7f 913d
00000050: 44e0 853d f31f 923d 8a5a 883d a18b 993d
00000060: 2436 853d

nnalign.bn1.running_mean f4 [25]
0.4733348 -0.2896729 -0.25559035 0.4125583 0.52373576 0.5753349 0.7213492 0.6584382
-0.52730954 -0.43788964 -0.74934113 -0.43509296 -0.48195133 0.2090461 -0.34393725 -0.56006557
-0.43796727 -0.6556956 0.45841318 -0.13195924 -0.5241285 -0.16426075 -0.2862565 -0.062255632
-0.75077987
00000000: f058 f23e 0250 94be bddc 82be d73a d33e
00000010: 8c13 063f 2649 133f 57aa 383f 688f 283f
00000020: c2fd 06bf 1233 e0be d2d4 3fbf 81c4 debe
00000030: 53c2 f6be 2e10 563e 8b18 b0be 7560 0fbf
00000040: 3f3d e0be abdb 27bf 22b5 ea3e 5320 07be
00000050: 492d 06bf f833 28be 3690 92be c3ff 7ebd
00000060: 1c33 40bf

nnalign.bn1.running_var f4 [25]
0.68394774 0.266516 0.2119194 0.499665 0.83232594 0.8650654 1.5818783 1.1440476
0.770797 0.5397219 1.4936912 0.52480066 0.6829783 0.136704 0.3559901 0.89289486
0.5660931 1.3126222 0.60524154 0.10800202 0.7771521 0.10440636 0.27351117 0.028013913
1.5232068
00000000: 3317 2f3f c974 883e 6601 593e 17d4 ff3e
00000010: 5013 553f ed74 5d3f fd7a ca3f 2770 923f
00000020: f452 453f 372b 0a3f 4631 bf3f 5659 063f
00000030: aad7 2e3f 22fc 0b3e 5644 b63e c294 643f
00000040: 7aeb 103f 0104 a83f 1cf1 1a3f 2a30 dd3d
00000050: 71f3 463f 00d3 d53d a809 8c3e 6f7d e53c
00000060: 71f8 c23f

in_layer.weight f4 [25, 100]
0.011005803 -0.031027185 0.012513739 -0.0014193833 -0.011856224 -0.01581052 -0.025080599 0.029299749
0.0038716623 0.039645422 0.021203494 -0.03365041 0.021075733 -0.043872505 -0.035019215 -0.019266358
-0.0024709555 -0.039586842 0.059446324 0.009422373 0.008391953 0.056012902 -0.03821607 -0.044218402
-0.0008411316 0.011358988 -0.031405613 0.0064906976 -0.035044298 0.06263974 0.009173261 -0.042431157
0.042694956 0.020696264 0.08026962 0.037731014 -0.0026868547 0.0688959 -0.019876694 0.022915445
0.005195342 -0.01876562 0.08893652 0.0052259597 -0.060873553 -0.0049108923 -0.025612285 0.0030015784
-0.0029408876 0.054978214 0.044244956 -0.016749747 -0.0647478 -0.060214084 -0.04373029 -0.05099272
0.00983903 0.04551481 0.0038995722 0.042557426 -0.02655363 0.024670267 -0.022946188 -0.020275842
0.05914153 0.02521866 0.011368324 -0.060421377 -0.01685201 -0.039152164 -0.036225263 -0.032964997
-0.029677877 0.05460628 -0.0023543402 0.06583908 0.019114347 0.06254393 0.049386714 -0.054978818
0.051403742 -0.09839128 -0.06403356 0.033331007 0.013681121 0.036250427 0.012530294 -0.015870899
0.020912435 0.022777222 -0.049789164 -0.085045815 -0.03538935 -0.10339357 -0.041912574 -0.07060227
0.027817106 -0.01939416 0.033303466 -0.015291976 0.007961109 -0.0013514997 -0.027035112 0.020428026
-0.014848876 -0.026696334 0.030327985 0.031758416 -0.0175411 -0.020601658 -0.035482872 0.020765293
-0.01140251 0.041639086 -0.006613803 0.039521758 0.01777234 0.022605037 0.026975483 -0.02148062
0.010715723 -0.022166124 -0.03503586 -0.04463682 0.03400707 0.020237055 -0.029660461 0.037212655
0.038744815 -0.022394858 -0.02995942 0.025005132 0.0102607915 -0.0019063875 0.0075419242 0.018534446
0.01634201 0.01644739 -0.005077753 0.028267927 -0.023998069 0.008508307 -0.016673513 -0.010904188
0.045577165 0.052646883 -0.06472006 0.0037723007 0.015664004 0.021091675 -0.0073798387 0.040517226
0.013447133 -0.0032740752 0.016368095 0.022932595 -0.005992994 0.007209703 0.0018938411 -0.079133466
-0.0105038835 0.040540237 0.04087093 -0.065500885 0.009194249 0.0025240756 -0.049706068 0.01233117
-0.009601696 -0.027484607 -0.028706307 0.008200658 -0.021725742 0.012929419 0.0316834 -0.058076873
0.050178472 0.016208725 0.00554279 0.017682197 0.055569444 0.07850483 -0.009953008 0.0038228205
0.053339265 0.052599434 -0.057144303 -0.03301759 0.052123766 -0.015003068 0.008072169 0.043298066
-0.07218289 -0.03064488 0.031491496 -0.013854361 -0.029360807 0.037379112 -0.05787979 0.0733808
0.022942545 -0.006242174 -0.029584862 0.025045583 0.04567344 -0.017479924 0.014467109 -0.02344425
-0.0012026889 0.047490295 -0.021901693 -0.014536914 0.012892652 -0.027454387 0.04108176 0.03861717
-0.045820355 0.024692878 0.013895088 -0.013230334 0.008208802 -0.04305339 -0.061563566 -0.023674337
0.027886325 0.027168239 0.026531383 0.045764122 -0.037055206 -0.042228945 0.026419837 0.03656675
-0.046651267 0.046692338 -0.050305262 0.058154643 -0.00016196977 -0.019328605 0.039825607 0.046372317
-0.013759342 -0.027450794 -0.0022278 -0.049066585 0.06769521 0.053744733 -0.016018081 0.02065271
0.009562609 0.013214234 -0.015271163 0.030393561 -0.02152739 -0.023098825 0.0022964075 0.011639539
00000000: af51 343c b92c febc 6d06 4d3c 9a0a baba
00000010: 9c40 42bc 1085 81bc d475 cdbc 0706 f03c
00000020: b7bb 7d3b 3d63 223d f3b2 ad3c 03d5 09bd
00000030: 04a7 ac3c a8b3 33bd 4f70 0fbd 7bd4 9dbc
00000040: c1ef 21bb d025 22bd fd7d 733d 4c60 1a3c
00000050: 677e 093c c96d 653d 7488 1cbd 5b1e 35bd
00000060: 637f 5cba 0c1b 3a3c 2ca3 00bd ebaf d43b
00000070: 9c8a 0fbd 4449 803d 724b 163c 4bcc 2dbd
00000080: e8e0 2e3d 368b a93c 6664 a43d d68b 1a3d
00000090: f115 30bb 4b19 8d3d 73d4 a2bc 2cb9 bb3c
000000a0: b03d aa3b 5cba 99bc 5a24 b63d 873e ab3b
000000b0: 8c56 79bd 8deb a0bb dbd0 d1bc 21b6 443b
000000c0: e8bb 40bb d630 613d 333a 353d c436 89bc
000000d0: 7f9a 84bd 0ba3 76bd 881e 33bd bedd 50bd
000000e0: e233 213c bd6d 3a3d f78f 7f3b b250 2e3d
000000f0: 0087 d9bc 4d19 ca3c a5f9 bbbc 8619 a6bc
00000100: 643e 723d 5d97 ce3c 3542 3a3c 687c 77bd
00000110: 3a0d 8abc 055e 20bd f160 14bd 4e06 07bd
00000120: 051f f3bc d6aa 5f3d 464b 1abb a4d6 863d
00000130: b195 9c3c 0817 803d b949 4a3d 7831 61bd
00000140: bb8c 523d 5e81 c9bd 0724 83bd 1886 083d
00000150: c826 603c 547b 143d dd4b 4d3c b003 82bc
00000160: 8e50 ab3c 4c97 ba3c b9ef 4bbd 802c aebd
00000170: 6cf4 10bd 02c0 d3bd 85ac 2bbd ec97 90bd
00000180: b3e0 e33c 80e0 9ebc 3769 083d 328b 7abc
00000190: 506f 023c ce24 b1ba bd78 ddbc ad58 a73c
000001a0: b348 73bc 45b2 dabc 6572 f83c 1d15 023d
000001b0: 5ab2 8fbc cfc4 a8bc 7d56 11bd fa1b aa3c
000001c0: 98d1 3abc bf8d 2a3d 9ab8 d8bb 91e1 213d
000001d0: 4c97 913c 332e b93c b0fb dc3c 20f8 afbc
000001e0: 0091 2f3c bb95 b5bc c381 0fbd 19d5 36bd
000001f0: ff4a 0b3d 2ec8 a53c 7ffa f2bc 4c6c 183d
00000200: e2b2 1e3d 6c75 b7bc 756d f5bc 90d7 cc3c
00000210: e11c 283c c0df f9ba 3f22 f73b 8dd5 973c
00000220: aedf 853c adbc 863c 4863 a6bb 2492 e73c
00000230: 9997 c4bc 6d66 0b3c e496 88bc 7ba7 32bc
00000240: 1faf 3a3d 42a4 573d f38b 84bd b438 773b
00000250: cc51 803c 73c8 ac3c 93d2 f1bb 64f5 253d
00000260: 5d51 5c3c de91 56bb 6216 863c 23dd bb3c
00000270: e160 c4bb 5f3f ec3b c33a f83a ba10 a2bd
00000280: 7b18 2cbc 850d 263d 4768 273d 5425 86bd
00000290: 7aa3 163c f66a 253b 9798 4bbd ad08 4a3c
000002a0: 6f50 1dbc 6627 e1bc 7d29 ebbc 0d5c 063c
000002b0: 2ffa b1bc ead5 533c 74c6 013d 04e2 6dbd
000002c0: f187 4d3d 29c8 843c 4ba0 b53b 41da 903c
000002d0: c99c 633d 24c7 a03d f111 23bc 4988 7a3b
000002e0: 467a 5a3d 8172 573d 2510 6abd 743d 07bd
000002f0: bb7f 553d 6ecf 75bc 2141 043c 5059 313d
00000300: 9fd4 93bd f90a fbbc 3afd 003d 67fd 62bc
00000310: 1386 f0bc d71a 193d 5c13 6dbd ac48 963d
00000320: 01f2 bb3c 278b ccbb f45b f2bc 652c cd3c
00000330: 1314 3b3d 0f32 8fbc 7407 6d3c 280e c0bc
00000340: 8ba3 9dba 2f85 423d 2e6b b3bc 3d2c 6ebc
00000350: b43b 533c 06e8 e0bc 5945 283d 0a2d 1e3d
00000360: 20ae 3bbd b848 ca3c 39a8 633c 0bc4 58bc
00000370: 367e 063c c058 30bd 142a 7cbd aff0 c1bc
00000380: dd71 e43c ed8f de3c 5858 d93c 2973 3b3d
00000390: 33c7 17bd 42f8 2cbd 6a6e d83c 04c7 153d
000003a0: 6615 3fbd 7740 3f3d e40c 4ebd 9033 6e3d
000003b0: 6ed6 29b9 0657 9ebc 2d20 233d e6f0 3d3d
000003c0: dd6e 61bc 7de0 e0bc 4800 12bb 0bfa 48bd
000003d0: c9a3 8a3d 7023 5c3d 5a38 83bc df2f a93c
000003e0: 7dac 1c3c 8480 583c e633 7abc ebfb f83c
000003f0: 365a b0bc bf39 bdbc 537f 163b c4b3 3e3c

in_layer.bias f4 [25]
-3.053044e-09 9.5998786e-08 1.0022342e-08 9.287274e-09 6.90102e-09 1.4282754e-09 -2.3029867e-09 3.6001302e-09
-6.9641195e-09 1.6150304e-08 -3.3572047e-09 -2.2711264e-08 -7.820654e-09 5.8814216e-08 3.2647858e-08 9.335561e-08
-6.641848e-08 1.448378e-08 6.281933e-08 1.3015614e-07 3.656655e-08 1.0567379e-08 -1.5752876e-08 -3.5693834e-08
-4.961234e-09
00000000: b8cd 51b1 e427 ce33 ba2e 2c32 dd8d 1f32
00000010: 041e ed31 f94c c430 9242 1eb1 2966 7731
00000020: 0b49 efb1 e5ba 8a32 92b4 66b1 9916 c3b2
00000030: 9a5b 06b2 ea9a 7c33 b338 0c33 ca7a c833
00000040: f2a1 8eb3 57d4 7832 4be7 8633 0cc1 0b34
00000050: 590d 1d33 d38b 3532 f150 87b2 c94d 19b3
00000060: 7a77 aab1

out_layer.weight f4 [1, 25]
0.24397473 -0.1542213 -0.15407547 0.18444347 0.19019876 0.13590628 0.20439285 0.14409705
-0.12760647 -0.18991944 -0.23577495 -0.15100698 -0.25862628 0.13467272 -0.17791866 -0.25292963
-0.21550716 -0.24435508 0.13150376 -0.14863738 -0.17244154 -0.13942076 -0.1686383 -0.107936524
-0.1667127
00000000: 83d4 793e 30ec 1dbe f6c5 1dbe c0de 3c3e
00000010: 77c3 423e 042b 0b3e 5c4c 513e 2d8e 133e
00000020: 45ab 02be 3e7a 42be fd6e 71be 93a1 1abe
00000030: aa6a 84be a5e7 093e 4f30 36be fe7f 81be
00000040: e9ad 5cbe 3838 7abe eca8 063e 6634 18be
00000050: 8494 30be 51c4 0ebe 85af 2cbe d30d ddbd
00000060: bcb6 2abe

bn1.weight f4 [25]
0.7747378 0.6579962 0.6591712 0.66912144 0.6773748 0.7029031 0.73896974 0.6660259
0.67768365 0.68746024 0.7437064 0.66909164 0.71134484 0.67444164 0.68058425 0.74351317
0.72122526 0.71264243 0.702446 0.66672313 0.6760278 0.66175926 0.7088767 0.66487503
0.7216227
00000000: 3755 463f 7072 283f 72bf 283f 8b4b 2b3f
00000010: 6f68 2d3f 75f1 333f 1f2d 3d3f ac80 2a3f
00000020: ad7c 2d3f 65fd 2f3f 8b63 3e3f 9749 2b3f
00000030: b21a 363f 35a8 2c3f c53a 2e3f e156 3e3f
00000040: 38a2 383f bc6f 363f 80d3 333f 5eae 2a3f
00000050: 2810 2d3f 0e69 293f f278 353f 4035 2a3f
00000060: 44bc 383f

bn1.bias f4 [25]
-0.06869626 0.07336979 0.0750976 -0.06187067 -0.061926264 -0.053138476 -0.05671106 -0.06393844
0.063123666 0.07025011 0.062177125 0.06356076 0.068471126 -0.076086596 0.06460605 0.06153066
0.06920456 0.05599344 -0.055834718 0.071044676 0.06536916 0.07135 0.06657894 0.07497335
0.06504467
00000000: a0b0 8cbd e742 963d c5cc 993d 1a6c 7dbd
00000010: 65a6 7dbd bba7 59bd db49 68bd 28f2 82bd
00000020: fb46 813d 4adf 8f3d 71ad 7e3d 252c 823d
00000030: 973a 8c3d 4ad3 9bbd 2d50 843d 9307 7c3d
00000040: 1fbb 8d3d 6159 653d f2b2 64bd df7f 913d
00000050: 44e0 853d f31f 923d 8a5a 883d a18b 993d
00000060: 2436 853d

bn1.running_mean f4 [25]
0.4733348 -0.2896729 -0.25559035 0.4125583 0.52373576 0.5753349 0.7213492 0.6584382
-0.52730954 -0.43788964 -0.74934113 -0.43509296 -0.48195133 0.2090461 -0.34393725 -0.56006557
-0.43796727 -0.6556956 0.45841318 -0.13195924 -0.5241285 -0.16426075 -0.2862565 -0.062255632
-0.75077987
00000000: f058 f23e 0250 94be bddc 82be d73a d33e
00000010: 8c13 063f 2649 133f 57aa 383f 688f 283f
00000020: c2fd 06bf 1233 e0be d2d4 3fbf 81c4 debe
00000030: 53c2 f6be 2e10 563e 8b18 b0be 7560 0fbf
00000040: 3f3d e0be abdb 27bf 22b5 ea3e 5320 07be
00000050: 492d 06bf f833 28be 3690 92be c3ff 7ebd
00000060: 1c33 40bf

bn1.running_var f4 [25]
0.68394774 0.266516 0.2119194 0.499665 0.83232594 0.8650654 1.5818783 1.1440476
0.770797 0.5397219 1.4936912 0.52480066 0.6829783 0.136704 0.3559901 0.89289486
0.5660931 1.3126222 0.60524154 0.10800202 0.7771521 0.10440636 0.27351117 0.028013913
1.5232068
00000000: 3317 2f3f c974 883e 6601 593e 17d4 ff3e
00000010: 5013 553f ed74 5d3f fd7a ca3f 2770 923f
00000020: f452 453f 372b 0a3f 4631 bf3f 5659 063f
00000030: aad7 2e3f 22fc 0b3e 5644 b63e c294 643f
00000040: 7aeb 103f 0104 a83f 1cf1 1a3f 2a30 dd3d
00000050: 71f3 463f 00d3 d53d a809 8c3e 6f7d e53c
00000060: 71f8 c23f

mu f4 [100]
-0.6761023 -1.3986068 -1.2225834 -1.7632203 -2.0629413 -0.6935959 -1.1854663 -1.9576278
-1.1897168 -0.9499211 -0.7843986 -1.0267494 -0.3153387 -1.195046 -1.6590645 -0.65497917
-0.48786166 -2.215482 -0.7522196 -0.8576736 -0.67683476 -1.5268968 -1.2256227 -1.723879
-2.0425632 -0.73649573 -1.2074655 -1.9369009 -1.2800096 -0.90944976 -0.76283467 -1.1221792
-0.32040912 -1.2599584 -1.5694258 -0.6658746 -0.4710363 -2.2687862 -0.85773253 -0.8235543
-0.64572644 -1.4452342 -1.0593529 -1.5887601 -2.0243883 -0.6898675 -1.1058788 -1.8144065
-1.1460434 -1.1095273 -1.0521966 -1.0223995 -0.5401884 -1.3364961 -1.5417252 -0.5638913
-0.47599745 -2.2723012 -0.84134007 -0.9748915 -0.6270751 -1.4123478 -1.0187889 -1.5334995
-2.021554 -0.6519772 -1.0184112 -1.7661266 -1.1354656 -1.202916 -1.1419792 -0.9640046
-0.63098055 -1.4275153 -1.4214194 -0.5091082 -0.435939 -2.3625271 -0.9217838 -1.0397106
-0.7318969 -1.5180877 -1.3932904 -1.9984218 -1.9946195 -0.89586186 -1.3379424 -2.0916646
-1.3305358 -0.6893157 -0.60682327 -1.1449997 -0.25989842 -0.9838967 -1.7796787 -0.8189339
-0.5202729 -2.1935356 -0.6908857 -0.6087186
00000000: 0a15 2dbf 8c05 b3bf 9d7d 9cbf 34b1 e1bf
00000010: 3b07 04c0 808f 31bf 5cbd 97bf 8c93 fabf
00000020: a448 98bf 072e 73bf 59ce 48bf 866c 83bf
00000030: 1374 a1be 44f7 98bf 3a5c d4bf b7ac 27bf
00000040: 01c9 f9be 75ca 0dc0 7791 40bf 7f90 5bbf
00000050: 0b45 2dbf 5b71 c3bf 34e1 9cbf 11a8 dcbf
00000060: 5bb9 02c0 fc8a 3cbf 3b8e 9abf 5eec f7bf
00000070: 5bd7 a3bf b3d1 68bf 2249 43bf 91a3 8fbf
00000080: aa0c a4be 5146 a1bf f2e2 c8bf c276 2abf
00000090: ab2b f1be cb33 11c0 5c94 5bbf 74d4 52bf
000000a0: 544e 25bf 6ffd b8bf e098 87bf 7e5c cbbf
000000b0: 948f 01c0 289b 30bf 708d 8dbf 793e e8bf
000000c0: 8db1 92bf fe04 8ebf 61ae 86bf fddd 82bf
000000d0: c949 0abf 4e12 abbf 4057 c5bf 2e5b 10bf
000000e0: f0b5 f3be 626d 11c0 1062 57bf 7d92 79bf
000000f0: fe87 20bf d0c7 b4bf ad67 82bf b649 c4bf
00000100: 2461 01c0 fae7 26bf 4c5b 82bf 7010 e2bf
00000110: f056 91bf 27f9 99bf 602c 92bf 01c9 76bf
00000120: f187 21bf d2b8 b6bf 12f1 b5bf ea54 02bf
00000130: 6633 dfbe a533 17c0 06fa 6bbf 3d15 85bf
00000140: 985d 3bbf b350 c2bf 5757 b2bf 49cc ffbf
00000150: b14f ffbf 3457 65bf b241 abbf d5dd 05c0
00000160: ff4e aabf fe76 30bf c558 1bbf 5a8f 92bf
00000170: 6811 85be a7e0 7bbf 83cc e3bf a7a5 51bf
00000180: 9b30 05bf e362 0cc0 e3dd 30bf fbd4 1bbf

sigma f4 [100]
1.6997327 2.3373413 2.213659 2.6531892 2.131045 2.012263 2.143359 2.5956683
2.194102 2.697707 2.8160753 2.1738687 2.1700299 2.9459994 2.716595 2.1141117
1.4575249 2.6471045 2.2177222 2.404815 1.6724589 2.2900863 2.2571921 2.6963606
2.1644905 2.0104017 2.179959 2.6338482 2.1925664 2.7319186 2.859663 2.0994318
2.1930199 2.8965442 2.8235795 2.1243372 1.4650612 2.6631372 2.14592 2.4408891
1.690122 2.296194 2.2541876 2.7059922 2.240762 2.032907 2.189653 2.6524339
2.2351568 2.727014 2.726183 2.1190047 2.070904 2.9851837 2.7363577 2.1029606
1.4835354 2.740421 2.2040136 2.4699342 1.6612792 2.2880602 2.2184079 2.6252077
2.2354662 2.0323956 2.2258968 2.6695616 2.2158408 2.70571 2.7088153 2.1097784
2.017698 2.9586647 2.8036814 2.0801547 1.5111607 2.6583364 2.1627212 2.4559827
1.6607317 2.362362 2.286116 2.63937 2.108947 2.0587642 2.1959481 2.6865814
2.2738416 2.761112 2.80052 2.2988577 2.051403 3.002292 2.7238834 2.0977678
1.4361116 2.5945287 2.2203202 2.528671
00000000: d790 d93f 0097 1540 97ac 0d40 dacd 2940
00000010: 0b63 0840 ebc8 0040 cb2c 0940 6e1f 2640
00000020: 2b6c 0c40 3ba7 2c40 943a 3440 aa20 0b40
00000030: c5e1 0a40 418b 3c40 b1dc 2d40 9b4d 0740
00000040: 2d90 ba3f 296a 2940 29ef 0d40 7de8 1940
00000050: 2213 d63f c690 1240 d675 1040 2c91 2c40
00000060: 0387 0a40 6caa 0040 7384 0b40 f890 2840
00000070: 0253 0c40 c1d7 2e40 b804 3740 175d 0640
00000080: 705a 0c40 fb60 3940 87b5 3440 24f5 0740
00000090: 2087 bb3f d770 2a40 c156 0940 8737 1c40
000000a0: eb55 d83f d8f4 1240 9c44 1040 fa2e 2d40
000000b0: a568 0f40 261b 0240 4623 0c40 7ac1 2940
000000c0: cf0c 0f40 6687 2e40 c879 2e40 c69d 0740
000000d0: b189 0440 400d 3f40 7c20 2f40 e896 0640
000000e0: 7de4 bd3f 0f63 2f40 8f0e 0d40 6713 1e40
000000f0: cca4 d43f 946f 1240 65fa 0d40 6703 2840
00000100: e111 0f40 c512 0240 1875 0e40 19da 2a40
00000110: 56d0 0d40 5a2a 2d40 3b5d 2d40 9c06 0740
00000120: f721 0140 c35a 3d40 846f 3340 4121 0540
00000130: b76d c13f 2f22 2a40 066a 0a40 d22e 1d40
00000140: db92 d43f f030 1740 b94f 1240 70eb 2840
00000150: fdf8 0640 cbc2 0340 6a8a 0c40 f3f0 2b40
00000160: 9f86 1140 0fb6 3040 b83b 3340 7c20 1340
00000170: 304a 0340 8d25 4040 1b54 2e40 d441 0640
00000180: 81d2 b73f c20c 2640 ba19 0e40 bfd5 2140
