output/230525_NOSTD_FixedPadding_MHCII_DRB1_0301_kcvs/230524_FixedPadding_DRB1_NOSTD_230525_132249_60aea/checkpoint_best_kcv_drb1_0301_f2_230524_FixedPadding_DRB1_NOSTD_230525_132249_60aea.pt (torch, 41675 bytes, 14 tensors)

nnalign.in_layer.weight f4 [50, 180]
0	0xba9b417d	-0.0011845079
1	0x3a89223e	0.0010462475
2	0x3b8bfd91	0.004272171
3	0x3c0bef45	0.008540933
4	0x3b12195f	0.0022292954
5	0x3bdd5a2f	0.0067551355
6	0xbb7fabc9	-0.0039012304
7	0xbb846e30	-0.0040414557
8	0x3bd2ca7c	0.0064328294
9	0xba75bf4d	-0.00093745143
10	0x3ae9d965	0.0017841278
11	0xbbbe0874	-0.0057993475
12	0xbb90e12c	-0.004421374
13	0xbb79457f	-0.0038035808
14	0x3a7cf1d6	0.00096490735
15	0xbbb26fb2	-0.005445444
16	0xbb59c6ff	-0.0033230183
17	0xbbc306dd	-0.005951746
18	0x3b26b801	0.0025439265
19	0x3b2d1e81	0.0026415887
20	0xba0a45ab	-0.00052746636
21	0x3b8bd59c	0.0042674076
22	0x3c4f8315	0.01266553
23	0x3b7dc1a7	0.0038720162
24	0xbc22d034	-0.009937335
25	0x3c618c66	0.013766384
26	0x393edbee	0.00018201742
27	0xbb6ad5cf	-0.0035833006
28	0xbb60c4e9	-0.0034297055
29	0x3b5784f9	0.0032885654
30	0x3a431a8c	0.00074426155
31	0xbb4a661a	-0.0030883611
32	0xbc516faa	-0.01278297
33	0xbb7cb7ae	-0.003856163
34	0xbc2a714b	-0.010402988
35	0x3b62825c	0.0034562564
36	0x3adf204c	0.0017023175
37	0x394fd58f	0.00019820615
38	0x3b765c11	0.0037591497
39	0x3bb07e50	0.0053861514
40	0x36e3da92	6.790572e-06
41	0x3ae2943c	0.0017286609
42	0xb871931d	-5.7595887e-05
43	0xba98256e	-0.0011607835
44	0xbc487438	-0.01223474
45	0x3b6da8b8	0.0036263894
46	0xbc46c814	-0.012132663
47	0xbad6ea4a	-0.0016396728
48	0x3b110779	0.0022129698
49	0x3c90b422	0.017664019
50	0x3bb4ee67	0.005521584
51	0x3aae3dba	0.0013293542
52	0xbbd51030	-0.006502174
53	0x3caf8487	0.021425499
54	0xbb9a8693	-0.0047157495
55	0xbbdb49ca	-0.006692146
56	0xbbed382f	-0.0072393636
57	0xbc207c7d	-0.009795305
58	0xbc085489	-0.008320936
59	0x3bcf9a88	0.00633556
60	0x3bc7dc27	0.0060992423
61	0xbbe51819	-0.006991398
62	0x3b899f2e	0.004199884
63	0xbbc598d9	-0.0060301838
64	0xbc0cc2fc	-0.00859141
65	0x3c873d71	0.01650879
66	0x397b20f2	0.00023949498
67	0xb90ecb4f	-0.00013617914
68	0xb9779cdb	-0.00023614189
69	0x3b98135d	0.00464098
70	0x3b37a12f	0.0028019657
71	0x381098ff	3.4474764e-05
72	0xb9e1a7b6	-0.000430403
73	0x3afaf526	0.0019146546
74	0xbc2e3aa8	-0.010634102
75	0xbbb268dc	-0.005444629
76	0x3b00ee0d	0.001967314
77	0xbaab8c3a	-0.0013088055
78	0xbbdaeb17	-0.006680857
79	0x3c6e97e4	0.014562581
80	0x3c0ffd9c	0.0087884925
81	0x3bb98f3e	0.0056628278
82	0x3919d1e9	0.00014669415
83	0xbb3903f2	-0.0028231111
84	0xbc4120b5	-0.011787583
85	0x3ba449b8	0.005013671
86	0xbb573d1a	-0.0032842816
87	0x3a816349	0.0009871508
88	0xba96c65a	-0.0011503205
89	0xbadf3a9c	-0.0017031017
90	0x3b1b960a	0.0023740553
91	0xbc406b62	-0.011744352
92	0x3c0f647c	0.008751985
93	0xbc166706	-0.009179836
94	0xba6dca0c	-0.000907094
95	0x3c036378	0.008019321
96	0xbbfb23ae	-0.0076641655
97	0xba975ebd	-0.001154862
98	0x3be06311	0.006847747
99	0x3b543382	0.0032379334
100	0x3c16de49	0.00920827
101	0x3bdc5063	0.00672345
102	0xbbe2920f	-0.006914384
103	0x3cb574b9	0.022150384
104	0xbba646e5	-0.0050743693
105	0xbb85d182	-0.004083813
106	0x3b0f16ca	0.0021833652
107	0xbc1e99fe	-0.009680269
108	0xbb5b207a	-0.0033436106
109	0xbba202cb	-0.0049441806
110	0xbb9aec91	-0.004727908
111	0xbc01fd1d	-0.007933882
112	0xbbbfd69c	-0.005854441
113	0xbb24a7d5	-0.002512445
114	0xbbe7b9b8	-0.0070717
115	0x3c53851c	0.012910154
116	0x3bd796f0	0.0065792724
117	0xbb93fb11	-0.0045160134
118	0x3b4b1aed	0.003099139
119	0x3b1f9182	0.0024348204
120	0x3c1035ec	0.0088019185
121	0x3a927c0c	0.0011175885
122	0xbba5718b	-0.005048936
123	0xbb90961d	-0.004412426
124	0xbbc59454	-0.006029645
125	0x3c17ff07	0.009277112
126	0x3bc490e0	0.0059987158
127	0xbafb0bef	-0.0019153337
128	0xba9e26c3	-0.0012065995
129	0x39c92925	0.00038368363
130	0xbb918574	-0.0044409577
131	0xb9dea9d3	-0.0004246967
132	0x3baf90fa	0.0053578587
133	0xbb810a49	-0.0039379937
134	0xbb0af725	-0.0021204439
135	0x3c29bc4c	0.010359835
136	0xbc0119dc	-0.0078797005
137	0xb876d18e	-5.8846133e-05
138	0xb8950968	-7.106626e-05
139	0xbaa16f0a	-0.0012316417
140	0x3c1be75d	0.0095156105
141	0xba911317	-0.0011068311
142	0xbc214900	-0.009844065
143	0x3c2b4de8	0.010455586
144	0xbc1bb745	-0.009504144
145	0xbb53bf50	-0.0032310076
146	0x3cee18dd	0.02906459
147	0x3bb5c915	0.0055476525
148	0x3b559a9c	0.0032593375
149	0x3a0aac36	0.00052899437
150	0xba8488e1	-0.0010111594
151	0x3b9be49e	0.004757478
152	0xbc27c5b0	-0.0102400035
153	0xba7e974d	-0.00097118766
154	0xbbbd08d4	-0.0057688747
155	0xbcd405b5	-0.025881628
156	0x3c154b83	0.009112242
157	0xbbda94f2	-0.0066705877
158	0xbbea64b2	-0.007153117
159	0x3bc433b1	0.0059876074
160	0x3b805606	0.003916505
161	0xbcb828b0	-0.022480339
162	0x3c2a11e9	0.010380247
163	0xbc0ff48a	-0.00878633
164	0xbc7ca117	-0.015419266
165	0x3c03bb2e	0.008040233
166	0x3c52ec14	0.012873668
167	0xbbdfe3be	-0.006832569
168	0xb8f4e9a0	-0.00011678343
169	0xbbb4cf4c	-0.005517876
170	0x3a0d4232	0.0005388587
171	0xbbe4eac1	-0.0069859927
172	0xbb166341	-0.0022947344
173	0xbbbe5e58	-0.0058095865
174	0xbb8ea16a	-0.004352738
175	0xba24d9ce	-0.0006288559
176	0xbba00f31	-0.0048846235
177	0xbbf6ba67	-0.007529545
178	0x3b5189e7	0.0031973065
179	0x3c11c4ac	0.008896988
180	0xbbb2fe56	-0.005462448
181	0x3b69b6d0	0.0035661943
182	0xbbc9674c	-0.006146347
183	0xbbeb924d	-0.0071890713
184	0x3b3e198f	0.0029006933
185	0xbbd69f13	-0.006549725
186	0xb8131ebf	-3.5076166e-05
187	0xbc015f6b	-0.007896285
188	0x3c0ce8a8	0.008600391
189	0x3b364404	0.0027811537
190	0xbbb770b3	-0.0055981516
191	0xbb335cf2	-0.0027368632
192	0x3bc9fbbb	0.006164042
193	0xbb87edf2	-0.0041482383
194	0x3ac09577	0.0014692981
195	0x3b90243b	0.0043988503
196	0x3c04ef79	0.008113735
197	0x3a56ed7c	0.000819884
198	0xbb8d2b92	-0.0043081725
199	0xbc31fb3a	-0.01086312
200	0x3c09061b	0.008363272
201	0x3c906614	0.0176268
202	0xbc7405e3	-0.014893982
203	0x3c122f31	0.008922384
204	0x3ba2e228	0.0049708076
205	0xbca694c1	-0.020334603
206	0xbc517c88	-0.012786038
207	0xbba9e80e	-0.005185134
208	0x3bdb13f0	0.0066857263
209	0xba6fe962	-0.0009151903
210	0xbbba7e74	-0.005691344
211	0x3bdfd797	0.0068311202
212	0x3c91f796	0.017818253
213	0x38a5d4a6	7.907422e-05
214	0x3b6cfda9	0.0036161935
215	0xbb236c07	-0.0024936215
216	0xbb1b739b	-0.002372003
217	0xbae759b5	-0.0017650636
218	0x3982b558	0.00024930644
219	0xbc1a84c6	-0.00943107
220	0xbc11ec68	-0.008906461
221	0xbb171ec4	-0.002305911
222	0x3bc44c57	0.0059905457
223	0x3ab3c2c3	0.001371466
224	0x3ab0940e	0.0013471858
225	0xbc2d2198	-0.010567091
226	0x3c4133ef	0.011792167
227	0xbb99c8b6	-0.004693116
228	0xbc862159	-0.016373323
229	0xbb985ee2	-0.004649983
230	0x3ad347bd	0.0016119402
231	0xbba1fc97	-0.004943441
232	0x3c6f6c43	0.014613214
233	0xbbdd15b1	-0.0067469706
234	0x3b138028	0.0022506807
235	0x3b52a0c4	0.003213928
236	0x3b60415a	0.003421864
237	0xbb00eacc	-0.00196712
238	0x3c73b912	0.014875667
239	0x3b12ac87	0.0022380666
240	0xbad68a1b	-0.0016368063
241	0x39e65fe8	0.00043940474
242	0xbafeeee6	-0.0019449859
243	0x3b55e258	0.0032636132
244	0x3bb69e6a	0.0055730836
245	0xbcbfacef	-0.02339789
246	0xbaaf7a17	-0.0013387826
247	0xbc20aa60	-0.009806246
248	0xbae875c8	-0.0017735297
249	0xba163dcf	-0.0005731256
250	0xbbb38903	-0.0054789796
251	0x3c422608	0.011849888
252	0x3c05af0d	0.008159411
253	0xbbddf4f0	-0.0067735836
254	0x3b5d2169	0.0033741838
255	0x3c476b53	0.012171584

nnalign.in_layer.bias f4 [50]
0	0x34132f46	1.370764e-07
1	0x34f96766	4.6455096e-07
2	0x35eb46e2	1.7529494e-06
3	0x34d154bf	3.8990945e-07
4	0xb5ca994e	-1.509479e-06
5	0xb5f5ad0c	-1.8304286e-06
6	0x35c487ad	1.4642625e-06
7	0x34b7de38	3.4248092e-07
8	0xb6c2b868	-5.8031183e-06
9	0xb4c00092	-3.5763202e-07
10	0x3593710a	1.0985252e-06
11	0x36889f9c	4.071697e-06
12	0x3611c04c	2.1718615e-06
13	0x358691e0	1.0026233e-06
14	0xb613edc2	-2.20431e-06
15	0x3601be52	1.933328e-06
16	0xb61f99c8	-2.3782359e-06
17	0x3518eb9b	5.6967264e-07
18	0xb486689a	-2.5035553e-07
19	0x357b497c	9.361172e-07
20	0x346a66f0	2.1830397e-07
21	0xb643311c	-2.908585e-06
22	0xb60aa452	-2.065925e-06
23	0xb5ac0a70	-1.2818036e-06
24	0x36208e2d	2.3924615e-06
25	0xb56ff5d7	-8.939218e-07
26	0xb3ae0170	-8.102768e-08
27	0x348427fd	2.461601e-07
28	0xb62f3eae	-2.6113516e-06
29	0xb615c625	-2.2318065e-06
30	0xb5125506	-5.4512964e-07
31	0xb60fdda6	-2.1437677e-06
32	0xb55e8404	-8.289355e-07
33	0x35ab5ec0	1.2768069e-06
34	0xb58e724a	-1.0613087e-06
35	0x350589e0	4.9746996e-07
36	0x357b02e6	9.3509004e-07
37	0x35e97c8b	1.73961e-06
38	0xb5be26f8	-1.4167445e-06
39	0x3392bec0	6.833352e-08
40	0x35d0ef60	1.5566875e-06
41	0x353dfa6c	7.07724e-07
42	0xb5e988d4	-1.7399675e-06
43	0xb4e98fc3	-4.3504232e-07
44	0x3591b37d	1.085558e-06
45	0x35b314c4	1.3342583e-06
46	0xb508194b	-5.0700754e-07
47	0xb4da8610	-4.0703208e-07
48	0xb62d6b47	-2.5841452e-06
49	0xb5bb2b11	-1.394512e-06

nnalign.out_layer.weight f4 [1, 50]
0	0x3e97056b	0.2949632
1	0xbeb3f8d7	-0.35150787
2	0x3e8b8cba	0.27255803
3	0xbe1182e1	-0.14210083
4	0xbe31a730	-0.17348933
5	0xbe05c35b	-0.13062803
6	0x3ea6e11e	0.32593626
7	0xbe2ab457	-0.16670357
8	0xbe63f43c	-0.22261137
9	0xbe6e62fd	-0.23279949
10	0x3e982636	0.29716653
11	0x3e925ca7	0.28586313
12	0x3f2152f8	0.63017225
13	0xbe2860c0	-0.16443157
14	0xbdf4c576	-0.11951725
15	0x3e9de65c	0.30839813
16	0xbe203b15	-0.15647538
17	0xbe67ddf9	-0.2264327
18	0x3e9560b9	0.29175356
19	0xbe2627ce	-0.16226122
20	0x3ef1d7fd	0.47235098
21	0xbea954cc	-0.33072507
22	0xbe855143	-0.2603856
23	0xbe19d7a2	-0.15023664
24	0x3eb09614	0.344895
25	0xbe8cd5e3	-0.27506933
26	0x3e90494c	0.2818092
27	0xbe71ab50	-0.23600507
28	0x3e9f29e8	0.3108666
29	0xbe58b866	-0.21164092
30	0x3f0cf1e4	0.55056596
31	0x3f17a746	0.59239614
32	0x3e9e8c81	0.3096657
33	0xbe68b8b6	-0.22726712
34	0xbe2ccfba	-0.16876116
35	0x3e98df84	0.2985803
36	0x3f1017ad	0.56286126
37	0x3e9f9e98	0.31175685
38	0xbe3eede7	-0.1864544
39	0xbe65c219	-0.22437324
40	0x3f0a3f79	0.540031
41	0xbe00027c	-0.12500948
42	0xbe27caf9	-0.16386022
43	0xbe3cb2e3	-0.18427615
44	0xbe3d375f	-0.18478154
45	0xbe24b7a4	-0.16085678
46	0x3e93941d	0.2882394
47	0x3e933d0c	0.28757513
48	0x3ea1265e	0.31474584
49	0x3e984518	0.29740214

nnalign.bn1.weight f4 [50]
0	0x3e44456b	0.19167106
1	0x3eaac54e	0.33353657
2	0x3e3f1b5f	0.18662785
3	0x3dc37048	0.095429
4	0x3dee9bd9	0.11650819
5	0x3db7a803	0.089675926
6	0x3e6190fb	0.22027962
7	0x3de610c6	0.11233668
8	0x3e150334	0.14552003
9	0x3e243108	0.16034329
10	0x3e4597da	0.19296208
11	0x3e3d950a	0.18513885
12	0x3f2bdfa3	0.6713812
13	0x3de3c167	0.11120873
14	0x3daf6f63	0.08566167
15	0x3e4f61e7	0.2025219
16	0x3de3c4a0	0.111214876
17	0x3e1f6fd8	0.15570009
18	0x3e43f27b	0.19135468
19	0x3de049d9	0.10951585
20	0x3ea58458	0.32327533
21	0x3ea50cd9	0.32236364
22	0x3e4b0614	0.19826537
23	0x3dcb7774	0.09934893
24	0x3e71432d	0.23560782
25	0x3e47268d	0.194483
26	0x3e3c68d0	0.18399358
27	0x3e262231	0.1622398
28	0x3e51db3d	0.20493789
29	0x3e0f2505	0.13978966
30	0x3ee146b2	0.4399925
31	0x3efc051a	0.49222642
32	0x3e55ab5a	0.20866147
33	0x3e183d0e	0.1486704
34	0x3dee8616	0.116466686
35	0x3e462ae3	0.19352297
36	0x3ef0f15a	0.47059137
37	0x3e56714a	0.20941654
38	0x3e02e624	0.12783104
39	0x3e1dd65a	0.154138
40	0x3f159200	0.58425903
41	0x3dba898d	0.09108267
42	0x3de4ecc0	0.11177969
43	0x3df82360	0.12116122
44	0x3dfc8cf1	0.1233157
45	0x3de1f061	0.11032177
46	0x3e481702	0.19540027
47	0x3e3d3fff	0.18481444
48	0x3e5ae4f5	0.21376403
49	0x3e4d7483	0.20063977

nnalign.bn1.bias f4 [50]
0	0xbe524222	-0.2053304
1	0x3e1c38aa	0.1525599
2	0xbe4658e7	-0.19369851
3	0x3dc1c91b	0.09462186
4	0x3ded551c	0.11588499
5	0x3db3fb84	0.08788207
6	0xbe60e993	-0.21964101
7	0x3de3a0bc	0.11114642
8	0x3e188b7b	0.14896958
9	0x3e1af744	0.15133387
10	0xbe59bff8	-0.21264637
11	0xbe523bc6	-0.20530614
12	0xbe990379	-0.29885462
13	0x3de04a6b	0.10951694
14	0x3da2ca9a	0.079487994
15	0xbe561da7	-0.20909749
16	0x3dd05cc4	0.10173944
17	0x3e15e73d	0.14638992
18	0xbe51c153	-0.20483904
19	0x3dde4c8e	0.108544454
20	0xbea5f48d	-0.3241314
21	0x3e0e28d8	0.13882768
22	0x3e1c48da	0.15262166
23	0x3dd02829	0.1016391
24	0xbe6d9b18	-0.23203695
25	0x3e33df22	0.17565587
26	0xbe4c601c	-0.19958538
27	0x3e1d78b6	0.15378079
28	0xbe55301e	-0.20819137
29	0x3e111fae	0.14172241
30	0xbeb671c7	-0.3563368
31	0xbebdb330	-0.37050772
32	0xbe57f0a8	-0.21087897
33	0x3e1b8768	0.15188372
34	0x3de0dce8	0.109796345
35	0xbe5672af	-0.20942186
36	0xbeb5c5a7	-0.3550236
37	0xbe516e08	-0.2045213
38	0x3dfba2a1	0.122868784
39	0x3e150111	0.14551188
40	0xbe900355	-0.28127542
41	0x3da933d2	0.08261837
42	0x3ddead98	0.10872954
43	0x3dfd5494	0.123696476
44	0x3dfd3daf	0.12365281
45	0x3dda49ef	0.10658633
46	0xbe429b3f	-0.19004534
47	0xbe560f23	-0.20904212
48	0xbe56d676	-0.20980248
49	0xbe5194fe	-0.20466992

nnalign.bn1.running_mean f4 [50]
0	0x3ec2b4f4	0.3802868
1	0xbd4933f9	-0.04912183
2	0x3efa687f	0.4890785
3	0xbe15b9f8	-0.14621723
4	0xbe3f491c	-0.18680233
5	0xbe1bf27a	-0.15229216
6	0x3eaa9ca8	0.33322644
7	0xbe4de079	-0.20105161
8	0xbe8218e5	-0.25409618
9	0xbe8fa7fc	-0.2805785
10	0x3ed824bd	0.4221553
11	0x3ed2b0e9	0.41150597
12	0xbd15ca37	-0.0365698
13	0xbe4f8ed8	-0.20269334
14	0xbe298235	-0.16553576
15	0x3eb6149a	0.35562593
16	0xbe57f57b	-0.21089737
17	0xbe75eaf0	-0.24015403
18	0x3ec4ef13	0.3846365
19	0xbe3199dc	-0.17343849
20	0x3ef6dced	0.48215428
21	0xbc5a65de	-0.013329951
22	0xbe4f2f80	-0.20232964
23	0xbe3652b6	-0.17804989
24	0x3ee604e2	0.449256
25	0xbea298f6	-0.31757325
26	0x3ec4d52d	0.3844389
27	0xbe8a0d82	-0.2696343
28	0x3ea5a683	0.323536
29	0xbe8a2e07	-0.2698824
30	0x3e25f3db	0.16206305
31	0x3e4a3f23	0.19750647
32	0x3eb1541a	0.34634477
33	0xbe7fea87	-0.24991809
34	0xbe559327	-0.20856915
35	0x3ebfa1e5	0.37428203
36	0x3ea37bd1	0.31930402
37	0x3e967314	0.29384673
38	0xbe50ed57	-0.20403038
39	0xbe8b65f7	-0.2722623
40	0xbc72692b	-0.014795582
41	0xbe317c78	-0.17332637
42	0xbe5256f9	-0.2054099
43	0xbe69b029	-0.22821106
44	0xbe46bf59	-0.19408931
45	0xbe383c5e	-0.17991778
46	0x3e9c64eb	0.30545744
47	0x3edea5fc	0.4348601
48	0x3eb8c2fa	0.36086255
49	0x3ece5ccb	0.4030517

nnalign.bn1.running_var f4 [50]
0	0x3dd5b9d8	0.104358375
1	0x3d22abb5	0.039714534
2	0x3e85c8c8	0.26129746
3	0x3d1d4d38	0.03840372
4	0x3d1a7eb4	0.03771849
5	0x3cf96f3e	0.030448552
6	0x3d96a390	0.07355416
7	0x3d287d1c	0.04113494
8	0x3d867bc7	0.065665774
9	0x3d75cf93	0.06001241
10	0x3de0c5a3	0.10975196
11	0x3e024f88	0.12725651
12	0x3d853d3b	0.065058194
13	0x3d278dfb	0.040906888
14	0x3ced629e	0.028977688
15	0x3dc4348d	0.09580336
16	0x3d1ada57	0.03780588
17	0x3d4b559c	0.04964219
18	0x3dd8f752	0.105940476
19	0x3d1f234d	0.038852025
20	0x3e23147b	0.15925781
21	0x3d31f171	0.043443147
22	0x3d7e9d80	0.062161922
23	0x3d2eb7ac	0.042655632
24	0x3dd089fb	0.10182568
25	0x3db345c9	0.08753545
26	0x3dcd54d2	0.10025944
27	0x3d910d2c	0.070825905
28	0x3da9aa6a	0.08284457
29	0x3d91294f	0.07087957
30	0x3de81e6c	0.113339275
31	0x3def2992	0.11677851
32	0x3d9a12fd	0.07523153
33	0x3d87dbc7	0.06633716
34	0x3d14fd98	0.03637466
35	0x3ddafd2a	0.106928185
36	0x3df4bde7	0.119502835
37	0x3d9869c0	0.07442045
38	0x3d2c753c	0.04210399
39	0x3d3594de	0.044331424
40	0x3d8f908e	0.070099935
41	0x3d0591f2	0.032609887
42	0x3d282d2e	0.04105871
43	0x3d4b4cb0	0.04963368
44	0x3d42161a	0.04738436
45	0x3d0b1dd7	0.033964004
46	0x3da2e4bd	0.079537846
47	0x3e18625f	0.14881276
48	0x3de09522	0.10965945
49	0x3de94558	0.113901794

in_layer.weight f4 [50, 180]
0	0xba9b417d	-0.0011845079
1	0x3a89223e	0.0010462475
2	0x3b8bfd91	0.004272171
3	0x3c0bef45	0.008540933
4	0x3b12195f	0.0022292954
5	0x3bdd5a2f	0.0067551355
6	0xbb7fabc9	-0.0039012304
7	0xbb846e30	-0.0040414557
8	0x3bd2ca7c	0.0064328294
9	0xba75bf4d	-0.00093745143
10	0x3ae9d965	0.0017841278
11	0xbbbe0874	-0.0057993475
12	0xbb90e12c	-0.004421374
13	0xbb79457f	-0.0038035808
14	0x3a7cf1d6	0.00096490735
15	0xbbb26fb2	-0.005445444
16	0xbb59c6ff	-0.0033230183
17	0xbbc306dd	-0.005951746
18	0x3b26b801	0.0025439265
19	0x3b2d1e81	0.0026415887
20	0xba0a45ab	-0.00052746636
21	0x3b8bd59c	0.0042674076
22	0x3c4f8315	0.01266553
23	0x3b7dc1a7	0.0038720162
24	0xbc22d034	-0.009937335
25	0x3c618c66	0.013766384
26	0x393edbee	0.00018201742
27	0xbb6ad5cf	-0.0035833006
28	0xbb60c4e9	-0.0034297055
29	0x3b5784f9	0.0032885654
30	0x3a431a8c	0.00074426155
31	0xbb4a661a	-0.0030883611
32	0xbc516faa	-0.01278297
33	0xbb7cb7ae	-0.003856163
34	0xbc2a714b	-0.010402988
35	0x3b62825c	0.0034562564
36	0x3adf204c	0.0017023175
37	0x394fd58f	0.00019820615
38	0x3b765c11	0.0037591497
39	0x3bb07e50	0.0053861514
40	0x36e3da92	6.790572e-06
41	0x3ae2943c	0.0017286609
42	0xb871931d	-5.7595887e-05
43	0xba98256e	-0.0011607835
44	0xbc487438	-0.01223474
45	0x3b6da8b8	0.0036263894
46	0xbc46c814	-0.012132663
47	0xbad6ea4a	-0.0016396728
48	0x3b110779	0.0022129698
49	0x3c90b422	0.017664019
50	0x3bb4ee67	0.005521584
51	0x3aae3dba	0.0013293542
52	0xbbd51030	-0.006502174
53	0x3caf8487	0.021425499
54	0xbb9a8693	-0.0047157495
55	0xbbdb49ca	-0.006692146
56	0xbbed382f	-0.0072393636
57	0xbc207c7d	-0.009795305
58	0xbc085489	-0.008320936
59	0x3bcf9a88	0.00633556
60	0x3bc7dc27	0.0060992423
61	0xbbe51819	-0.006991398
62	0x3b899f2e	0.004199884
63	0xbbc598d9	-0.0060301838
64	0xbc0cc2fc	-0.00859141
65	0x3c873d71	0.01650879
66	0x397b20f2	0.00023949498
67	0xb90ecb4f	-0.00013617914
68	0xb9779cdb	-0.00023614189
69	0x3b98135d	0.00464098
70	0x3b37a12f	0.0028019657
71	0x381098ff	3.4474764e-05
72	0xb9e1a7b6	-0.000430403
73	0x3afaf526	0.0019146546
74	0xbc2e3aa8	-0.010634102
75	0xbbb268dc	-0.005444629
76	0x3b00ee0d	0.001967314
77	0xbaab8c3a	-0.0013088055
78	0xbbdaeb17	-0.006680857
79	0x3c6e97e4	0.014562581
80	0x3c0ffd9c	0.0087884925
81	0x3bb98f3e	0.0056628278
82	0x3919d1e9	0.00014669415
83	0xbb3903f2	-0.0028231111
84	0xbc4120b5	-0.011787583
85	0x3ba449b8	0.005013671
86	0xbb573d1a	-0.0032842816
87	0x3a816349	0.0009871508
88	0xba96c65a	-0.0011503205
89	0xbadf3a9c	-0.0017031017
90	0x3b1b960a	0.0023740553
91	0xbc406b62	-0.011744352
92	0x3c0f647c	0.008751985
93	0xbc166706	-0.009179836
94	0xba6dca0c	-0.000907094
95	0x3c036378	0.008019321
96	0xbbfb23ae	-0.0076641655
97	0xba975ebd	-0.001154862
98	0x3be06311	0.006847747
99	0x3b543382	0.0032379334
100	0x3c16de49	0.00920827
101	0x3bdc5063	0.00672345
102	0xbbe2920f	-0.006914384
103	0x3cb574b9	0.022150384
104	0xbba646e5	-0.0050743693
105	0xbb85d182	-0.004083813
106	0x3b0f16ca	0.0021833652
107	0xbc1e99fe	-0.009680269
108	0xbb5b207a	-0.0033436106
109	0xbba202cb	-0.0049441806
110	0xbb9aec91	-0.004727908
111	0xbc01fd1d	-0.007933882
112	0xbbbfd69c	-0.005854441
113	0xbb24a7d5	-0.002512445
114	0xbbe7b9b8	-0.0070717
115	0x3c53851c	0.012910154
116	0x3bd796f0	0.0065792724
117	0xbb93fb11	-0.0045160134
118	0x3b4b1aed	0.003099139
119	0x3b1f9182	0.0024348204
120	0x3c1035ec	0.0088019185
121	0x3a927c0c	0.0011175885
122	0xbba5718b	-0.005048936
123	0xbb90961d	-0.004412426
124	0xbbc59454	-0.006029645
125	0x3c17ff07	0.009277112
126	0x3bc490e0	0.0059987158
127	0xbafb0bef	-0.0019153337
128	0xba9e26c3	-0.0012065995
129	0x39c92925	0.00038368363
130	0xbb918574	-0.0044409577
131	0xb9dea9d3	-0.0004246967
132	0x3baf90fa	0.0053578587
133	0xbb810a49	-0.0039379937
134	0xbb0af725	-0.0021204439
135	0x3c29bc4c	0.010359835
136	0xbc0119dc	-0.0078797005
137	0xb876d18e	-5.8846133e-05
138	0xb8950968	-7.106626e-05
139	0xbaa16f0a	-0.0012316417
140	0x3c1be75d	0.0095156105
141	0xba911317	-0.0011068311
142	0xbc214900	-0.009844065
143	0x3c2b4de8	0.010455586
144	0xbc1bb745	-0.009504144
145	0xbb53bf50	-0.0032310076
146	0x3cee18dd	0.02906459
147	0x3bb5c915	0.0055476525
148	0x3b559a9c	0.0032593375
149	0x3a0aac36	0.00052899437
150	0xba8488e1	-0.0010111594
151	0x3b9be49e	0.004757478
152	0xbc27c5b0	-0.0102400035
153	0xba7e974d	-0.00097118766
154	0xbbbd08d4	-0.0057688747
155	0xbcd405b5	-0.025881628
156	0x3c154b83	0.009112242
157	0xbbda94f2	-0.0066705877
158	0xbbea64b2	-0.007153117
159	0x3bc433b1	0.0059876074
160	0x3b805606	0.003916505
161	0xbcb828b0	-0.022480339
162	0x3c2a11e9	0.010380247
163	0xbc0ff48a	-0.00878633
164	0xbc7ca117	-0.015419266
165	0x3c03bb2e	0.008040233
166	0x3c52ec14	0.012873668
167	0xbbdfe3be	-0.006832569
168	0xb8f4e9a0	-0.00011678343
169	0xbbb4cf4c	-0.005517876
170	0x3a0d4232	0.0005388587
171	0xbbe4eac1	-0.0069859927
172	0xbb166341	-0.0022947344
173	0xbbbe5e58	-0.0058095865
174	0xbb8ea16a	-0.004352738
175	0xba24d9ce	-0.0006288559
176	0xbba00f31	-0.0048846235
177	0xbbf6ba67	-0.007529545
178	0x3b5189e7	0.0031973065
179	0x3c11c4ac	0.008896988
180	0xbbb2fe56	-0.005462448
181	0x3b69b6d0	0.0035661943
182	0xbbc9674c	-0.006146347
183	0xbbeb924d	-0.0071890713
184	0x3b3e198f	0.0029006933
185	0xbbd69f13	-0.006549725
186	0xb8131ebf	-3.5076166e-05
187	0xbc015f6b	-0.007896285
188	0x3c0ce8a8	0.008600391
189	0x3b364404	0.0027811537
190	0xbbb770b3	-0.0055981516
191	0xbb335cf2	-0.0027368632
192	0x3bc9fbbb	0.006164042
193	0xbb87edf2	-0.0041482383
194	0x3ac09577	0.0014692981
195	0x3b90243b	0.0043988503
196	0x3c04ef79	0.008113735
197	0x3a56ed7c	0.000819884
198	0xbb8d2b92	-0.0043081725
199	0xbc31fb3a	-0.01086312
200	0x3c09061b	0.008363272
201	0x3c906614	0.0176268
202	0xbc7405e3	-0.014893982
203	0x3c122f31	0.008922384
204	0x3ba2e228	0.0049708076
205	0xbca694c1	-0.020334603
206	0xbc517c88	-0.012786038
207	0xbba9e80e	-0.005185134
208	0x3bdb13f0	0.0066857263
209	0xba6fe962	-0.0009151903
210	0xbbba7e74	-0.005691344
211	0x3bdfd797	0.0068311202
212	0x3c91f796	0.017818253
213	0x38a5d4a6	7.907422e-05
214	0x3b6cfda9	0.0036161935
215	0xbb236c07	-0.0024936215
216	0xbb1b739b	-0.002372003
217	0xbae759b5	-0.0017650636
218	0x3982b558	0.00024930644
219	0xbc1a84c6	-0.00943107
220	0xbc11ec68	-0.008906461
221	0xbb171ec4	-0.002305911
222	0x3bc44c57	0.0059905457
223	0x3ab3c2c3	0.001371466
224	0x3ab0940e	0.0013471858
225	0xbc2d2198	-0.010567091
226	0x3c4133ef	0.011792167
227	0xbb99c8b6	-0.004693116
228	0xbc862159	-0.016373323
229	0xbb985ee2	-0.004649983
230	0x3ad347bd	0.0016119402
231	0xbba1fc97	-0.004943441
232	0x3c6f6c43	0.014613214
233	0xbbdd15b1	-0.0067469706
234	0x3b138028	0.0022506807
235	0x3b52a0c4	0.003213928
236	0x3b60415a	0.003421864
237	0xbb00eacc	-0.00196712
238	0x3c73b912	0.014875667
239	0x3b12ac87	0.0022380666
240	0xbad68a1b	-0.0016368063
241	0x39e65fe8	0.00043940474
242	0xbafeeee6	-0.0019449859
243	0x3b55e258	0.0032636132
244	0x3bb69e6a	0.0055730836
245	0xbcbfacef	-0.02339789
246	0xbaaf7a17	-0.0013387826
247	0xbc20aa60	-0.009806246
248	0xbae875c8	-0.0017735297
249	0xba163dcf	-0.0005731256
250	0xbbb38903	-0.0054789796
251	0x3c422608	0.011849888
252	0x3c05af0d	0.008159411
253	0xbbddf4f0	-0.0067735836
254	0x3b5d2169	0.0033741838
255	0x3c476b53	0.012171584

in_layer.bias f4 [50]
0	0x34132f46	1.370764e-07
1	0x34f96766	4.6455096e-07
2	0x35eb46e2	1.7529494e-06
3	0x34d154bf	3.8990945e-07
4	0xb5ca994e	-1.509479e-06
5	0xb5f5ad0c	-1.8304286e-06
6	0x35c487ad	1.4642625e-06
7	0x34b7de38	3.4248092e-07
8	0xb6c2b868	-5.8031183e-06
9	0xb4c00092	-3.5763202e-07
10	0x3593710a	1.0985252e-06
11	0x36889f9c	4.071697e-06
12	0x3611c04c	2.1718615e-06
13	0x358691e0	1.0026233e-06
14	0xb613edc2	-2.20431e-06
15	0x3601be52	1.933328e-06
16	0xb61f99c8	-2.3782359e-06
17	0x3518eb9b	5.6967264e-07
18	0xb486689a	-2.5035553e-07
19	0x357b497c	9.361172e-07
20	0x346a66f0	2.1830397e-07
21	0xb643311c	-2.908585e-06
22	0xb60aa452	-2.065925e-06
23	0xb5ac0a70	-1.2818036e-06
24	0x36208e2d	2.3924615e-06
25	0xb56ff5d7	-8.939218e-07
26	0xb3ae0170	-8.102768e-08
27	0x348427fd	2.461601e-07
28	0xb62f3eae	-2.6113516e-06
29	0xb615c625	-2.2318065e-06
30	0xb5125506	-5.4512964e-07
31	0xb60fdda6	-2.1437677e-06
32	0xb55e8404	-8.289355e-07
33	0x35ab5ec0	1.2768069e-06
34	0xb58e724a	-1.0613087e-06
35	0x350589e0	4.9746996e-07
36	0x357b02e6	9.3509004e-07
37	0x35e97c8b	1.73961e-06
38	0xb5be26f8	-1.4167445e-06
39	0x3392bec0	6.833352e-08
40	0x35d0ef60	1.5566875e-06
41	0x353dfa6c	7.07724e-07
42	0xb5e988d4	-1.7399675e-06
43	0xb4e98fc3	-4.3504232e-07
44	0x3591b37d	1.085558e-06
45	0x35b314c4	1.3342583e-06
46	0xb508194b	-5.0700754e-07
47	0xb4da8610	-4.0703208e-07
48	0xb62d6b47	-2.5841452e-06
49	0xb5bb2b11	-1.394512e-06

out_layer.weight f4 [1, 50]
0	0x3e97056b	0.2949632
1	0xbeb3f8d7	-0.35150787
2	0x3e8b8cba	0.27255803
3	0xbe1182e1	-0.14210083
4	0xbe31a730	-0.17348933
5	0xbe05c35b	-0.13062803
6	0x3ea6e11e	0.32593626
7	0xbe2ab457	-0.16670357
8	0xbe63f43c	-0.22261137
9	0xbe6e62fd	-0.23279949
10	0x3e982636	0.29716653
11	0x3e925ca7	0.28586313
12	0x3f2152f8	0.63017225
13	0xbe2860c0	-0.16443157
14	0xbdf4c576	-0.11951725
15	0x3e9de65c	0.30839813
16	0xbe203b15	-0.15647538
17	0xbe67ddf9	-0.2264327
18	0x3e9560b9	0.29175356
19	0xbe2627ce	-0.16226122
20	0x3ef1d7fd	0.47235098
21	0xbea954cc	-0.33072507
22	0xbe855143	-0.2603856
23	0xbe19d7a2	-0.15023664
24	0x3eb09614	0.344895
25	0xbe8cd5e3	-0.27506933
26	0x3e90494c	0.2818092
27	0xbe71ab50	-0.23600507
28	0x3e9f29e8	0.3108666
29	0xbe58b866	-0.21164092
30	0x3f0cf1e4	0.55056596
31	0x3f17a746	0.59239614
32	0x3e9e8c81	0.3096657
33	0xbe68b8b6	-0.22726712
34	0xbe2ccfba	-0.16876116
35	0x3e98df84	0.2985803
36	0x3f1017ad	0.56286126
37	0x3e9f9e98	0.31175685
38	0xbe3eede7	-0.1864544
39	0xbe65c219	-0.22437324
40	0x3f0a3f79	0.540031
41	0xbe00027c	-0.12500948
42	0xbe27caf9	-0.16386022
43	0xbe3cb2e3	-0.18427615
44	0xbe3d375f	-0.18478154
45	0xbe24b7a4	-0.16085678
46	0x3e93941d	0.2882394
47	0x3e933d0c	0.28757513
48	0x3ea1265e	0.31474584
49	0x3e984518	0.29740214

bn1.weight f4 [50]
0	0x3e44456b	0.19167106
1	0x3eaac54e	0.33353657
2	0x3e3f1b5f	0.18662785
3	0x3dc37048	0.095429
4	0x3dee9bd9	0.11650819
5	0x3db7a803	0.089675926
6	0x3e6190fb	0.22027962
7	0x3de610c6	0.11233668
8	0x3e150334	0.14552003
9	0x3e243108	0.16034329
10	0x3e4597da	0.19296208
11	0x3e3d950a	0.18513885
12	0x3f2bdfa3	0.6713812
13	0x3de3c167	0.11120873
14	0x3daf6f63	0.08566167
15	0x3e4f61e7	0.2025219
16	0x3de3c4a0	0.111214876
17	0x3e1f6fd8	0.15570009
18	0x3e43f27b	0.19135468
19	0x3de049d9	0.10951585
20	0x3ea58458	0.32327533
21	0x3ea50cd9	0.32236364
22	0x3e4b0614	0.19826537
23	0x3dcb7774	0.09934893
24	0x3e71432d	0.23560782
25	0x3e47268d	0.194483
26	0x3e3c68d0	0.18399358
27	0x3e262231	0.1622398
28	0x3e51db3d	0.20493789
29	0x3e0f2505	0.13978966
30	0x3ee146b2	0.4399925
31	0x3efc051a	0.49222642
32	0x3e55ab5a	0.20866147
33	0x3e183d0e	0.1486704
34	0x3dee8616	0.116466686
35	0x3e462ae3	0.19352297
36	0x3ef0f15a	0.47059137
37	0x3e56714a	0.20941654
38	0x3e02e624	0.12783104
39	0x3e1dd65a	0.154138
40	0x3f159200	0.58425903
41	0x3dba898d	0.09108267
42	0x3de4ecc0	0.11177969
43	0x3df82360	0.12116122
44	0x3dfc8cf1	0.1233157
45	0x3de1f061	0.11032177
46	0x3e481702	0.19540027
47	0x3e3d3fff	0.18481444
48	0x3e5ae4f5	0.21376403
49	0x3e4d7483	0.20063977

bn1.bias f4 [50]
0	0xbe524222	-0.2053304
1	0x3e1c38aa	0.1525599
2	0xbe4658e7	-0.19369851
3	0x3dc1c91b	0.09462186
4	0x3ded551c	0.11588499
5	0x3db3fb84	0.08788207
6	0xbe60e993	-0.21964101
7	0x3de3a0bc	0.11114642
8	0x3e188b7b	0.14896958
9	0x3e1af744	0.15133387
10	0xbe59bff8	-0.21264637
11	0xbe523bc6	-0.20530614
12	0xbe990379	-0.29885462
13	0x3de04a6b	0.10951694
14	0x3da2ca9a	0.079487994
15	0xbe561da7	-0.20909749
16	0x3dd05cc4	0.10173944
17	0x3e15e73d	0.14638992
18	0xbe51c153	-0.20483904
19	0x3dde4c8e	0.108544454
20	0xbea5f48d	-0.3241314
21	0x3e0e28d8	0.13882768
22	0x3e1c48da	0.15262166
23	0x3dd02829	0.1016391
24	0xbe6d9b18	-0.23203695
25	0x3e33df22	0.17565587
26	0xbe4c601c	-0.19958538
27	0x3e1d78b6	0.15378079
28	0xbe55301e	-0.20819137
29	0x3e111fae	0.14172241
30	0xbeb671c7	-0.3563368
31	0xbebdb330	-0.37050772
32	0xbe57f0a8	-0.21087897
33	0x3e1b8768	0.15188372
34	0x3de0dce8	0.109796345
35	0xbe5672af	-0.20942186
36	0xbeb5c5a7	-0.3550236
37	0xbe516e08	-0.2045213
38	0x3dfba2a1	0.122868784
39	0x3e150111	0.14551188
40	0xbe900355	-0.28127542
41	0x3da933d2	0.08261837
42	0x3ddead98	0.10872954
43	0x3dfd5494	0.123696476
44	0x3dfd3daf	0.12365281
45	0x3dda49ef	0.10658633
46	0xbe429b3f	-0.19004534
47	0xbe560f23	-0.20904212
48	0xbe56d676	-0.20980248
49	0xbe5194fe	-0.20466992

bn1.running_mean f4 [50]
0	0x3ec2b4f4	0.3802868
1	0xbd4933f9	-0.04912183
2	0x3efa687f	0.4890785
3	0xbe15b9f8	-0.14621723
4	0xbe3f491c	-0.18680233
5	0xbe1bf27a	-0.15229216
6	0x3eaa9ca8	0.33322644
7	0xbe4de079	-0.20105161
8	0xbe8218e5	-0.25409618
9	0xbe8fa7fc	-0.2805785
10	0x3ed824bd	0.4221553
11	0x3ed2b0e9	0.41150597
12	0xbd15ca37	-0.0365698
13	0xbe4f8ed8	-0.20269334
14	0xbe298235	-0.16553576
15	0x3eb6149a	0.35562593
16	0xbe57f57b	-0.21089737
17	0xbe75eaf0	-0.24015403
18	0x3ec4ef13	0.3846365
19	0xbe3199dc	-0.17343849
20	0x3ef6dced	0.48215428
21	0xbc5a65de	-0.013329951
22	0xbe4f2f80	-0.20232964
23	0xbe3652b6	-0.17804989
24	0x3ee604e2	0.449256
25	0xbea298f6	-0.31757325
26	0x3ec4d52d	0.3844389
27	0xbe8a0d82	-0.2696343
28	0x3ea5a683	0.323536
29	0xbe8a2e07	-0.2698824
30	0x3e25f3db	0.16206305
31	0x3e4a3f23	0.19750647
32	0x3eb1541a	0.34634477
33	0xbe7fea87	-0.24991809
34	0xbe559327	-0.20856915
35	0x3ebfa1e5	0.37428203
36	0x3ea37bd1	0.31930402
37	0x3e967314	0.29384673
38	0xbe50ed57	-0.20403038
39	0xbe8b65f7	-0.2722623
40	0xbc72692b	-0.014795582
41	0xbe317c78	-0.17332637
42	0xbe5256f9	-0.2054099
43	0xbe69b029	-0.22821106
44	0xbe46bf59	-0.19408931
45	0xbe383c5e	-0.17991778
46	0x3e9c64eb	0.30545744
47	0x3edea5fc	0.4348601
48	0x3eb8c2fa	0.36086255
49	0x3ece5ccb	0.4030517

bn1.running_var f4 [50]
0	0x3dd5b9d8	0.104358375
1	0x3d22abb5	0.039714534
2	0x3e85c8c8	0.26129746
3	0x3d1d4d38	0.03840372
4	0x3d1a7eb4	0.03771849
5	0x3cf96f3e	0.030448552
6	0x3d96a390	0.07355416
7	0x3d287d1c	0.04113494
8	0x3d867bc7	0.065665774
9	0x3d75cf93	0.06001241
10	0x3de0c5a3	0.10975196
11	0x3e024f88	0.12725651
12	0x3d853d3b	0.065058194
13	0x3d278dfb	0.040906888
14	0x3ced629e	0.028977688
15	0x3dc4348d	0.09580336
16	0x3d1ada57	0.03780588
17	0x3d4b559c	0.04964219
18	0x3dd8f752	0.105940476
19	0x3d1f234d	0.038852025
20	0x3e23147b	0.15925781
21	0x3d31f171	0.043443147
22	0x3d7e9d80	0.062161922
23	0x3d2eb7ac	0.042655632
24	0x3dd089fb	0.10182568
25	0x3db345c9	0.08753545
26	0x3dcd54d2	0.10025944
27	0x3d910d2c	0.070825905
28	0x3da9aa6a	0.08284457
29	0x3d91294f	0.07087957
30	0x3de81e6c	0.113339275
31	0x3def2992	0.11677851
32	0x3d9a12fd	0.07523153
33	0x3d87dbc7	0.06633716
34	0x3d14fd98	0.03637466
35	0x3ddafd2a	0.106928185
36	0x3df4bde7	0.119502835
37	0x3d9869c0	0.07442045
38	0x3d2c753c	0.04210399
39	0x3d3594de	0.044331424
40	0x3d8f908e	0.070099935
41	0x3d0591f2	0.032609887
42	0x3d282d2e	0.04105871
43	0x3d4b4cb0	0.04963368
44	0x3d42161a	0.04738436
45	0x3d0b1dd7	0.033964004
46	0x3da2e4bd	0.079537846
47	0x3e18625f	0.14881276
48	0x3de09522	0.10965945
49	0x3de94558	0.113901794
