output/random_DRB1_0301/CSL_mhc_nostd_burn_60nh_ran_DRB1_0301_KFold_3_231013_1135_None/checkpoint_best_kcv_train_all5_DRB1_0301_f03_CSL_mhc_nostd_burn_60nh_ran_DRB1_0301_KFold_3_231013_1135_None.pt (torch, 210635 bytes, 7 tensors)

in_layer.weight f4 [60, 860]
000000 10 e8 80 bb 39 85 ae ba d0 58 5d b6 62 f6 53 bb
       -0.003933914 -0.001331485 -3.2983262e-06 -0.00323429
000010 ce 68 0c 29 85 9a 18 bb a0 26 a8 38 9f dc bf 37
       3.1177148e-14 -0.002328546 8.018059e-05 2.2871709e-05
000020 ab 60 03 ab 3e d6 9e 3a 3c 9c 56 a7 c5 99 50 39
       -4.6674703e-13 0.0012118293 -2.978316e-15 0.0001989371
000030 49 b3 29 ba 2d dd 1b ab 6c 89 22 bb d8 a5 b3 a7
       -0.0006473554 -5.5374005e-13 -0.0024801148 -4.986229e-15
000040 aa 07 c6 b9 20 4b 28 3b 3a ba 20 3a 6a 42 82 3a
       -0.00037771213 0.0025679544 0.00061312655 0.0009938006
000050 36 bc e5 2e 0a ad 06 b9 31 81 28 3b 82 80 71 bb
       1.0447147e-10 -0.00012843698 0.002571177 -0.0036850278
000060 ad d7 ae b9 90 83 93 b9 69 ef f1 b5 b6 1d 6a 2b
       -0.00033348557 -0.00028136047 -1.8025577e-06 8.317473e-13
000070 a2 77 8a ba 49 be 98 ba 62 a7 95 b7 0a 82 74 39
       -0.0010564218 -0.0011653389 -1.7840128e-05 0.00023318097
000080 92 69 4d ba b5 06 27 bb f1 0b 0e bb ac a4 d8 b7
       -0.00078358606 -0.0025486175 -0.0021674598 -2.5825888e-05
000090 ae de b2 2d 8c d7 80 bb 5b b4 5f b7 55 51 95 27
       2.0335147e-11 -0.003931945 -1.3333828e-05 4.144399e-15
0000a0 0d 70 6b 29 0a 64 14 aa 6f 1c 1a 29 1a 24 ca b9
       5.227767e-14 -1.3179749e-13 3.421953e-14 -0.0003855534
0000b0 fe ec 2f 38 da 2e cb ac 35 50 10 ba 55 e7 ca ac
       4.1943968e-05 -5.7748086e-12 -0.0005505116 -5.7668683e-12
0000c0 0f 15 d8 28 6a b5 3f 3b 03 ac 55 38 22 90 8e b5
       2.398995e-14 0.0029252418 5.0943356e-05 -1.0621773e-06
0000d0 4a 78 a7 a9 fd d4 1b 3b d2 d5 b7 39 cf 00 91 2b
       -7.4371566e-14 0.0023778074 0.00035063789 1.0303094e-12
0000e0 a1 31 31 b3 63 db e7 3a 80 65 5e 36 ca 67 d4 b6
       -4.125616e-08 0.0017689284 3.3139659e-06 -6.330175e-06
0000f0 c4 1b 39 3a 04 9b d8 a8 b4 f3 6f ba a6 b7 c4 b6
       0.00070613273 -2.4048045e-14 -0.0009153441 -5.8626347e-06
000100 90 75 81 ba 9c 6c e2 ba 4e 7b 41 a8 ca 23 45 ba
       -0.0009876955 -0.00172748 -1.074039e-14 -0.00075202866
000110 af 5d 88 38 b6 bf e2 36 02 c2 b5 ab cb 6c dc 3a
       6.502435e-05 6.757643e-06 -1.2914672e-12 0.0016817091
000120 28 1b 0d b7 92 c3 d0 a7 34 42 81 39 f4 f7 ee 31
       -8.410578e-06 -5.7943635e-15 0.00024654123 6.9549007e-09
000130 49 d7 85 28 7d c7 ed 3a c4 38 1b ab 68 08 01 3a
       1.4859331e-14 0.0018141117 -5.514584e-13 0.0004922212
000140 f3 2d 0a bb 98 1b 0a bb 61 f7 2b bb dc 93 0f a9
       -0.0021084517 -0.0021073576 -0.0026239979 -3.1880626e-14
000150 0a 0f 00 3b 87 d4 12 bb 5f a0 4f 35 5e d8 1a bb
       0.0019540214 -0.0022404508 7.734688e-07 -0.00236275
000160 da 46 ec b9 50 17 1c b1 7d 07 a5 b5 ce 35 fd 2e
       -0.00045066216 -2.271424e-09 -1.2295637e-06 1.15146656e-10
000170 ed 25 f1 ba 38 18 7f 3b ed 5f 48 2a 8e 48 45 32
       -0.0018398144 0.0038924348 1.779685e-13 1.1483406e-08
000180 a8 b3 04 ba e3 63 c3 38 60 22 37 ac a4 6e f8 b7
       -0.0005062171 9.31693e-05 -2.6024946e-12 -2.9615425e-05
000190 0c f2 b9 2a d6 bb 02 36 16 74 1d 29 d3 1b 6e b2
       3.3030555e-13 1.9480844e-06 3.496169e-14 -1.385975e-08
0001a0 41 97 1a ab 45 12 d8 b4 6d 42 4b b0 1e cd 0f b4
       -5.49217e-13 -4.0246428e-07 -7.3945366e-10 -1.3392534e-07
0001b0 16 35 47 39 ff 8c 27 ba 3f 31 8c 36 8a f5 48 38
       0.00018997895 -0.00063915545 4.178058e-06 4.7912392e-05
0001c0 06 fb eb b9 32 b2 8c ba dd cd ef b9 b2 15 fc ba
       -0.0004500972 -0.0010734259 -0.00045739012 -0.001923254
0001d0 0c b3 f2 3a ba 00 1a 3b 4a 8f f7 28 af eb 4b 3b
       0.0018516495 0.0023498968 2.748465e-14 0.003111582
0001e0 ea c6 97 2e 59 e1 76 bb 99 f2 36 bb a9 08 aa b7
       6.902019e-11 -0.0037670939 -0.0027915596 -2.0269612e-05
0001f0 e6 17 84 bb 7f fc 26 b7 5b 83 78 ad b9 8e c5 a7
       -0.004031169 -9.95316e-06 -1.4126335e-11 -5.4833224e-15
000200 44 d6 19 2b f0 74 3a a8 71 4e 36 3b 30 09 3e a6
       5.465387e-13 -1.0350431e-14 0.002781775 -6.5931943e-16
000210 2f 28 0d 38 40 8e cb ac b0 bf 82 ba 79 bc c2 2a
       3.3654444e-05 -5.7854e-12 -0.000997534 3.4592102e-13
000220 b2 b2 30 37 5b 87 20 39 fc f7 4e bb 82 aa d0 29
       1.0532023e-05 0.00015309213 -0.0031580916 9.266634e-14
000230 7f 15 65 bb 94 0e cb 27 bc 2f b2 28 65 f2 d6 b0
       -0.003495544 5.6359624e-15 1.9782671e-14 -1.5639442e-09
000240 10 70 8d b1 e1 ec 48 aa 8e 59 a6 2c 53 39 6a bb
       -4.11638e-09 -1.7845752e-13 4.7279463e-12 -0.0035739734
000250 c9 5d d7 37 84 3d 68 3b e3 81 3c ba ea e3 70 3b
       2.567367e-05 0.0035437057 -0.00071909855 0.003675694
000260 28 bf 7b a8 a7 a1 7f 3b 6a 4b 15 3b 25 d4 05 bb
       -1.3974749e-14 0.0039006264 0.0022780546 -0.0020420637
000270 55 83 85 3a 0e 77 85 28 25 6f b9 ac cc e3 86 b3
       0.0010186235 1.4817598e-14 -5.2703558e-12 -6.281297e-08
000280 cb 6d be ba 13 70 89 29 02 ec ea 2d 9f 6f 0d 38
       -0.001452857 6.103464e-14 2.6707529e-11 3.3720975e-05
000290 4d 94 f1 ba 59 38 69 bb 0b d9 8b 37 12 b5 7d ab
       -0.0018431038 -0.0035586564 1.667116e-05 -9.013494e-13
0002a0 03 c9 e4 27 b4 21 8e 2d 70 ed 89 26 cd d7 9f 29
       6.350065e-15 1.6158498e-11 9.570642e-16 7.098454e-14
0002b0 89 b8 3e bb 79 51 e6 33 f7 d7 a1 29 8e 82 37 37
       -0.002910169 1.07250294e-07 7.1873e-14 1.0938047e-05
0002c0 cf ec 40 b8 e5 3f 59 3a 0c 2c f2 39 ac 24 0b b8
       -4.5996912e-05 0.0008287414 0.00046190654 -3.3174336e-05
0002d0 f3 2d 15 3b 07 4b 65 29 fe 27 1b 3b 3d 9a 31 3b
       0.0022762984 5.091329e-14 0.002367496 0.002709999
0002e0 36 44 80 aa e8 c0 20 aa f4 6c 2f b0 1b 55 b7 39
       -2.2784698e-13 -1.4277783e-13 -6.381946e-10 0.00034967888
0002f0 30 4b 35 bb e0 6e 28 27 22 f8 5c 3b fb 16 33 ba
       -0.0027663223 2.337479e-15 0.0033717235 -0.00068317325
000300 f8 8b ee b8 9b 7c 33 a8 2c 9b 6d 33 54 1b 94 38
       -0.000113747956 -9.9635156e-15 5.532199e-08 7.06228e-05
000310 39 9a 0d a9 50 1d 8d 2c 29 e1 0a b7 6b 27 55 3b
       -3.1442056e-14 4.0107154e-12 -8.277865e-06 0.0032524716
000320 8a 40 de b9 b5 86 c9 39 dc 5c a5 38 68 5f 13 3b
       -0.00042391225 0.00038438072 7.8851095e-05 0.0022487286
000330 21 1c 1f 3b 87 35 b5 30 1e 2c 41 3a f7 19 5d ba
       0.002427824 1.3184697e-09 0.00073689397 -0.000843435
000340 e6 00 25 3a 07 29 83 b9 fe 8d 0a ba 9b 6f 06 ba
       0.00062943844 -0.00025016835 -0.0005285441 -0.0005128325
000350 eb 94 6e 3b e9 aa fb 2e 94 42 24 ba c3 c2 82 ba
       0.003640468 1.1444518e-10 -0.00062660244 -0.0009976256
000360 ef 53 4f a9 12 ab c9 2b 56 33 9c ad 81 b9 9c 39
       -4.6036034e-14 1.432939e-12 -1.7757944e-11 0.0002989285
000370 44 7f a1 b9 f3 db 30 bb 29 8a 79 a9 ee cf f1 39
       -0.00030803133 -0.0026986569 -5.540894e-14 0.00046122022
000380 ae 1e 6f 39 2a 5b cf a7 c1 69 b6 2d 1b 2c 9a b0
       0.00022804245 -5.755288e-15 2.0737969e-11 -1.121751e-09
000390 b6 c8 21 3a 45 dc 09 bb a2 c2 93 a9 a6 f8 88 3a
       0.0006171571 -0.0021035832 -6.561875e-14 0.001045008
0003a0 d7 c4 98 3a e7 0d 41 3b 86 85 cd 34 73 92 7d 3b
       0.0011655343 0.002945775 3.8281377e-07 0.0038692027
0003b0 fd 98 68 bb ab 41 f7 aa 10 95 22 2a 86 1e 19 3a
       -0.0035491579 -4.392158e-13 1.4440207e-13 0.0005841035
0003c0 ab 58 63 2b 40 95 b3 39 9b b1 16 bb 74 5a bc a9
       8.076965e-13 0.0003425274 -0.0022994045 -8.364568e-14
0003d0 78 b2 3a 34 a9 7e b5 39 59 1a 9f 2c 28 f6 bf 39
       1.7387526e-07 0.0003461738 4.521977e-12 0.0003661376
0003e0 1e b8 1d 30 3c b3 4a a7 68 73 4c 3b 33 53 f2 39
       5.7377914e-10 -2.8130295e-15 0.0031196717 0.00046219825
0003f0 70 a8 2c 3a 5a 0b 0e bb ff 8d 0d a7 20 ea 0f bb
       0.00065863784 -0.0021674247 -1.9644657e-15 -0.0021959618

in_layer.bias f4 [60]
000000 92 3f 87 b6 4b 36 0f 3b 5e ee d5 37 95 d2 d0 31
       -4.030714e-06 0.002185243 2.5502577e-05 6.077537e-09
000010 c8 11 a5 30 b6 8a 72 b1 b2 1c 34 bb a4 c6 79 b6
       1.2010384e-09 -3.5294483e-09 -0.0027482924 -3.7219515e-06
000020 00 ca fa ad e5 8b 0a b1 90 bb be 3a cc c9 ee ad
       -2.8511415e-11 -2.0161164e-09 0.0014551748 -2.7147083e-11
000030 bd d6 c0 b9 c1 2d d7 ae 91 1b 22 3a fe 1c a1 ba
       -0.00036781086 -9.7851956e-11 0.0006183917 -0.0012291966
000040 23 25 f5 2f f1 0d 7b b5 bb 52 0c b1 13 37 96 ad
       4.4591628e-10 -9.3525074e-07 -2.0419708e-09 -1.7077484e-11
000050 0d 8e 00 bb ab de da 29 a0 ee fa 32 97 57 44 b6
       -0.001961592 9.7197715e-14 2.9212345e-08 -2.925726e-06
000060 75 f9 9d ba 9e 74 40 30 dd fa 75 b0 c1 f8 65 30
       -0.0012052493 7.0014916e-10 -8.948698e-10 8.3663215e-10
000070 08 45 75 3a a1 eb 04 b4 71 42 95 b9 58 b3 10 39
       0.0009356295 -1.2379179e-07 -0.00028468997 0.00013799721
000080 be ff 33 3b 56 9e 45 b9 50 65 4b 3a 48 7c 00 b9
       0.0027465667 -0.00018846369 0.0007758932 -0.0001225333
000090 9c 69 12 3b 86 57 cd 3a 28 1e e6 b5 74 a0 34 30
       0.002234078 0.0015666343 -1.7145112e-06 6.5711636e-10
0000a0 c0 b6 69 39 5b 06 19 bb 9a 95 6d 3b 52 92 c2 28
       0.00022288691 -0.0023349735 0.00362525 2.1601783e-14
0000b0 d8 36 8b 38 16 9f 83 35 1b 0e 00 bb 89 16 a6 37
       6.638252e-05 9.806561e-07 -0.0019539658 1.9799236e-05
0000c0 1f 9b a2 38 67 6f 0a af fc 5d ed 36 f4 97 fd 2d
       7.7536555e-05 -1.2590605e-10 7.0740916e-06 2.883025e-11
0000d0 3b e5 f8 b8 6e 79 f3 b6 a6 93 8e b9 e3 ca 0d 3a
       -0.00011868259 -7.2561006e-06 -0.00027194357 0.00054089556
0000e0 f4 5f 45 3b 00 8d 14 b1 2f ea ba 31 cc d4 61 33
       0.0030117007 -2.1616984e-09 5.439936e-09 5.2580432e-08

out_layer.weight f4 [1, 60]
000000 63 d9 42 3d 69 f1 01 be 1e 02 39 3b f6 af f8 bd
       0.047570597 -0.12689747 0.0028230022 -0.12142937
000010 50 d9 c4 bc 26 fd b6 bd 0d 37 56 bd e8 ae 52 39
       -0.024029404 -0.08935003 -0.052298594 0.00020092318
000020 95 8f 8b 3d 9b 10 3d 3d e5 37 b2 bd 3f e0 2f bd
       0.068144955 0.046158414 -0.08702067 -0.042938467
000030 92 1c a8 3d 6f 26 6d bd 7e 3d 93 bc 2f c7 9e bd
       0.08208574 -0.05789798 -0.017973658 -0.07752835
000040 ee 0a bd ba fc 25 1f bc 1f 02 4d bd 93 a1 7d 3d
       -0.0014422813 -0.009713646 -0.05005085 0.061921667
000050 1e 19 c8 3c c8 2e 4c bd f5 81 0e 3d b0 56 98 3d
       0.02442604 -0.0498493 0.034791905 0.07438409
000060 ff 24 c5 bc 05 9f 07 bd c7 f3 03 bd 32 0b 88 3d
       -0.024065493 -0.033110637 -0.032214906 0.0664276
000070 37 ef 6c bd bb e3 85 bd 5b 4f 04 be 86 aa 4f bd
       -0.05784532 -0.06537577 -0.12920897 -0.050699733
000080 f0 ec 7c b3 fb ca a8 3d c6 7f 09 bd 92 c5 d3 bd
       -5.8888816e-08 0.082418405 -0.03356912 -0.10340418
000090 92 e2 7b bd f0 77 3f bd c8 00 44 3d c0 c7 8b bd
       -0.06149537 -0.04674524 0.047852308 -0.06825209
0000a0 67 aa de bd 2b fc a0 bd 12 f0 ca 3d e1 41 83 bc
       -0.108723454 -0.07860597 0.09909071 -0.016022624
0000b0 cd c6 1e 3d ad f3 ea bd de 0c c7 3b c4 87 49 bd
       0.03876381 -0.11472259 0.006074532 -0.04920174
0000c0 e2 fd 97 a7 1e 31 9e 3d 2c 58 3f 3b 41 21 32 3d
       -4.218618e-15 0.07724212 0.0029196842 0.043488745
0000d0 46 81 3d 3b 45 db 02 3e a8 48 d3 bb a0 de 7f 3d
       0.0028916164 0.12778957 -0.0064478703 0.06246817
0000e0 84 90 30 bc 37 ed 3c bd bf 95 39 bd a1 2a f8 3d
       -0.010776643 -0.046124663 -0.045308825 0.12117506

bn1.weight f4 [60]
000000 34 f1 73 3f a5 1e 74 3f 36 f1 73 3f db 0d 74 3f
       0.9528992 0.9535926 0.95289934 0.9533364
000010 94 f2 73 3f aa 11 74 3f bf fe 73 3f 39 f1 73 3f
       0.9529202 0.95339453 0.95310587 0.9528995
000020 1f fb 73 3f e6 f2 73 3f 39 0b 74 3f 61 fa 73 3f
       0.95305055 0.9529251 0.95329624 0.9530392
000030 1b 0c 74 3f e4 fc 73 3f 0b f9 73 3f c0 05 74 3f
       0.9533097 0.95307755 0.95301884 0.95321274
000040 34 f1 73 3f 23 f4 73 3f 5b fa 73 3f e7 fe 73 3f
       0.9528992 0.952944 0.9530389 0.95310825
000050 28 f1 73 3f 34 f1 73 3f 1c f3 73 3f 74 35 74 3f
       0.9528985 0.9528992 0.9529283 0.95394063
000060 a2 f8 73 3f 56 00 74 3f a0 f6 73 3f e4 f1 73 3f
       0.9530126 0.9531301 0.95298195 0.9529097
000070 26 f6 73 3f 26 07 74 3f bf 1e 74 3f b0 f7 73 3f
       0.9529747 0.9532341 0.95359415 0.95299816
000080 34 f1 73 3f 0f f6 73 3f 36 f1 73 3f b5 1d 74 3f
       0.9528992 0.9529733 0.95289934 0.9535783
000090 3b f1 73 3f de f0 73 3f 34 f1 73 3f 22 f7 73 3f
       0.95289963 0.9528941 0.9528992 0.9529897
0000a0 a5 fe 73 3f a5 fd 73 3f 8b 56 74 3f 34 f1 73 3f
       0.9531043 0.95308906 0.95444554 0.9528992
0000b0 e7 01 74 3f 99 f0 73 3f 33 f1 73 3f 3f f3 73 3f
       0.953154 0.95289 0.95289916 0.9529304
0000c0 34 f1 73 3f bd fd 73 3f 33 f1 73 3f c0 f7 73 3f
       0.9528992 0.9530905 0.95289916 0.9529991
0000d0 89 f1 73 3f af 5e 74 3f 34 f1 73 3f 83 f2 73 3f
       0.9529043 0.95456976 0.9528992 0.9529192
0000e0 cd f6 73 3f 34 f1 73 3f fd f8 73 3f 69 67 74 3f
       0.95298463 0.9528992 0.953018 0.9547029

bn1.bias f4 [60]
000000 00 00 00 00 4b 00 4d 3b c2 b3 8e b3 79 74 4b 3b
       0.0 0.0031280692 -6.645088e-08 0.0031044765
000010 5e b3 ef 3a b7 00 92 3b 5e 78 14 3b b7 dd a9 b6
       0.0018287709 0.0044556516 0.0022654752 -5.0624035e-06
000020 b2 32 04 ba 2c 64 97 3a 85 b8 ac 3b 5a 34 14 3b
       -0.00050429546 0.0011550239 0.00527102 0.0022614212
000030 14 fe 56 ba 1d 9c 3c 3b 7c 57 b7 3a a9 fa 3b 3b
       -0.0008201313 0.0028779574 0.0013987864 0.002868334
000040 00 00 00 00 8f b1 83 3a dc 7d 92 3b 54 9d 8a b9
       0.0 0.0010047423 0.00447057 -0.0002643863
000050 c4 58 2a 31 00 00 00 00 18 f7 a4 b8 e8 07 c0 ba
       2.4788713e-09 0.0 -7.866154e-05 -0.0014650794
000060 04 62 4e 3b e0 a3 04 3b fc d6 7c b7 97 75 a4 b7
       0.0031491527 0.0020239279 -1.5070425e-05 -1.960508e-05
000070 fa 44 bd 3a b2 26 81 3b 47 87 84 3b 31 1a 2c 3b
       0.0014440112 0.0039413804 0.0040444466 0.0026260728
000080 00 00 00 00 c5 fb 4f ba 9c 2d b5 b8 fe 0e aa 3b
       0.0 -0.000793394 -8.639248e-05 0.0051897755
000090 23 da d0 31 cb 5d 1c 3b cd a7 9d b1 7c 51 b0 b9
       6.078396e-09 0.0023859616 -4.588378e-09 -0.00033630047
0000a0 8a 50 4d 3b cb 0d 8d 3b f0 16 87 ba c2 6b 33 30
       0.0031328523 0.0043046228 -0.0010306519 6.5272954e-10
0000b0 dc f3 7e 39 0c 2a cd 3b b1 1c 19 b7 f0 39 8c 3b
       0.00024314172 0.006261116 -9.126191e-06 0.0042793676
0000c0 00 00 00 00 24 00 ad b9 60 8a eb b3 26 b9 f8 b8
       0.0 -0.00032997236 -1.09682105e-07 -0.00011860048
0000d0 4c d5 87 b5 a0 5e 82 ba 00 00 00 00 20 02 36 b8
       -1.0120361e-06 -0.0009946413 0.0 -4.339416e-05
0000e0 d6 41 8a 3a d9 c5 4a b9 86 62 66 3b 4e 93 a4 39
       0.0010548185 -0.00019337925 0.003515394 0.00031390268

bn1.running_mean f4 [60]
000000 7e 8c 83 3e 9b 02 36 c0 9f 51 d4 3d b7 2d 63 c0
       0.25693125 -2.843909 0.103671305 -3.5496652
000010 ca aa 09 c0 23 cd cb bf a1 05 fa be 9e bc ae 3e
       -2.1510491 -1.5921978 -0.4883242 0.34128278
000020 4d 09 ad bc df ab 0b 3f 6e 41 c0 bf ba d8 16 c0
       -0.021122599 0.5455913 -1.5019968 -2.356978
000030 fa d6 95 3f 6a 6e 97 bf b0 06 98 bf 89 68 bd bf
       1.1706231 -1.1830571 -1.1877041 -1.4797527
000040 e5 5f 9b 3e 42 e6 bb be a3 60 56 bf b8 fd e1 3f
       0.303466 -0.3669911 -0.83741206 1.7655554
000050 e2 a1 9f 3f 4b 98 4a 3e 30 72 2a be 6f 56 ad 3e
       1.2471278 0.19784658 -0.16645122 0.33855006
000060 c2 d2 40 bf 01 7b e6 bf b7 39 e3 bd fb 20 b2 3f
       -0.7532159 -1.8006288 -0.110949926 1.3916315
000070 4d 14 10 bf 81 7c 00 bf 3a f0 c2 bf 76 0b 06 c0
       -0.56280977 -0.5018998 -1.5229561 -2.0944495
000080 0a f4 03 3f c0 ba 93 3f 6c f2 dc 3e 53 f9 9f bf
       0.5154425 1.1541367 0.43153703 -1.2497963
000090 57 17 73 3e 3a 94 7a bf 14 c2 cc 3d fd be 3f 3f
       0.23739372 -0.97882426 0.09997955 0.749008
0000a0 4a 1d 18 c0 9d b5 a0 bf 65 43 e8 bd 5b b6 80 3f
       -2.3767877 -1.2555424 -0.113409795 1.005565
0000b0 a2 9b 66 3e cb 52 5d bf 52 ca 9a 3f 04 8d 68 bf
       0.22520307 -0.8645446 1.2092993 -0.9084017
0000c0 4d 46 7d 3e aa eb b1 3f 3f 82 e6 3e 2e 24 c7 3f
       0.24733849 1.3900044 0.45021245 1.5557916
0000d0 49 92 35 3f 02 dc b2 bd 0c e4 12 3e 9c 7c 31 3f
       0.7092634 -0.087333694 0.14344805 0.69330764
0000e0 1e 73 ad bf 67 f2 57 3e 84 7e 34 bf ce ea b5 3d
       -1.3550756 0.21088563 -0.7050555 0.08882676

bn1.running_var f4 [60]
000000 ec 9f 15 3d 6e 3d 52 40 77 d4 9a 3c 3a 02 b6 40
       0.036529467 3.2849994 0.01890014 5.687772
000010 57 c6 f7 3f 5a 86 1d 3f 1e 74 78 3e 44 82 de 3c
       1.9357404 0.6153313 0.24263045 0.027161725
000020 8b cc af 3e 0b 76 b4 3e 13 94 36 3f 75 0c 5c 40
       0.3433574 0.3524631 0.71319693 3.4382603
000030 b7 3e 30 3f 34 f7 3d 3f f8 01 f6 3e 22 d0 31 3f
       0.68845695 0.7420533 0.48048377 0.6945821
000040 b9 6c d8 3c 7c d9 e7 3d ad a9 9f 3e f8 38 be 3f
       0.02641903 0.11320779 0.3118414 1.4861135
000050 e1 54 f1 3e 53 f0 0f 3d b7 fb 3b 3e e9 2a a5 3e
       0.4713507 0.0351413 0.1835774 0.322593
000060 a0 27 d2 3d 59 b0 d1 3f 86 81 2d 3e af 47 88 3f
       0.10261464 1.6381942 0.1694394 1.0646876
000070 2b 3e de 3e b7 60 37 3e 33 29 85 3f 08 d7 d9 3f
       0.43406805 0.17907988 1.0403198 1.7018747
000080 49 40 0b 3e 7d c5 39 3f ee 26 4a 3d 9b b3 d8 3e
       0.13598742 0.7256697 0.049353532 0.42324528
000090 91 80 8e 3d 53 a5 ee 3e 71 ea af 3c dd e8 3a 3f
       0.06958116 0.46610507 0.021474095 0.7301157
0000a0 db 5b 02 40 0f 92 35 3f ba 84 89 3e 07 9c e4 3e
       2.0368564 0.7092599 0.26859075 0.4465029
0000b0 b0 d1 df 3d 3c 5a af 3e cb c7 2d 3f ba 55 9f 3e
       0.109286666 0.3424853 0.67882985 0.31120092
0000c0 c6 d1 17 3d 40 f4 9d 3f ef 63 1b 3e 49 e3 6c 3f
       0.03706529 1.2340164 0.1517484 0.9253431
0000d0 dc 53 40 3e 25 39 98 3e 3f 51 c9 3c d5 5b d1 3e
       0.1878199 0.29731098 0.024574874 0.40890375
0000e0 35 40 2e 3f 8d 6e 8b 3c 6d 97 45 3e 39 f0 33 3e
       0.6806672 0.017020488 0.19296046 0.17572106
