output/230525_FixedPadding_MHCII_DRB1_0301_kcvs/4/230525_FixedPadding_DRB1_NOSTD_230529_224527_26kjP/checkpoint_best_kcv_drb1_0301_f3_230525_FixedPadding_DRB1_NOSTD_230529_224527_26kjP.pt (torch, 43588 bytes, 16 tensors)

nnalign.in_layer.weight f4 [50, 180]
0.002107685 0.023882743 -0.0023232072 0.01917776 0.012349624 -0.008895691 -0.009977764 0.01240632
0.01791282 -0.0016478541 0.011882302 0.012922791 -0.0073903175 -0.005534636 -0.011521398 0.0096296435
6.3103376e-05 0.0109221265 -0.0014295406 -0.013522112 -0.0083448505 0.014350706 -0.007442781 -0.043730717
0.00851038 0.0124744605 -0.009980649 0.014131257 0.011914907 -0.010979792 0.0035384858 0.007426529
0.02405711 0.007384713 -7.4365365e-05 -0.013568216 0.0040262756 0.013223976 -0.006379496 -0.017845144
-0.01821454 0.0132465605 0.008415145 -0.00078903086 0.013101007 0.0013531913 -0.011124835 -0.006048898
-0.010914548 0.0016643651 0.0072755395 0.0059583704 0.014955609 -0.0025415188 -1.4642225e-05 -0.0070587317
-0.0019922645 0.011003017 0.006742689 0.0031215702 0.005638423 -0.032515842 0.017601628 0.017554292
0.016088858 -0.016557163 -0.007228114 0.0011346403 0.0034815406 -0.0049861833 0.0018324523 -0.017472036
0.009535125 0.012648951 -0.013436263 0.014765465 -0.018369803 0.010547453 0.012669181 -0.013557457
-0.00870063 0.011294144 -0.022704385 0.01650915 0.018110882 -0.030784737 -0.004524605 0.0014107946
-0.009253165 0.009949503 -0.009318615 -0.0029272458 0.019729426 -0.0023338024 -0.010140059 -0.0071209786
0.0031816007 0.008770307 0.020801108 -0.014490642 0.0026402646 -0.0051816506 -0.013789036 -0.0052297493
0.020984733 -0.010972795 -0.0048651714 -0.0039044535 -0.025452327 0.010105154 -0.0021717623 0.018559188
-0.024946013 0.0078093763 0.009843139 0.008277537 0.009079566 0.017374532 0.0022397882 0.0034167103
0.018856488 0.012711467 -0.0029242493 0.002878471 0.015248339 -0.021688221 0.013123966 -0.02960307
0.010931069 -0.007584076 0.012231915 -0.038438708 0.021940347 0.011782185 -0.0015262732 0.0022659604
-0.01550365 0.010454296 0.0027420435 -0.016611286 -0.01587405 0.0058734687 -0.0179324 -0.019063992
0.0101295905 0.0011325197 -0.007364357 0.013474386 0.040622864 -0.018242938 -0.012449326 0.034080375
-0.013377596 -0.019118285 0.005474607 0.03930019 0.008097247 -0.0012759012 -0.02988407 -0.008582607
0.025220199 0.013954731 -0.014411475 0.0039750203 -0.008241951 -0.022507548 -0.0017921007 0.036292076
0.053620312 0.009696029 0.009198807 -0.0008532798 0.003655809 0.011111288 0.03207215 -0.031634603
0.018010879 0.006706115 -0.016931135 0.030577622 0.011351162 -0.0050446023 0.024734171 -0.011224102
-0.008895878 -0.005478958 0.0036162012 0.0064094253 -0.004209008 0.0213664 -0.00063944777 0.008738432
-0.0035003063 0.010507639 -0.00073310744 0.027034398 -0.0034622136 0.0016808093 0.003931353 0.028358603
-0.005582725 -0.005223156 -0.005078456 0.025698263 -0.009727961 -0.009976917 0.027586931 -0.016848661
-0.011122664 0.014683491 0.0036973334 -0.0021219193 -0.017988482 -0.0012771467 -0.0084949415 -0.0037201026
-0.011379377 -0.0038696947 -0.0030338855 0.0068182903 0.009825703 0.0068383217 -0.0004383254 0.01829617
-0.00461169 -0.0023259395 -0.003402276 -0.010675264 0.010937299 0.0045073344 0.0011684812 0.009483394
-0.008343354 -0.0048369872 0.008760959 -0.0019481395 -0.007338307 -0.010589061 -0.008667955 -0.0012198293
0.010062542 0.005695527 0.0007262883 -0.006863857 -0.010522655 -0.009201514 0.0070521194 0.0032697353
0.010994097 0.008023735 -0.0017289517 0.0046061184 -0.00952578 -0.009628271 0.004441698 -0.004997835
00000000: 1621 0a3b bea5 c33c f340 18bb ae1a 9d3c
00000010: 1456 4a3c 3bbf 11bc c779 23bc e143 4b3c
00000020: e8bd 923c cffc d7ba fdad 423c 1dba 533c
00000030: 7a2a f2bb e45b b5bb 3fc4 3cbc a7c5 1d3c
00000040: 5e56 8438 b8f2 323c 6c5f bbba d98b 5dbc
00000050: d7b8 08bc 391f 6b3c 92e2 f3bb fb1e 33bd
00000060: 1f6f 0b3c ae61 4c3c e085 23bc ca86 673c
00000070: be36 433c 96e4 33bc f1e5 673b 3e5a f33b
00000080: 6b13 c53c 76fb f13b 9af4 9bb8 394d 5ebc
00000090: d9ee 833b 60a9 583c 170b d1bb fb2f 92bc
000000a0: a936 95bc 1a08 593c addf 093c f7d6 4eba
000000b0: 9ba5 563c 915d b13a f144 36bc d635 c6bb
000000c0: efd2 32bc d326 da3a a667 ee3b 6f3e c33b
000000d0: 5f08 753c 9c8f 26bb e1a7 75b7 ef4c e7bb
000000e0: a790 02bb 0046 343c c6f1 dc3b 4293 4c3b
000000f0: 85c2 b83b 552f 05bd 4a31 903c 05ce 8f3c
00000100: c8cc 833c e3a2 87bc d1d9 ecbb 36b8 943a
00000110: 8f2a 643b 2363 a3bb e52e f03a 8421 8fbc
00000120: 3739 1c3c 8c3d 4f3c c623 5cbc d9ea 713c
00000130: 457c 96bc 39cf 2c3c 6692 4f3c 1920 5ebc
00000140: 168d 0ebc 130b 393c 8cfe b9bc 323e 873c
00000150: 465d 943c 4630 fcbc 2343 94bb 69ea b83a
00000160: 969a 17bc 3d03 233c 1bad 18bc 09d7 3fbb
00000170: 9b9f a13c b5f2 18bb 7d22 26bc 1957 e9bb
00000180: 6782 503b 55b1 0f3c 1667 aa3c 286a 6dbc
00000190: 4a08 2d3b d6ca a9bb 69eb 61bc 515e abbb
000001a0: 2de8 ab3c 3dc7 33bc 046c 9fbb dce1 7fbb
000001b0: 6681 d0bc 1690 253c 2054 0ebb 7009 983c
000001c0: 955b ccbc cce5 ff3b 1e45 213c 829e 073c
000001d0: 76c2 143c 0955 8e3c 69c9 123b e3ea 5f3b
000001e0: ec78 9a3c c243 503c c3a4 3fbb bba4 3c3b
000001f0: 2bd4 793c 7fab b1bc e705 573c 2382 f2bc
00000200: 3a18 333c d783 f8bb 5f68 483c e871 1dbd
00000210: 3ebc b33c 110a 413c 3b0d c8ba 8280 143b
00000220: 0503 7ebc 7f48 2b3c dbb3 333b 6414 88bc
00000230: 4c0a 82bc 3a76 c03b f8e6 92bc 172c 9cbc
00000240: 95f6 253c 0e71 943a b450 f1bb acc3 5c3c
00000250: 2964 263d 3772 95bc 42f8 4bbc dd97 0b3d
00000260: b42d 5bbc f39d 9cbc 5564 b33b 3cf9 203d
00000270: 51aa 043c 243c a7ba 70cf f4bc 109e 0cbc
00000280: 979a ce3c 62a2 643c 1b1e 6cbc e340 823b
00000290: 4009 07bc c061 b8bc ece4 eaba 00a7 143d
000002a0: f9a0 5b3d 18dc 1e3c 98b6 163c a3ae 5fba
000002b0: 4c96 6f3b 1f0c 363c 165e 033d 4993 01bd
000002c0: 8d8b 933c f8be db3b 2ab3 8abc ec7d fa3c
000002d0: 39fa 393c 314d a5bb 519f ca3c 4ce5 37bc
000002e0: 04c0 11bc d588 b3bb cafd 6c3b 2806 d23b
000002f0: b8eb 89bb 9708 af3c 9da0 27ba a42b 0f3c
00000300: 6565 65bb 3b28 2c3c 022e 40ba 3e77 dd3c
00000310: 4ee6 62bb 9a4e dc3a 94d2 803b 4d50 e83c
00000320: 4bef b6bb 0227 abbb 2d69 a6bb 2a85 d23c
00000330: 0762 1fbc 3976 23bc fdfd e13c 3406 8abc
00000340: d63b 36bc 0693 703c f64e 723b e60f 0bbb
00000350: 955c 93bc ef65 a7ba 5e2e 0bbc f7cc 73bb
00000360: 9170 3abc b49a 7dbb 27d4 46bb f76b df3b
00000370: fcfb 203c 0014 e03b 0acf e5b9 d9e1 953c
00000380: a91d 97bb ca6e 18bb b8f8 5ebb 4de7 2ebc
00000390: 5b32 333c 43b2 933b b927 993a 3d60 1b3c
000003a0: 90b2 08bc 977f 9ebb 208a 0f3c b758 ffba
000003b0: 2e76 f0bb be7d 2dbc 0a04 0ebc aee2 9fba
000003c0: 5cdd 243c 8ba1 ba3b 6264 3e3a 35ea e0bb
000003d0: 3767 2cbc f2c1 16bc 7715 e73b 0e49 563b
000003e0: 9620 343c fc75 033c fe9d e2ba ecee 963b
000003f0: 0412 1cbc e5bf 1dbc aa8b 913b e1c4 a3bb

nnalign.in_layer.bias f4 [50]
-8.223874e-09 -2.3956208e-08 4.453928e-08 2.1324948e-07 1.6142918e-08 1.9177746e-07 -5.382931e-08 -4.848016e-08
-1.1947054e-07 8.214011e-08 -1.3385524e-08 -2.2503555e-08 -9.441055e-10 1.2525675e-08 3.061547e-08 -3.483713e-08
-4.6840274e-08 -6.517417e-09 2.3155707e-08 -1.6026785e-08 1.3016501e-09 5.041866e-08 -1.577438e-08 1.4065664e-09
1.6563991e-08 -9.13621e-09 -2.146648e-08 4.8288467e-08 3.615036e-08 2.3379839e-08 -8.634105e-08 6.806366e-08
1.7126926e-08 1.7869542e-08 -1.7135351e-08 -1.7976733e-08 6.8562485e-09 -1.1427808e-08 -2.9512126e-08 -2.386336e-08
3.5740452e-08 -1.102206e-08 -4.203683e-09 -3.6866226e-08 3.2055222e-08 -1.7633253e-08 1.9785103e-08 9.2465e-09
-7.989088e-09 1.776225e-08
00000000: fb48 0db2 42c8 cdb2 754b 3f33 92f9 6434
00000010: a7aa 8a32 63eb 4d34 f431 67b3 8038 50b3
00000020: d047 00b4 0165 b033 28f6 65b2 d74d c1b2
00000030: c2c1 81b0 8030 5732 117e 0333 d49f 15b3
00000040: 6d2d 49b3 ceef dfb1 f0e7 c632 46ab 89b2
00000050: bee5 b230 e78b 5833 3a80 87b2 2851 c130
00000060: 9a48 8e32 7af5 1cb2 4a65 b8b2 bb65 4f33
00000070: be43 1b33 cfd4 c832 7f6a b9b3 652a 9233
00000080: 821e 9332 8a7f 9932 0931 93b2 416b 9ab2
00000090: 3394 eb31 0854 44b2 da81 fdb2 15fc ccb2
000000a0: 0b81 1933 885b 3db2 fd6f 90b1 d856 1eb3
000000b0: 17ad 0933 ef77 97b2 e7f3 a932 89da 1e32
000000c0: 6140 09b2 9a93 9832

nnalign.out_layer.weight f4 [1, 50]
-0.2547317 0.2644532 -0.21957529 0.23857595 0.29309338 0.25721136 -0.25553754 0.23683959
-0.20459147 0.24759552 0.22619896 0.25407428 0.22227505 0.20604359 -0.24194288 -0.24378456
0.27178368 -0.21405688 -0.16938046 -0.23926978 0.18151383 -0.1987095 -0.23989706 0.2537688
-0.18594539 -0.18275756 -0.21222061 -0.1973775 -0.24138103 -0.2297816 -0.18086316 -0.22020313
-0.237392 -0.22859883 0.23568857 -0.20847394 0.22745878 -0.19090614 0.25383294 -0.23575929
-0.24752373 -0.17843086 -0.24494655 -0.24864417 -0.15253873 0.28353852 -0.22306833 -0.18143333
0.23423693 0.2237483
00000000: 326c 82be 6966 873e 58d8 60be 414d 743e
00000010: 5610 963e 35b1 833e d1d5 82be 1486 723e
00000020: 6d80 51be ae89 7d3e b3a0 673e 0616 823e
00000030: 129c 633e 17fd 523e e0bf 77be a9a2 79be
00000040: 3b27 8b3e ba31 5bbe 1272 2dbe 2303 75be
00000050: c3de 393e 817a 4bbe 93a7 75be fced 813e
00000060: 7868 3ebe cc24 3bbe 5c50 59be 541d 4abe
00000070: 972c 77be de4b 6bbe 3134 39be ee7c 61be
00000080: e316 73be d015 6abe 5858 713e 317a 55be
00000090: f4ea 683e e67c 43be 64f6 813e e26a 71be
000000a0: dc76 7dbe 94b6 36be 45d3 7abe 949c 7ebe
000000b0: 1d33 1cbe f62b 913e 066c 64be a9c9 39be
000000c0: cedb 6f3e 461e 653e

nnalign.bn1.weight f4 [50]
0.446463 0.45227897 0.44043443 0.4547795 0.4426898 0.46471184 0.42991328 0.45011345
0.4698057 0.49487367 0.4376508 0.4722557 0.46006033 0.4772084 0.4594377 0.44805467
0.45409882 0.4465985 0.4750367 0.4533401 0.48967382 0.44824088 0.45419875 0.45351678
0.44960478 0.44400615 0.46149597 0.46092927 0.44518593 0.49204683 0.43394446 0.45234403
0.4593002 0.46864095 0.47136217 0.43250722 0.4417609 0.4533333 0.48969182 0.48263034
0.44766232 0.42562726 0.43165973 0.44078004 0.44712764 0.4807529 0.4590098 0.44512364
0.43062553 0.45020732
00000000: cc96 e43e 1c91 e73e 9f80 e13e dcd8 e83e
00000010: 3da8 e23e b6ee ed3e 981d dc3e 4575 e63e
00000020: 5f8a f03e 1560 fd3e c413 e03e 80cb f13e
00000030: 078d eb3e a954 f43e 6b3b eb3e 6c67 e53e
00000040: a47f e83e 8fa8 e43e 0338 f33e 321c e83e
00000050: 87b6 fa3e d47f e53e bd8c e83e 5a33 e83e
00000060: 9932 e63e c654 e33e 3349 ec3e ecfe eb3e
00000070: 69ef e33e 90ed fb3e f82d de3e a399 e73e
00000080: 6529 eb3e b5f1 ef3e 6256 f13e 9671 dd3e
00000090: 7c2e e23e 4d1b e83e e3b8 fa3e 531b f73e
000000a0: ff33 e53e d1eb d93e 8102 dd3e ecad e13e
000000b0: eaed e43e 3e25 f63e 5503 eb3e 3fe7 e33e
000000c0: f37a dc3e 9381 e63e

nnalign.bn1.bias f4 [50]
0.10375948 -0.113093376 0.09856211 -0.116555154 -0.122198306 -0.11256618 0.10649955 -0.12316315
0.103486426 -0.12891886 -0.11106401 -0.11071867 -0.104356736 -0.12335967 0.10415369 0.1030416
-0.120805785 0.09577688 0.067569785 0.10101958 -0.10549391 0.091874555 0.10590152 -0.12425046
0.09917227 0.08407366 0.0935767 0.08790662 0.10867495 0.098011576 0.08915685 0.10351988
0.09962812 0.09901732 -0.11037006 0.09583016 -0.11386624 0.08549477 -0.10193088 0.09628638
0.10101521 0.084163 0.10354119 0.105254464 0.06915586 -0.1144368 0.09722244 0.089691654
-0.11181594 -0.11475637
00000000: da7f d43d 809d e7bd eeda c93d 78b4 eebd
00000010: 1b43 fabd 1989 e6bd 701c da3d f63c fcbd
00000020: b1f0 d33d 4e03 04be 8775 e3bd 78c0 e2bd
00000030: fcb8 d5bd ffa3 fcbd 884e d53d 7907 d33d
00000040: 0669 f7bd ab26 c43d 0762 8a3d 5be3 ce3d
00000050: 310d d8bd ba28 bc3d e5e2 d83d 0677 febd
00000060: d51a cb3d d02e ac3d 24a5 bf3d 6308 b43d
00000070: f990 de3d 4bba c83d de97 b63d 3b02 d43d
00000080: d409 cc3d 98c9 ca3d b309 e2bd 9a42 c43d
00000090: b432 e9bd e217 af3d 23c1 d0bd cb31 c53d
000000a0: 10e1 ce3d a75d ac3d 670d d43d a78f d73d
000000b0: 96a1 8d3d d75d eabd 8f1c c73d 42b0 b73d
000000c0: c1ff e4bd 6305 ebbd

nnalign.bn1.running_mean f4 [50]
-0.2457165 0.26237786 -0.19024134 0.12710157 0.230961 0.2738812 -0.32966173 0.17634572
-0.076708764 0.068169035 0.16775025 0.23982996 0.22516955 0.041915588 -0.22339202 -0.19658385
0.28271258 -0.21629938 -0.022352843 -0.27113616 0.02545048 -0.16211428 -0.18601266 0.20755139
-0.10766165 -0.13786808 -0.233731 -0.13484105 -0.18261021 -0.20474868 -0.11090353 -0.1245348
-0.27271533 -0.20520017 0.25887755 -0.24732746 0.15180326 -0.15642197 0.21908462 -0.23755129
-0.19301286 -0.17583342 -0.25128824 -0.22308028 -0.047854066 0.2908073 -0.1749593 -0.24309148
0.18999404 0.11709053
00000000: 1b9d 7bbe 6456 863e a0ce 42be ea26 023e
00000010: 0a81 6c3e 283a 8c3e 6cc9 a8be f993 343e
00000020: 7c19 9dbd 359c 8b3d b9c6 2b3e fc95 753e
00000030: d992 663e aeaf 2b3d e1c0 64be 474d 49be
00000040: b4bf 903e 967d 5dbe 4f1d b7bc 5cd2 8abe
00000050: 867d d03c 4901 26be 1a7a 3ebe 5a88 543e
00000060: b67d dcbd 4a2d 0dbe 2e57 6fbe c613 0abe
00000070: 2cfe 3abe a3a9 51be 6421 e3bd 1a0c ffbd
00000080: 58a1 8bbe fe1f 52be 998b 843e 6943 7dbe
00000090: 5072 1b3e 152d 20be b857 603e a540 73be
000000a0: 2aa5 45be ad0d 34be daa8 80be 286f 64be
000000b0: a002 44bd b2e4 943e 8828 33be f9ec 78be
000000c0: cc8d 423e 29cd ef3d

nnalign.bn1.running_var f4 [50]
0.18219589 0.17834496 0.10055168 0.053995073 0.15004982 0.19301212 0.28780133 0.09132281
0.040584147 0.043451034 0.07521743 0.15591866 0.13619985 0.018697755 0.1364993 0.11936477
0.2139038 0.12321392 0.010814971 0.21202071 0.010221838 0.081186995 0.107435286 0.11705859
0.04239259 0.05530556 0.15326849 0.06029746 0.093521975 0.13124157 0.039292984 0.05610263
0.20719185 0.12612848 0.18054152 0.15608823 0.06362623 0.07437384 0.13852602 0.17081596
0.11638154 0.08482764 0.1689626 0.15059447 0.010266266 0.2270368 0.09557823 0.14243068
0.095248185 0.045059405
00000000: 8f91 3a3e 10a0 363e 0aee cd3d f029 5d3d
00000010: a9a6 193e f8a4 453e b25a 933e 7407 bb3d
00000020: 903b 263d b6f9 313d 990b 9a3d 24a9 1f3e
00000030: f977 0b3e 092c 993c 79c6 0b3e 8475 f43d
00000040: 9909 5b3e 9457 fc3d 4731 313c f51b 593e
00000050: 7f79 273c 5e45 a63d 0807 dc3d 6abc ef3d
00000060: daa3 2d3d 1588 623d 6af2 1c3e 78fa 763d
00000070: 7388 bf3d 3164 063e aef1 203d dfcb 653d
00000080: 1a2a 543e d327 013e e0df 383e 98d5 1f3e
00000090: 784e 823d 5051 983d c4d9 0d3e 61ea 2e3e
000000a0: 7259 ee3d 1dba ad3d 8804 2d3e 7035 1a3e
000000b0: d733 283c 567c 683e 85be c33d 59d9 113e
000000c0: 7b11 c33d 3690 383d

in_layer.weight f4 [50, 180]
0.002107685 0.023882743 -0.0023232072 0.01917776 0.012349624 -0.008895691 -0.009977764 0.01240632
0.01791282 -0.0016478541 0.011882302 0.012922791 -0.0073903175 -0.005534636 -0.011521398 0.0096296435
6.3103376e-05 0.0109221265 -0.0014295406 -0.013522112 -0.0083448505 0.014350706 -0.007442781 -0.043730717
0.00851038 0.0124744605 -0.009980649 0.014131257 0.011914907 -0.010979792 0.0035384858 0.007426529
0.02405711 0.007384713 -7.4365365e-05 -0.013568216 0.0040262756 0.013223976 -0.006379496 -0.017845144
-0.01821454 0.0132465605 0.008415145 -0.00078903086 0.013101007 0.0013531913 -0.011124835 -0.006048898
-0.010914548 0.0016643651 0.0072755395 0.0059583704 0.014955609 -0.0025415188 -1.4642225e-05 -0.0070587317
-0.0019922645 0.011003017 0.006742689 0.0031215702 0.005638423 -0.032515842 0.017601628 0.017554292
0.016088858 -0.016557163 -0.007228114 0.0011346403 0.0034815406 -0.0049861833 0.0018324523 -0.017472036
0.009535125 0.012648951 -0.013436263 0.014765465 -0.018369803 0.010547453 0.012669181 -0.013557457
-0.00870063 0.011294144 -0.022704385 0.01650915 0.018110882 -0.030784737 -0.004524605 0.0014107946
-0.009253165 0.009949503 -0.009318615 -0.0029272458 0.019729426 -0.0023338024 -0.010140059 -0.0071209786
0.0031816007 0.008770307 0.020801108 -0.014490642 0.0026402646 -0.0051816506 -0.013789036 -0.0052297493
0.020984733 -0.010972795 -0.0048651714 -0.0039044535 -0.025452327 0.010105154 -0.0021717623 0.018559188
-0.024946013 0.0078093763 0.009843139 0.008277537 0.009079566 0.017374532 0.0022397882 0.0034167103
0.018856488 0.012711467 -0.0029242493 0.002878471 0.015248339 -0.021688221 0.013123966 -0.02960307
0.010931069 -0.007584076 0.012231915 -0.038438708 0.021940347 0.011782185 -0.0015262732 0.0022659604
-0.01550365 0.010454296 0.0027420435 -0.016611286 -0.01587405 0.0058734687 -0.0179324 -0.019063992
0.0101295905 0.0011325197 -0.007364357 0.013474386 0.040622864 -0.018242938 -0.012449326 0.034080375
-0.013377596 -0.019118285 0.005474607 0.03930019 0.008097247 -0.0012759012 -0.02988407 -0.008582607
0.025220199 0.013954731 -0.014411475 0.0039750203 -0.008241951 -0.022507548 -0.0017921007 0.036292076
0.053620312 0.009696029 0.009198807 -0.0008532798 0.003655809 0.011111288 0.03207215 -0.031634603
0.018010879 0.006706115 -0.016931135 0.030577622 0.011351162 -0.0050446023 0.024734171 -0.011224102
-0.008895878 -0.005478958 0.0036162012 0.0064094253 -0.004209008 0.0213664 -0.00063944777 0.008738432
-0.0035003063 0.010507639 -0.00073310744 0.027034398 -0.0034622136 0.0016808093 0.003931353 0.028358603
-0.005582725 -0.005223156 -0.005078456 0.025698263 -0.009727961 -0.009976917 0.027586931 -0.016848661
-0.011122664 0.014683491 0.0036973334 -0.0021219193 -0.017988482 -0.0012771467 -0.0084949415 -0.0037201026
-0.011379377 -0.0038696947 -0.0030338855 0.0068182903 0.009825703 0.0068383217 -0.0004383254 0.01829617
-0.00461169 -0.0023259395 -0.003402276 -0.010675264 0.010937299 0.0045073344 0.0011684812 0.009483394
-0.008343354 -0.0048369872 0.008760959 -0.0019481395 -0.007338307 -0.010589061 -0.008667955 -0.0012198293
0.010062542 0.005695527 0.0007262883 -0.006863857 -0.010522655 -0.009201514 0.0070521194 0.0032697353
0.010994097 0.008023735 -0.0017289517 0.0046061184 -0.00952578 -0.009628271 0.004441698 -0.004997835
00000000: 1621 0a3b bea5 c33c f340 18bb ae1a 9d3c
00000010: 1456 4a3c 3bbf 11bc c779 23bc e143 4b3c
00000020: e8bd 923c cffc d7ba fdad 423c 1dba 533c
00000030: 7a2a f2bb e45b b5bb 3fc4 3cbc a7c5 1d3c
00000040: 5e56 8438 b8f2 323c 6c5f bbba d98b 5dbc
00000050: d7b8 08bc 391f 6b3c 92e2 f3bb fb1e 33bd
00000060: 1f6f 0b3c ae61 4c3c e085 23bc ca86 673c
00000070: be36 433c 96e4 33bc f1e5 673b 3e5a f33b
00000080: 6b13 c53c 76fb f13b 9af4 9bb8 394d 5ebc
00000090: d9ee 833b 60a9 583c 170b d1bb fb2f 92bc
000000a0: a936 95bc 1a08 593c addf 093c f7d6 4eba
000000b0: 9ba5 563c 915d b13a f144 36bc d635 c6bb
000000c0: efd2 32bc d326 da3a a667 ee3b 6f3e c33b
000000d0: 5f08 753c 9c8f 26bb e1a7 75b7 ef4c e7bb
000000e0: a790 02bb 0046 343c c6f1 dc3b 4293 4c3b
000000f0: 85c2 b83b 552f 05bd 4a31 903c 05ce 8f3c
00000100: c8cc 833c e3a2 87bc d1d9 ecbb 36b8 943a
00000110: 8f2a 643b 2363 a3bb e52e f03a 8421 8fbc
00000120: 3739 1c3c 8c3d 4f3c c623 5cbc d9ea 713c
00000130: 457c 96bc 39cf 2c3c 6692 4f3c 1920 5ebc
00000140: 168d 0ebc 130b 393c 8cfe b9bc 323e 873c
00000150: 465d 943c 4630 fcbc 2343 94bb 69ea b83a
00000160: 969a 17bc 3d03 233c 1bad 18bc 09d7 3fbb
00000170: 9b9f a13c b5f2 18bb 7d22 26bc 1957 e9bb
00000180: 6782 503b 55b1 0f3c 1667 aa3c 286a 6dbc
00000190: 4a08 2d3b d6ca a9bb 69eb 61bc 515e abbb
000001a0: 2de8 ab3c 3dc7 33bc 046c 9fbb dce1 7fbb
000001b0: 6681 d0bc 1690 253c 2054 0ebb 7009 983c
000001c0: 955b ccbc cce5 ff3b 1e45 213c 829e 073c
000001d0: 76c2 143c 0955 8e3c 69c9 123b e3ea 5f3b
000001e0: ec78 9a3c c243 503c c3a4 3fbb bba4 3c3b
000001f0: 2bd4 793c 7fab b1bc e705 573c 2382 f2bc
00000200: 3a18 333c d783 f8bb 5f68 483c e871 1dbd
00000210: 3ebc b33c 110a 413c 3b0d c8ba 8280 143b
00000220: 0503 7ebc 7f48 2b3c dbb3 333b 6414 88bc
00000230: 4c0a 82bc 3a76 c03b f8e6 92bc 172c 9cbc
00000240: 95f6 253c 0e71 943a b450 f1bb acc3 5c3c
00000250: 2964 263d 3772 95bc 42f8 4bbc dd97 0b3d
00000260: b42d 5bbc f39d 9cbc 5564 b33b 3cf9 203d
00000270: 51aa 043c 243c a7ba 70cf f4bc 109e 0cbc
00000280: 979a ce3c 62a2 643c 1b1e 6cbc e340 823b
00000290: 4009 07bc c061 b8bc ece4 eaba 00a7 143d
000002a0: f9a0 5b3d 18dc 1e3c 98b6 163c a3ae 5fba
000002b0: 4c96 6f3b 1f0c 363c 165e 033d 4993 01bd
000002c0: 8d8b 933c f8be db3b 2ab3 8abc ec7d fa3c
000002d0: 39fa 393c 314d a5bb 519f ca3c 4ce5 37bc
000002e0: 04c0 11bc d588 b3bb cafd 6c3b 2806 d23b
000002f0: b8eb 89bb 9708 af3c 9da0 27ba a42b 0f3c
00000300: 6565 65bb 3b28 2c3c 022e 40ba 3e77 dd3c
00000310: 4ee6 62bb 9a4e dc3a 94d2 803b 4d50 e83c
00000320: 4bef b6bb 0227 abbb 2d69 a6bb 2a85 d23c
00000330: 0762 1fbc 3976 23bc fdfd e13c 3406 8abc
00000340: d63b 36bc 0693 703c f64e 723b e60f 0bbb
00000350: 955c 93bc ef65 a7ba 5e2e 0bbc f7cc 73bb
00000360: 9170 3abc b49a 7dbb 27d4 46bb f76b df3b
00000370: fcfb 203c 0014 e03b 0acf e5b9 d9e1 953c
00000380: a91d 97bb ca6e 18bb b8f8 5ebb 4de7 2ebc
00000390: 5b32 333c 43b2 933b b927 993a 3d60 1b3c
000003a0: 90b2 08bc 977f 9ebb 208a 0f3c b758 ffba
000003b0: 2e76 f0bb be7d 2dbc 0a04 0ebc aee2 9fba
000003c0: 5cdd 243c 8ba1 ba3b 6264 3e3a 35ea e0bb
000003d0: 3767 2cbc f2c1 16bc 7715 e73b 0e49 563b
000003e0: 9620 343c fc75 033c fe9d e2ba ecee 963b
000003f0: 0412 1cbc e5bf 1dbc aa8b 913b e1c4 a3bb

in_layer.bias f4 [50]
-8.223874e-09 -2.3956208e-08 4.453928e-08 2.1324948e-07 1.6142918e-08 1.9177746e-07 -5.382931e-08 -4.848016e-08
-1.1947054e-07 8.214011e-08 -1.3385524e-08 -2.2503555e-08 -9.441055e-10 1.2525675e-08 3.061547e-08 -3.483713e-08
-4.6840274e-08 -6.517417e-09 2.3155707e-08 -1.6026785e-08 1.3016501e-09 5.041866e-08 -1.577438e-08 1.4065664e-09
1.6563991e-08 -9.13621e-09 -2.146648e-08 4.8288467e-08 3.615036e-08 2.3379839e-08 -8.634105e-08 6.806366e-08
1.7126926e-08 1.7869542e-08 -1.7135351e-08 -1.7976733e-08 6.8562485e-09 -1.1427808e-08 -2.9512126e-08 -2.386336e-08
3.5740452e-08 -1.102206e-08 -4.203683e-09 -3.6866226e-08 3.2055222e-08 -1.7633253e-08 1.9785103e-08 9.2465e-09
-7.989088e-09 1.776225e-08
00000000: fb48 0db2 42c8 cdb2 754b 3f33 92f9 6434
00000010: a7aa 8a32 63eb 4d34 f431 67b3 8038 50b3
00000020: d047 00b4 0165 b033 28f6 65b2 d74d c1b2
00000030: c2c1 81b0 8030 5732 117e 0333 d49f 15b3
00000040: 6d2d 49b3 ceef dfb1 f0e7 c632 46ab 89b2
00000050: bee5 b230 e78b 5833 3a80 87b2 2851 c130
00000060: 9a48 8e32 7af5 1cb2 4a65 b8b2 bb65 4f33
00000070: be43 1b33 cfd4 c832 7f6a b9b3 652a 9233
00000080: 821e 9332 8a7f 9932 0931 93b2 416b 9ab2
00000090: 3394 eb31 0854 44b2 da81 fdb2 15fc ccb2
000000a0: 0b81 1933 885b 3db2 fd6f 90b1 d856 1eb3
000000b0: 17ad 0933 ef77 97b2 e7f3 a932 89da 1e32
000000c0: 6140 09b2 9a93 9832

out_layer.weight f4 [1, 50]
-0.2547317 0.2644532 -0.21957529 0.23857595 0.29309338 0.25721136 -0.25553754 0.23683959
-0.20459147 0.24759552 0.22619896 0.25407428 0.22227505 0.20604359 -0.24194288 -0.24378456
0.27178368 -0.21405688 -0.16938046 -0.23926978 0.18151383 -0.1987095 -0.23989706 0.2537688
-0.18594539 -0.18275756 -0.21222061 -0.1973775 -0.24138103 -0.2297816 -0.18086316 -0.22020313
-0.237392 -0.22859883 0.23568857 -0.20847394 0.22745878 -0.19090614 0.25383294 -0.23575929
-0.24752373 -0.17843086 -0.24494655 -0.24864417 -0.15253873 0.28353852 -0.22306833 -0.18143333
0.23423693 0.2237483
00000000: 326c 82be 6966 873e 58d8 60be 414d 743e
00000010: 5610 963e 35b1 833e d1d5 82be 1486 723e
00000020: 6d80 51be ae89 7d3e b3a0 673e 0616 823e
00000030: 129c 633e 17fd 523e e0bf 77be a9a2 79be
00000040: 3b27 8b3e ba31 5bbe 1272 2dbe 2303 75be
00000050: c3de 393e 817a 4bbe 93a7 75be fced 813e
00000060: 7868 3ebe cc24 3bbe 5c50 59be 541d 4abe
00000070: 972c 77be de4b 6bbe 3134 39be ee7c 61be
00000080: e316 73be d015 6abe 5858 713e 317a 55be
00000090: f4ea 683e e67c 43be 64f6 813e e26a 71be
000000a0: dc76 7dbe 94b6 36be 45d3 7abe 949c 7ebe
000000b0: 1d33 1cbe f62b 913e 066c 64be a9c9 39be
000000c0: cedb 6f3e 461e 653e

bn1.weight f4 [50]
0.446463 0.45227897 0.44043443 0.4547795 0.4426898 0.46471184 0.42991328 0.45011345
0.4698057 0.49487367 0.4376508 0.4722557 0.46006033 0.4772084 0.4594377 0.44805467
0.45409882 0.4465985 0.4750367 0.4533401 0.48967382 0.44824088 0.45419875 0.45351678
0.44960478 0.44400615 0.46149597 0.46092927 0.44518593 0.49204683 0.43394446 0.45234403
0.4593002 0.46864095 0.47136217 0.43250722 0.4417609 0.4533333 0.48969182 0.48263034
0.44766232 0.42562726 0.43165973 0.44078004 0.44712764 0.4807529 0.4590098 0.44512364
0.43062553 0.45020732
00000000: cc96 e43e 1c91 e73e 9f80 e13e dcd8 e83e
00000010: 3da8 e23e b6ee ed3e 981d dc3e 4575 e63e
00000020: 5f8a f03e 1560 fd3e c413 e03e 80cb f13e
00000030: 078d eb3e a954 f43e 6b3b eb3e 6c67 e53e
00000040: a47f e83e 8fa8 e43e 0338 f33e 321c e83e
00000050: 87b6 fa3e d47f e53e bd8c e83e 5a33 e83e
00000060: 9932 e63e c654 e33e 3349 ec3e ecfe eb3e
00000070: 69ef e33e 90ed fb3e f82d de3e a399 e73e
00000080: 6529 eb3e b5f1 ef3e 6256 f13e 9671 dd3e
00000090: 7c2e e23e 4d1b e83e e3b8 fa3e 531b f73e
000000a0: ff33 e53e d1eb d93e 8102 dd3e ecad e13e
000000b0: eaed e43e 3e25 f63e 5503 eb3e 3fe7 e33e
000000c0: f37a dc3e 9381 e63e

bn1.bias f4 [50]
0.10375948 -0.113093376 0.09856211 -0.116555154 -0.122198306 -0.11256618 0.10649955 -0.12316315
0.103486426 -0.12891886 -0.11106401 -0.11071867 -0.104356736 -0.12335967 0.10415369 0.1030416
-0.120805785 0.09577688 0.067569785 0.10101958 -0.10549391 0.091874555 0.10590152 -0.12425046
0.09917227 0.08407366 0.0935767 0.08790662 0.10867495 0.098011576 0.08915685 0.10351988
0.09962812 0.09901732 -0.11037006 0.09583016 -0.11386624 0.08549477 -0.10193088 0.09628638
0.10101521 0.084163 0.10354119 0.105254464 0.06915586 -0.1144368 0.09722244 0.089691654
-0.11181594 -0.11475637
00000000: da7f d43d 809d e7bd eeda c93d 78b4 eebd
00000010: 1b43 fabd 1989 e6bd 701c da3d f63c fcbd
00000020: b1f0 d33d 4e03 04be 8775 e3bd 78c0 e2bd
00000030: fcb8 d5bd ffa3 fcbd 884e d53d 7907 d33d
00000040: 0669 f7bd ab26 c43d 0762 8a3d 5be3 ce3d
00000050: 310d d8bd ba28 bc3d e5e2 d83d 0677 febd
00000060: d51a cb3d d02e ac3d 24a5 bf3d 6308 b43d
00000070: f990 de3d 4bba c83d de97 b63d 3b02 d43d
00000080: d409 cc3d 98c9 ca3d b309 e2bd 9a42 c43d
00000090: b432 e9bd e217 af3d 23c1 d0bd cb31 c53d
000000a0: 10e1 ce3d a75d ac3d 670d d43d a78f d73d
000000b0: 96a1 8d3d d75d eabd 8f1c c73d 42b0 b73d
000000c0: c1ff e4bd 6305 ebbd

bn1.running_mean f4 [50]
-0.2457165 0.26237786 -0.19024134 0.12710157 0.230961 0.2738812 -0.32966173 0.17634572
-0.076708764 0.068169035 0.16775025 0.23982996 0.22516955 0.041915588 -0.22339202 -0.19658385
0.28271258 -0.21629938 -0.022352843 -0.27113616 0.02545048 -0.16211428 -0.18601266 0.20755139
-0.10766165 -0.13786808 -0.233731 -0.13484105 -0.18261021 -0.20474868 -0.11090353 -0.1245348
-0.27271533 -0.20520017 0.25887755 -0.24732746 0.15180326 -0.15642197 0.21908462 -0.23755129
-0.19301286 -0.17583342 -0.25128824 -0.22308028 -0.047854066 0.2908073 -0.1749593 -0.24309148
0.18999404 0.11709053
00000000: 1b9d 7bbe 6456 863e a0ce 42be ea26 023e
00000010: 0a81 6c3e 283a 8c3e 6cc9 a8be f993 343e
00000020: 7c19 9dbd 359c 8b3d b9c6 2b3e fc95 753e
00000030: d992 663e aeaf 2b3d e1c0 64be 474d 49be
00000040: b4bf 903e 967d 5dbe 4f1d b7bc 5cd2 8abe
00000050: 867d d03c 4901 26be 1a7a 3ebe 5a88 543e
00000060: b67d dcbd 4a2d 0dbe 2e57 6fbe c613 0abe
00000070: 2cfe 3abe a3a9 51be 6421 e3bd 1a0c ffbd
00000080: 58a1 8bbe fe1f 52be 998b 843e 6943 7dbe
00000090: 5072 1b3e 152d 20be b857 603e a540 73be
000000a0: 2aa5 45be ad0d 34be daa8 80be 286f 64be
000000b0: a002 44bd b2e4 943e 8828 33be f9ec 78be
000000c0: cc8d 423e 29cd ef3d

bn1.running_var f4 [50]
0.18219589 0.17834496 0.10055168 0.053995073 0.15004982 0.19301212 0.28780133 0.09132281
0.040584147 0.043451034 0.07521743 0.15591866 0.13619985 0.018697755 0.1364993 0.11936477
0.2139038 0.12321392 0.010814971 0.21202071 0.010221838 0.081186995 0.107435286 0.11705859
0.04239259 0.05530556 0.15326849 0.06029746 0.093521975 0.13124157 0.039292984 0.05610263
0.20719185 0.12612848 0.18054152 0.15608823 0.06362623 0.07437384 0.13852602 0.17081596
0.11638154 0.08482764 0.1689626 0.15059447 0.010266266 0.2270368 0.09557823 0.14243068
0.095248185 0.045059405
00000000: 8f91 3a3e 10a0 363e 0aee cd3d f029 5d3d
00000010: a9a6 193e f8a4 453e b25a 933e 7407 bb3d
00000020: 903b 263d b6f9 313d 990b 9a3d 24a9 1f3e
00000030: f977 0b3e 092c 993c 79c6 0b3e 8475 f43d
00000040: 9909 5b3e 9457 fc3d 4731 313c f51b 593e
00000050: 7f79 273c 5e45 a63d 0807 dc3d 6abc ef3d
00000060: daa3 2d3d 1588 623d 6af2 1c3e 78fa 763d
00000070: 7388 bf3d 3164 063e aef1 203d dfcb 653d
00000080: 1a2a 543e d327 013e e0df 383e 98d5 1f3e
00000090: 784e 823d 5051 983d c4d9 0d3e 61ea 2e3e
000000a0: 7259 ee3d 1dba ad3d 8804 2d3e 7035 1a3e
000000b0: d733 283c 567c 683e 85be c33d 59d9 113e
000000c0: 7b11 c33d 3690 383d

mu f4 [180]
-0.60055095 -1.1780956 -0.8721754 -1.2394817 -2.049803 -0.4610431 -0.7967655 -1.62669
-1.1639129 -1.4074941 -1.3360739 -0.69176054 -0.79322326 -1.8603959 -1.3996992 -0.46022603
-0.4652015 -2.5860307 -1.2081077 -1.1999506 -0.60483754 -1.1717561 -0.8686816 -1.2286432
-2.053543 -0.450997 -0.7886704 -1.6321846 -1.157 -1.4147285 -1.3427237 -0.68400365
-0.79588675 -1.8687384 -1.3907561 -0.46044686 -0.4665916 -2.5861464 -1.2083795 -1.2070694
-0.6002491 -1.167885 -0.8677946 -1.2295833 -2.0527563 -0.44626653 -0.78792226 -1.6305343
-1.1514319 -1.4130471 -1.3402876 -0.67950696 -0.7910743 -1.8688909 -1.4010925 -0.4585027
-0.46734938 -2.586163 -1.2055911 -1.2055551 -0.6042785 -1.1564937 -0.8689955 -1.2347208
-2.0537684 -0.44314685 -0.78707725 -1.635322 -1.1429311 -1.4158427 -1.3409506 -0.67305255
-0.79093987 -1.8642137 -1.4049613 -0.45967132 -0.46929482 -2.586105 -1.1990271 -1.2084559
-0.6026788 -1.1449565 -0.8669701 -1.2379647 -2.0498085 -0.440843 -0.7858974 -1.6277037
-1.1363131 -1.4267107 -1.3506285 -0.6647201 -0.7976303 -1.8649589 -1.4060398 -0.45532018
-0.4683028 -2.5862222 -1.1951907 -1.2167988 -0.5969537 -1.1240528 -0.85348266 -1.2216781
-2.0563412 -0.42562038 -0.7715126 -1.6077943 -1.123044 -1.4547435 -1.3748224 -0.6452427
-0.81458485 -1.8865646 -1.3955514 -0.43973738 -0.46449 -2.5957158 -1.202217 -1.2395767
-0.59698486 -1.1132622 -0.8511991 -1.2151697 -2.0610194 -0.41959414 -0.76108056 -1.5981319
-1.1136993 -1.4720839 -1.3855547 -0.6341012 -0.824008 -1.8896515 -1.3942803 -0.43745023
-0.46961468 -2.5974522 -1.2023885 -1.2564114 -0.5989939 -1.111311 -0.8524826 -1.2163416
-2.0634491 -0.4180731 -0.7575263 -1.6024287 -1.1112827 -1.4728866 -1.3850907 -0.6321081
-0.82307357 -1.8877797 -1.3889337 -0.44159737 -0.47125745 -2.5961585 -1.198346 -1.2576445
-0.5985149 -1.0958611 -0.85136974 -1.2305167 -2.0622082 -0.4110946 -0.7538818 -1.6013623
-1.0985978 -1.4808182 -1.3895372 -0.61769795 -0.8232016 -1.8841693 -1.3900315 -0.43901652
-0.47047296 -2.5918489 -1.1915655 -1.2638272
00000000: b5bd 19bf d6cb 96bf e346 5fbf 56a7 9ebf
00000010: f92f 03c0 d70d ecbe d3f8 4bbf 6137 d0bf
00000020: 19fb 94bf c428 b4bf 7804 abbf 3817 31bf
00000030: ae10 4bbf 7421 eebf 5829 b3bf bfa2 ebbe
00000040: e42e eebe 8781 25c0 46a3 9abf fb97 99bf
00000050: a2d6 1abf 1bfc 95bf eb61 5ebf 2e44 9dbf
00000060: 406d 03c0 14e9 e6be 4ee6 49bf 6deb d0bf
00000070: 9318 94bf d315 b5bf 5fde abbf dd1a 2fbf
00000080: 3cbf 4bbf d232 efbf 4c04 b2bf b1bf ebbe
00000090: 18e5 eebe 6c83 25c0 2eac 9abf 4081 9abf
000000a0: eda9 19bf 417d 95bf c927 5ebf fc62 9dbf
000000b0: 5c60 03c0 0c7d e4be 46b5 49bf 59b5 d0bf
000000c0: 1f62 93bf bade b4bf 8b8e abbf 2bf4 2dbf
000000d0: d883 4abf d137 efbf 0057 b3bf dec0 eabe
000000e0: 6b48 efbe b283 25c0 cf50 9abf a14f 9abf
000000f0: ffb1 1abf fc07 94bf 7d76 5ebf 550b 9ebf
00000100: f170 03c0 25e4 e2be e57d 49bf 3b52 d1bf
00000110: 914b 92bf 553a b5bf 45a4 abbf 2c4d 2cbf
00000120: 097b 4abf 8e9e eebf c6d5 b3bf 0a5a ebbe
00000130: 6947 f0be bf82 25c0 b879 99bf afae 9abf
00000140: 2849 1abf ef8d 92bf c1f1 5dbf a175 9ebf
00000150: 1030 03c0 2cb6 e1be 9230 49bf 9858 d0bf
00000160: b572 91bf 759e b6bf 65e1 acbf 192b 2abf
00000170: 8031 4cbf f9b6 eebf 1df9 b3bf ba1f e9be
00000180: 62c5 efbe aa84 25c0 02fc 98bf 10c0 9bbf
00000190: f5d1 18bf f6e0 8fbf d77d 5abf f35f 9cbf
000001a0: 189b 03c0 eaea d9be da81 45bf 34cc cdbf
000001b0: e8bf 8fbf 0935 babf 2efa afbf a02e 25bf
000001c0: a288 50bf f37a f1bf 6ea1 b2bf 4225 e1be
000001d0: a2d1 edbe 3520 26c0 3fe2 99bf 73aa 9ebf
000001e0: 00d4 18bf 607f 8ebf 2fe8 59bf ae8a 9bbf
000001f0: bee7 03c0 0bd5 d6be 2dd6 42bf 968f ccbf
00000200: b38d 8ebf 3f6d bcbf db59 b1bf 7554 22bf
00000210: 30f2 52bf 1ae0 f1bf c777 b2bf 7af9 dfbe
00000220: 5671 f0be a83c 26c0 dee7 99bf 17d2 a0bf
00000230: aa57 19bf 703f 8ebf 4d3c 5abf 15b1 9bbf
00000240: 8d0f 04c0 ad0d d6be 3eed 41bf 621c cdbf
00000250: 833e 8ebf 8c87 bcbf a74a b1bf d6d1 21bf
00000260: f3b4 52bf c4a2 f1bf 94c8 b1bf 0d19 e2be
00000270: a848 f1be 7627 26c0 6763 99bf 7ffa a0bf
00000280: 4638 19bf 2d45 8cbf 5ef3 59bf 9281 9dbf
00000290: 38fb 03c0 fe7a d2be 66fe 40bf 71f9 ccbf
000002a0: da9e 8cbf 738b bdbf 5bdc b1bf 7421 1ebf
000002b0: 57bd 52bf 762c f1bf 8dec b1bf c6c6 e0be
000002c0: d5e1 f0be dae0 25c0 3885 98bf 17c5 a1bf

sigma f4 [180]
1.7233424 2.5954492 2.2465284 2.8699932 2.5636287 2.1473978 2.4047225 2.9080405
2.238885 2.88354 2.870769 2.3165677 2.1682022 2.95389 2.9245653 2.0436254
1.5164269 2.7717786 2.1173549 2.634495 1.7207693 2.5970953 2.2427852 2.8760345
2.5710893 2.149384 2.4022396 2.8993793 2.240138 2.8834991 2.870571 2.318556
2.1728086 2.9555705 2.9296556 2.0400915 1.5150543 2.7781675 2.1209064 2.6354315
1.725555 2.5944974 2.2396817 2.8767676 2.5669804 2.1521685 2.400185 2.8988972
2.2453172 2.8832536 2.8693616 2.3207655 2.174696 2.9529731 2.9131327 2.0411575
1.5140721 2.7718964 2.1206186 2.6349878 1.7255068 2.6040294 2.2380397 2.8730567
2.5644329 2.153398 2.4000967 2.8971262 2.2514975 2.8840616 2.8697338 2.3243637
2.1727247 2.955337 2.9070864 2.0412421 1.5130653 2.7675867 2.124044 2.6334229
1.7273941 2.610349 2.2292986 2.864138 2.5701985 2.1505148 2.3950236 2.9011652
2.2485225 2.8817542 2.866108 2.327663 2.1701713 2.9582434 2.9048142 2.0365338
1.5169557 2.763584 2.131181 2.631345 1.727605 2.61414 2.213561 2.8536851
2.5704405 2.1458974 2.3887787 2.9067976 2.242666 2.8755338 2.8609557 2.3258212
2.1676188 2.9561656 2.8987699 2.0321956 1.5207759 2.754653 2.1337333 2.6249938
1.7301391 2.6189501 2.2056549 2.8525503 2.5690863 2.1434042 2.3936288 2.9129646
2.241624 2.8698962 2.8567276 2.3308408 2.1632535 2.959567 2.895059 2.0291667
1.5197853 2.750873 2.1374698 2.6183138 1.7293681 2.6206574 2.2068863 2.8498354
2.5718172 2.1430666 2.3964026 2.9125102 2.2412405 2.8637872 2.8536522 2.3319952
2.1615224 2.9554312 2.9046233 2.0255098 1.5200484 2.7446074 2.1403103 2.611891
1.7272527 2.6253898 2.2031312 2.8223362 2.5700507 2.1443307 2.394934 2.9148967
2.2460468 2.857158 2.8483837 2.3390913 2.153203 2.9550662 2.9005978 2.0239513
1.5239912 2.7403646 2.1445215 2.604969
00000000: 7c96 dc3f d71b 2640 1fc7 0f40 f8ad 3740
00000010: 7e12 2440 f76e 0940 f9e6 1940 561d 3a40
00000020: e449 0f40 eb8b 3840 aeba 3740 a542 1440
00000030: d3c3 0a40 890c 3d40 142c 3b40 c2ca 0240
00000040: 471a c23f d264 3140 be82 0740 919b 2840
00000050: 2b42 dc3f cf36 2640 cb89 0f40 f310 3840
00000060: ba8c 2440 828f 0940 4bbe 1940 6e8f 3940
00000070: 6c5e 0f40 408b 3840 6fb7 3740 3963 1440
00000080: 4c0f 0b40 1128 3d40 7a7f 3b40 dc90 0240
00000090: 4ded c13f 7fcd 3140 eebc 0740 e9aa 2840
000000a0: fcde dc3f 3f0c 2640 f256 0f40 f61c 3840
000000b0: 6849 2440 21bd 0940 a29c 1940 8887 3940
000000c0: 47b3 0f40 3a87 3840 9fa3 3740 6c87 1440
000000d0: 382e 0b40 83fd 3c40 c470 3a40 53a2 0240
000000e0: 1dcd c13f c066 3140 37b8 0740 a4a3 2840
000000f0: 68dd dc3f 6ba8 2640 0b3c 0f40 29e0 3740
00000100: ab1f 2440 46d1 0940 2f9b 1940 846a 3940
00000110: 8918 1040 7794 3840 b8a9 3740 60c2 1440
00000120: ec0d 0b40 3e24 3d40 b40d 3a40 b6a3 0240
00000130: 20ac c13f 2420 3140 56f0 0740 008a 2840
00000140: 401b dd3f f50f 2740 d4ac 0e40 094e 3740
00000150: 227e 2440 09a2 0940 1148 1940 b1ac 3940
00000160: cbe7 0f40 a96e 3840 506e 3740 6ef8 1440
00000170: 16e4 0a40 dc53 3d40 7ae8 3940 9256 0240
00000180: 9b2b c23f 8fde 3040 4565 0840 f567 2840
00000190: 2922 dd3f 124e 2740 fcaa 0d40 c7a2 3640
000001a0: 1982 2440 6256 0940 c0e1 1840 f908 3a40
000001b0: d787 0f40 bf08 3840 e619 3740 41da 1440
000001c0: 44ba 0a40 d131 3d40 7285 3940 7e0f 0240
000001d0: c9a8 c23f 3c4c 3040 168f 0840 e6ff 2740
000001e0: 3375 dd3f e19c 2740 7329 0d40 2f90 3640
000001f0: e96b 2440 892d 0940 3731 1940 036e 3a40
00000200: c576 0f40 61ac 3740 a0d4 3640 7f2c 1540
00000210: bf72 0a40 8c69 3d40 a648 3940 dedd 0140
00000220: 5388 c23f 4e0e 3040 4ecc 0840 7492 2740
00000230: ef5b dd3f dab8 2740 a03d 0d40 b463 3640
00000240: a798 2440 0128 0940 a95e 1940 9166 3a40
00000250: 7c70 0f40 4a48 3740 3da2 3640 693f 1540
00000260: 6256 0a40 c925 3d40 59e5 3940 f4a1 0140
00000270: f290 c23f a6a7 2f40 d8fa 0840 3929 2740
00000280: 9e16 dd3f 6306 2840 1a00 0d40 28a1 3440
00000290: b67b 2440 b73c 0940 9946 1940 ab8d 3a40
000002a0: 3bbf 0f40 addb 3640 eb4b 3640 acb3 1540
000002b0: 14ce 0940 ce1f 3d40 65a3 3940 6b88 0140
000002c0: 2512 c33f 2262 2f40 d73f 0940 d0b7 2640
