output/carlos_experiments/231114_complete_nobnorm_noburn/CSL_complete_noburn_60nh_all_KFold_5_231114_1842_None/checkpoint_best_kcv_train_all5_correct_f05_CSL_complete_noburn_60nh_all_KFold_5_231114_1842_None.pt (torch, 221535 bytes, 3 tensors)

in_layer.weight f4 [60, 914]
0	0xb622c3be	-2.4253818e-06
1	0xb602c18e	-1.9484173e-06
2	0xb57c3267	-9.395066e-07
3	0x347091b2	2.2404745e-07
4	0x357c58e2	9.4006657e-07
5	0xb61fc19f	-2.3805549e-06
6	0xb5d1b3c6	-1.5624034e-06
7	0x35198d08	5.720217e-07
8	0xb5cb0cae	-1.5128369e-06
9	0x35d2079e	1.5648436e-06
10	0x3616cf0c	2.247226e-06
11	0xb60082b4	-1.9149566e-06
12	0x35b93374	1.3798549e-06
13	0x36227b05	2.4211488e-06
14	0x34f99587	4.648866e-07
15	0xb610499c	-2.1500518e-06
16	0xb40cb368	-1.3103784e-07
17	0x34d694f0	3.9968972e-07
18	0xb4cc4514	-3.8048222e-07
19	0x3581dab6	9.674902e-07
20	0xb4816d73	-2.4107757e-07
21	0xb60ff6d2	-2.1452329e-06
22	0x346564e8	2.1363996e-07
23	0x3560b89e	8.3715156e-07
24	0x3593b000	1.1003576e-06
25	0xb5d6055f	-1.5945806e-06
26	0xb5a1135a	-1.2001067e-06
27	0x35d433a4	1.581026e-06
28	0xb611cd47	-2.172617e-06
29	0xb502d7c2	-4.874274e-07
30	0xb45bfc34	-2.0487715e-07
31	0xb63824e6	-2.7439614e-06
32	0xb557324c	-8.0166933e-07
33	0xb4ec5226	-4.4018196e-07
34	0x3504775e	4.9347534e-07
35	0x351452b6	5.5254657e-07
36	0x34c4d1ec	3.6660583e-07
37	0xb5a34d66	-1.2166972e-06
38	0xb612e80e	-2.189077e-06
39	0x34035a78	1.2233238e-07
40	0x35b8fe15	1.3783016e-06
41	0x35b939f2	1.3800438e-06
42	0x351ce386	5.844562e-07
43	0x3528f270	6.293767e-07
44	0xb4cf25ea	-3.858434e-07
45	0x35ce4054	1.5366918e-06
46	0x34c69e60	3.6995607e-07
47	0x35a213d0	1.2075707e-06
48	0x35bdf2cb	1.4152259e-06
49	0xb6040daa	-1.9677486e-06
50	0xb65816a9	-3.2199698e-06
51	0x36397d75	2.7640174e-06
52	0xb5da1542	-1.6248453e-06
53	0xb659c874	-3.24522e-06
54	0x35a430ab	1.2233116e-06
55	0x34ae2127	3.2434147e-07
56	0xb4ec0678	-4.3963132e-07
57	0x34068958	1.2529688e-07
58	0xb58850b5	-1.0156278e-06
59	0xb59bf962	-1.162098e-06
60	0xb4ce1aac	-3.8389896e-07
61	0xb4f04d6c	-4.4759815e-07
62	0xb5268588	-6.203413e-07
63	0xb51187c1	-5.421426e-07
64	0x3500d18e	4.798866e-07
65	0xb580b2a5	-9.588736e-07
66	0xb49f4584	-2.9666637e-07
67	0x355fa753	8.331746e-07
68	0x351cdd9c	5.843701e-07
69	0xb3a10990	-7.498886e-08
70	0x32a43928	1.9118104e-08
71	0xb3171e30	-3.5184883e-08
72	0x353c1548	7.0066426e-07
73	0x33e7a1c4	1.0786201e-07
74	0x3380b4f2	5.993378e-08
75	0xb38a5d00	-6.4430424e-08
76	0x35883f08	1.0151134e-06
77	0x34b84218	3.432076e-07
78	0xb5ba19e8	-1.386562e-06
79	0x32623580	1.3167096e-08
80	0xb3709518	-5.6014954e-08
81	0x35a762bf	1.2471208e-06
82	0xb52e6f1a	-6.4981725e-07
83	0xb5977bb2	-1.1286377e-06
84	0x34ebc57a	4.3915844e-07
85	0xb6038fec	-1.9604295e-06
86	0xb5b7822e	-1.367245e-06
87	0x342a7e18	1.5878356e-07
88	0x34687fef	2.1653226e-07
89	0x35821969	9.69315e-07
90	0xb480e281	-2.400666e-07
91	0x344c44b0	1.9023969e-07
92	0xb582cdb3	-9.745621e-07
93	0x3440296c	1.7896463e-07
94	0xb6049c46	-1.9760496e-06
95	0x33f87d78	1.15712226e-07
96	0xb42cc5dc	-1.6090729e-07
97	0x35116f84	5.4178986e-07
98	0xb5076738	-5.044162e-07
99	0x35c72279	1.4836688e-06
100	0x33f8955c	1.1575568e-07
101	0x3515bbb2	5.577996e-07
102	0xb43647f0	-1.6976242e-07
103	0x361b1760	2.3110406e-06
104	0xb620c815	-2.395832e-06
105	0x355222f3	7.8281954e-07
106	0x361db053	2.3497457e-06
107	0xb45b666a	-2.0433222e-07
108	0x35262f50	6.190867e-07
109	0xb59dc2a9	-1.1754065e-06
110	0x346e0458	2.2167058e-07
111	0x35b452dd	1.3435161e-06
112	0xb5c4471b	-1.4623832e-06
113	0x355a88d6	8.141045e-07
114	0x34759672	2.2872135e-07
115	0x359bf5a0	1.1619886e-06
116	0xb44f487c	-1.9304747e-07
117	0x35cd8622	1.5312728e-06
118	0x33e87b08	1.0825721e-07
119	0xb603fcc2	-1.9667646e-06
120	0x3568f09c	8.677687e-07
121	0xb5ca9732	-1.5094176e-06
122	0x353eaa63	7.102846e-07
123	0xb51cd680	-5.842667e-07
124	0x35a30e34	1.214858e-06
125	0xb5ea86aa	-1.7473551e-06
126	0xb5a03287	-1.1935634e-06
127	0x34a5a99f	3.085706e-07
128	0xb4ab37ea	-3.1891915e-07
129	0xb5110c14	-5.4034285e-07
130	0xb5728bdb	-9.035554e-07
131	0xb567ee09	-8.640059e-07
132	0xb5d6c19f	-1.6000594e-06
133	0x3530cb88	6.5861286e-07
134	0x357d39bd	9.4333865e-07
135	0x35f8a854	1.852643e-06
136	0x35727ae7	9.033087e-07
137	0x35d5c040	1.5925689e-06
138	0x35931ae2	1.0960177e-06
139	0xb58af757	-1.0353787e-06
140	0x34c3d62e	3.6477417e-07
141	0xb6b77888	-5.4678567e-06
142	0x355106e7	7.786861e-07
143	0xb4cb7680	-3.7897917e-07
144	0xb46a0084	-2.1793136e-07
145	0xb561ed38	-8.416423e-07
146	0xb4f473c4	-4.5532772e-07
147	0x3574be9c	9.1174456e-07
148	0xb5a71c9a	-1.2450794e-06
149	0x35baf799	1.393014e-06
150	0x35a43490	1.223425e-06
151	0xb61550a8	-2.2249678e-06
152	0x35720198	9.0154344e-07
153	0x34e4d0d8	4.2620263e-07
154	0x3561386e	8.390115e-07
155	0x32f10560	2.8058537e-08
156	0x3518a9ec	5.687168e-07
157	0x3583bd2c	9.815317e-07
158	0xb63d2437	-2.8184274e-06
159	0x352906f7	6.296754e-07
160	0xb68576d2	-3.9775414e-06
161	0xb4b6c3ee	-3.40427e-07
162	0xb58dda52	-1.0568858e-06
163	0x345fb306	2.0833622e-07
164	0x35031aba	4.8840195e-07
165	0xb590c7ba	-1.0786964e-06
166	0xb5d75e6f	-1.6046232e-06
167	0xb56ceae4	-8.825866e-07
168	0x3491dac4	2.7167528e-07
169	0x35d96f50	1.6200156e-06
170	0x365fdae8	3.335701e-06
171	0xb5ea09a2	-1.7437162e-06
172	0x3673cab8	3.632782e-06
173	0x35d0bd19	1.5552242e-06
174	0x3506aff8	5.017496e-07
175	0xb65fcaa4	-3.3347542e-06
176	0x357d78c2	9.442557e-07
177	0x35bce646	1.407411e-06
178	0x35c303c1	1.4529725e-06
179	0x3592cc82	1.0937367e-06
180	0xb541bae7	-7.217008e-07
181	0xb48251cc	-2.4273902e-07
182	0xb41a66ba	-1.437974e-07
183	0x3296f22c	1.7572425e-08
184	0xb47a683e	-2.3320987e-07
185	0xb39215d2	-6.802624e-08
186	0x33a65451	7.7453144e-08
187	0xb4d866f4	-4.0308043e-07
188	0xb40ac346	-1.2923292e-07
189	0xb45706a4	-2.0025851e-07
190	0xb48ef566	-2.6628112e-07
191	0xb409890c	-1.2808977e-07
192	0xb388a1a6	-6.362397e-08
193	0x34362ef4	1.6967152e-07
194	0xb4c2e838	-3.6304277e-07
195	0xb5166ca5	-5.6037453e-07
196	0xb4b4619f	-3.359864e-07
197	0xb36eea40	-5.5626742e-08
198	0xb312e888	-3.420476e-08
199	0xb4ce2180	-3.8394865e-07
200	0xb4bebc98	-3.5527478e-07
201	0xb5578f35	-8.0302135e-07
202	0xb5082f7f	-5.0733064e-07
203	0xb5280a7a	-6.260012e-07
204	0xb542187b	-7.2306256e-07
205	0xb53c2c94	-7.010033e-07
206	0xb5752ab4	-9.1331754e-07
207	0xb4c9eac6	-3.7609988e-07
208	0xb4f0a2c7	-4.482192e-07
209	0xb47e2da3	-2.3672196e-07
210	0x340c7c7a	1.30838e-07
211	0xb56fe81c	-8.93722e-07
212	0xb4cc1267	-3.801135e-07
213	0xb51071a0	-5.3809526e-07
214	0xb50ba063	-5.201493e-07
215	0xb4fb1758	-4.6769378e-07
216	0xb4bed8cb	-3.5547995e-07
217	0xb4b7ad17	-3.4212346e-07
218	0xb48e97ff	-2.6560153e-07
219	0xb4af3165	-3.263223e-07
220	0xb5ad2adc	-1.2901978e-06
221	0xb51bb4b8	-5.800498e-07
222	0xb5d9b1c2	-1.6219494e-06
223	0x34c09fe2	3.5879117e-07
224	0x3388b90e	6.366655e-08
225	0x3508c313	5.094782e-07
226	0xb4672407	-2.1526658e-07
227	0xb5866d31	-1.0015557e-06
228	0x3508e3d4	5.099548e-07
229	0xb4890e5c	-2.5528686e-07
230	0x352f1a1e	6.5230586e-07
231	0x35052d99	4.9612714e-07
232	0x33a66d7c	7.7498925e-08
233	0xb53bb2ed	-6.99233e-07
234	0xb52ad67a	-6.364204e-07
235	0x34854fc6	2.4831223e-07
236	0x3462c6ff	2.1120285e-07
237	0xb4784f7a	-2.3125713e-07
238	0x350401be	4.9176367e-07
239	0xb687651a	-4.0350833e-06
240	0x35aad559	1.2728079e-06
241	0xb4ac64c2	-3.2110808e-07
242	0x3579064c	9.276889e-07
243	0xb4c41542	-3.6523312e-07
244	0xb5a8be54	-1.2572368e-06
245	0x35aad559	1.2728079e-06
246	0x35121104	5.4414e-07
247	0x35cd1e52	1.5282515e-06
248	0xb5259540	-6.168448e-07
249	0x33a7c03f	7.811513e-08
250	0xb52ad67a	-6.364204e-07
251	0x33254ae0	3.8485155e-08
252	0x35af2cf9	1.3051605e-06
253	0xb511ca41	-5.431103e-07
254	0xb5a07ac1	-1.1956655e-06
255	0x341dd780	1.4700163e-07

in_layer.bias f4 [60]
0	0xb5448f8e	-7.322459e-07
1	0xb3704536	-5.59423e-08
2	0x39add548	0.00033156038
3	0xb9939c43	-0.0002815445
4	0xae87d510	-6.176937e-11
5	0x39b48b03	0.00034435847
6	0x39ae7dac	0.000332815
7	0xb48af4f6	-2.5882736e-07
8	0xb2d5421c	-2.4826527e-08
9	0x37ae8e1c	2.0808591e-05
10	0x34bf2b1b	3.5607886e-07
11	0xb6282630	-2.5056179e-06
12	0x2d82f46b	1.4887832e-11
13	0xb6400bb6	-2.8617046e-06
14	0x34aea5aa	3.2530562e-07
15	0xb912bd50	-0.0001399417
16	0x37803364	1.528272e-05
17	0xb7b1d604	-2.1199703e-05
18	0x39d3bae9	0.00040384315
19	0xb9755850	-0.0002339792
20	0x2ea260c0	7.384093e-11
21	0x35ab3f68	1.2758946e-06
22	0xb7d60724	-2.5514113e-05
23	0xb8de2a6c	-0.000105936866
24	0x39989a44	0.00029106636
25	0xb94f155e	-0.00019749018
26	0x3a2d10de	0.00066019397
27	0xb5a7dece	-1.2507314e-06
28	0x3971a480	0.00023044832
29	0x332d770c	4.0387974e-08
30	0xb68081dc	-3.829815e-06
31	0xb9d947c1	-0.00041442926
32	0xb593272a	-1.0963752e-06
33	0xb91a86b4	-0.00014736765
34	0x32d0d230	2.430997e-08
35	0xb82e7132	-4.1590254e-05
36	0x8001ed1f	-1.76899e-40
37	0x313d2a40	2.7527136e-09
38	0x3623e86d	2.4424182e-06
39	0xb15e0934	-3.2310483e-09
40	0x304c1016	7.4237627e-10
41	0xb147d316	-2.90783e-09
42	0xadeb28f6	-2.6734597e-11
43	0xb9865b17	-0.0002562634
44	0x1f5f46c6	4.728063e-20
45	0xb8d9dab8	-0.00010388106
46	0x3939ebb2	0.00017730778
47	0x38de73de	0.00010607367
48	0xb8895af5	-6.549611e-05
49	0xb8091cba	-3.26901e-05
50	0x15addc92	7.022214e-26
51	0x394bdd1d	0.0001944196
52	0xb7b8d75a	-2.203479e-05
53	0x38979eb8	7.229805e-05
54	0x39ecf270	0.00045194058
55	0x33ad2852	8.0632745e-08
56	0xb9129911	-0.00013980667
57	0xb56d2b26	-8.835217e-07
58	0x32e74b14	2.6926081e-08
59	0x3982731d	0.00024881298

out_layer.weight f4 [1, 60]
0	0x37c54e48	2.3520683e-05
1	0xb4738d34	-2.2682508e-07
2	0xbe1162c8	-0.14197838
3	0x3deaca79	0.114644
4	0xb1542428	-3.0870613e-09
5	0x3b3696d8	0.0027860906
6	0xbe04bec9	-0.12963404
7	0x358dda8e	1.0568926e-06
8	0xb27da2ab	-1.4763525e-08
9	0xbe1257e7	-0.14291345
10	0xb795f8ac	-1.7877981e-05
11	0xbe2b5efd	-0.16735454
12	0xae1007af	-3.2748634e-11
13	0x3686241b	3.9977144e-06
14	0x34fb8f76	4.6856775e-07
15	0x3e4d7c20	0.20066881
16	0xbddc2fd1	-0.10751308
17	0xb6d1fdfe	-6.258254e-06
18	0xbd6ec33f	-0.05829167
19	0x3da53053	0.08065858
20	0x3084888b	9.643072e-10
21	0xb74e6a0a	-1.2303246e-05
22	0xbdc67d36	-0.09691851
23	0x3e2623ea	0.16224638
24	0xbdf0888a	-0.11744793
25	0x3e3ce4a7	0.18446599
26	0xbd3703bc	-0.044681296
27	0x360049cd	1.9116444e-06
28	0xbe60a345	-0.21937282
29	0x34a20d3b	3.0184478e-07
30	0x3739fc11	1.1085548e-05
31	0x3e0befe8	0.13665736
32	0xb7906cfd	-1.721689e-05
33	0x3da20427	0.07910948
34	0xb508d661	-5.097591e-07
35	0xb96da0f1	-0.00022662037
36	0xb3fa0cc0	-1.16438514e-07
37	0x3591019f	1.0803814e-06
38	0xb9053045	-0.0001270185
39	0x316bfc0c	3.4340273e-09
40	0x3224c3a6	9.590542e-09
41	0xb28c85f3	-1.6359058e-08
42	0x38cda3b4	9.805654e-05
43	0x3e0a7a58	0.13523233
44	0xa25a4726	-2.9582175e-18
45	0x3e14c399	0.1452774
46	0xbe52d494	-0.20588905
47	0xbe221cd1	-0.15831305
48	0x3e028f7b	0.12750046
49	0xbdd816e8	-0.10551244
50	0x16bd9f31	3.063506e-25
51	0xbdad4e7e	-0.08462237
52	0x385c2d56	5.249431e-05
53	0xbe13bb67	-0.14426957
54	0xbe22770a	-0.15865722
55	0xb47edf1b	-2.3736759e-07
56	0x3e49815c	0.19678253
57	0x35707249	8.9573274e-07
58	0xb45c5d41	-2.0523022e-07
59	0xbdb49dc0	-0.08819151
