models/Nh64_BnDoEL_NoMeanStruct/checkpoint_best_kcv_mhc1_el_1M_structure_f02_BNDOextraLayer_Add_Mean_Structure_False_KFold_2_250114_1614_TxD85.pt (torch, 251763 bytes, 13 tensors)

in_layer.weight f4 [64, 911]
0	0x3d8dde07	0.06927114
1	0x3d021858	0.031761497
2	0xbc8f1a40	-0.017468572
3	0x3c901b81	0.01759124
4	0x3cdd2b7c	0.026998274
5	0x3c76c5e8	0.015061833
6	0x3d33beda	0.043883182
7	0x3d805296	0.06265752
8	0x3d233553	0.039845776
9	0xbd2c0097	-0.04199275
10	0x3b0bb22f	0.0021315922
11	0xbc126ecb	-0.008937548
12	0x3b662a61	0.0035120475
13	0x3af982eb	0.0019036209
14	0xbc58d4fa	-0.013234371
15	0xbcb703f5	-0.022340754
16	0x3cf77d1c	0.030211024
17	0x3d21bd18	0.039486974
18	0xbc9c2acb	-0.019063374
19	0x3d4d7ecf	0.050169762
20	0xbcc3d8cb	-0.023907086
21	0x3df51df5	0.119686045
22	0xbc48f73e	-0.012265978
23	0x3d7adab9	0.061243746
24	0x3cd3990d	0.025829816
25	0xbd977cab	-0.073968254
26	0x3db0bf17	0.086301975
27	0x3d1e6f24	0.03868021
28	0xbd41f575	-0.047353227
29	0xbc46c012	-0.012130754
30	0xbda28311	-0.07935155
31	0xbd993c39	-0.0748219
32	0x3b6cca51	0.0036131332
33	0x3d714cda	0.058911182
34	0xbb951ca4	-0.0045505334
35	0x3cc8f71e	0.024531897
36	0x3deb5ad6	0.11491935
37	0x3bef3fdc	0.007301314
38	0x3d11c038	0.035583705
39	0x3d5b5ea2	0.053557046
40	0xbc834187	-0.016022457
41	0xbd850ba6	-0.064963624
42	0x3d18c9b1	0.037301723
43	0x3caf1dc0	0.02137649
44	0x3cbace9f	0.022803603
45	0x3b088e1e	0.0020836662
46	0xbb6ba142	-0.0035954271
47	0x3caabd44	0.020842202
48	0x3d6c0930	0.05762595
49	0x3cc395f1	0.023875209
50	0x3b7b7fbe	0.00383757
51	0x3c540805	0.012941365
52	0xbc3067a0	-0.010766894
53	0x3d2426c5	0.040076036
54	0xbb48c583	-0.0030635304
55	0x3cb2d105	0.021828184
56	0x3d0ba340	0.034091234
57	0x3d76275b	0.060096126
58	0xbd2a4378	-0.04156825
59	0x3d04e742	0.032447107
60	0xbc26827a	-0.010162944
61	0x3cc4db11	0.02403024
62	0x3c841eda	0.016127992
63	0x3d21917d	0.03944539
64	0x3c20866d	0.009797675
65	0xbc4c8abf	-0.0124842515
66	0xbc6d9778	-0.014501445
67	0x3cbd4dd4	0.0231084
68	0xbd316f67	-0.043319132
69	0x3ce92869	0.028461652
70	0x3ca67d88	0.02032353
71	0x3cbba526	0.022905897
72	0x3bde8b3e	0.0067915013
73	0x3cbc8d72	0.023016665
74	0xbacf3cd8	-0.001581098
75	0x3cf37987	0.029721035
76	0xbc5b9d8f	-0.013404264
77	0x3d6272c0	0.055285215
78	0x3c80cf95	0.015723983
79	0xbcb7e938	-0.022450075
80	0x369ac18a	4.6120886e-06
81	0x3bd11b47	0.0063814255
82	0x3c9b9679	0.01899265
83	0xbb4e22af	-0.0031453779
84	0xbb8127fc	-0.003941534
85	0xbc4643c2	-0.012101116
86	0x3a1441cf	0.0005655558
87	0x3c4f8912	0.012666957
88	0xbc1c2bf9	-0.009531968
89	0x3c5d5f27	0.013511456
90	0x3d304ed5	0.04304393
91	0x3bf2e51a	0.007412565
92	0xba8d47ef	-0.0010778884
93	0x3bc814f6	0.0061060144
94	0x3ce0bd93	0.027434146
95	0x3c31c438	0.010850005
96	0xbcc09fa9	-0.023513632
97	0x3cdd4404	0.027009971
98	0xbcd0f571	-0.02550766
99	0x3c264c33	0.010150003
100	0x3d46b50f	0.048512515
101	0x3c91827d	0.017762417
102	0xbcea9ff0	-0.028640717
103	0x3c945695	0.018107692
104	0x3c0e1aa1	0.008673341
105	0xbcb15c88	-0.021650568
106	0x3cb4090d	0.021976972
107	0x3d116cfa	0.03550432
108	0x3a0cf4fb	0.0005377081
109	0x3cd85d67	0.026411725
110	0x3d0de78b	0.034644645
111	0x3c1cd7bf	0.009572922
112	0x3b744396	0.003727173
113	0x3cd58522	0.02606446
114	0x3ceb3446	0.02871145
115	0xbd182134	-0.03714104
116	0x3c3bf50d	0.011471999
117	0x3c93b45e	0.018030342
118	0xbca2a95e	-0.019856151
119	0x3ca6ee8f	0.020377425
120	0x3cfa9c8f	0.030592231
121	0x3d2391dd	0.039934028
122	0x3c49a30c	0.01230694
123	0x3d634300	0.055483818
124	0xbc4a1a13	-0.012335318
125	0xbce6916d	-0.028145516
126	0xbd435bff	-0.047695156
127	0xbc14de8c	-0.009086262
128	0xbc824f6a	-0.015907008
129	0x3c0d00c5	0.0086061405
130	0x3cce9e2c	0.025221907
131	0x3d54c9d9	0.05195031
132	0x3c991c80	0.018690348
133	0xbbe5c957	-0.007012527
134	0xbced3a16	-0.028958362
135	0x3b1a1e55	0.0023516614
136	0xbc1325a1	-0.008981139
137	0x3cfe3834	0.03103266
138	0x3bfe9e38	0.007770326
139	0x3bdb5384	0.0066933054
140	0x3c86c702	0.016452316
141	0x3ba49017	0.0050220597
142	0x3d651df4	0.05593677
143	0xbc9eff53	-0.019408857
144	0xbce08ebe	-0.027411815
145	0x3c9e3108	0.01931049
146	0xba8779e6	-0.0010336011
147	0x3cd47d6e	0.025938716
148	0x3ac7af52	0.0015234745
149	0xbd44bbb0	-0.048030555
150	0x3d880ac7	0.066426806
151	0x3baa65bc	0.005200116
152	0xbbb63a19	-0.005561125
153	0xbc3d9dda	-0.011573279
154	0xbd5c7d54	-0.05383046
155	0xbd41c172	-0.047303624
156	0xbbc460cb	-0.005992984
157	0x3b9afc8a	0.004729812
158	0x3c07f0f0	0.00829719
159	0x3b4511e3	0.0030070476
160	0xbd603394	-0.05473669
161	0xbbc1a9cf	-0.0059101353
162	0xbb630e7c	-0.0034646085
163	0xbd0e7f80	-0.034789562
164	0xbd50c282	-0.050966747
165	0xbcbeb138	-0.023277864
166	0xbd6ae86d	-0.057350565
167	0xbd110bda	-0.035411693
168	0xbd230928	-0.039803654
169	0xbc960945	-0.018314967
170	0xbd4cb59b	-0.04997788
171	0x3d23518f	0.039872702
172	0xbc39343b	-0.011303957
173	0xbd0198fb	-0.031640034
174	0xbce41e33	-0.027846431
175	0xbcb30bc4	-0.021856196
176	0xbd4d4212	-0.050111838
177	0x3bcd5d81	0.00626725
178	0x3d604339	0.05475161
179	0x3ccb3c62	0.024809066
180	0xbdf556e1	-0.119794615
181	0xbe0265de	-0.12734172
182	0xbde38def	-0.11111056
183	0xbdcb33be	-0.099219784
184	0xbe787c9d	-0.24266286
185	0xbe0ca5f7	-0.13735186
186	0xbde0ada4	-0.10970619
187	0xbdba5f36	-0.09100191
188	0xbdd0742a	-0.101784065
189	0xbe132d42	-0.14372733
190	0xbe2d1ddf	-0.16905926
191	0xbe1b80ad	-0.15185805
192	0xbe13c60f	-0.14431022
193	0xbe223af9	-0.15842809
194	0xbe17426e	-0.14771435
195	0xbdf3f96c	-0.11912808
196	0xbdd3e6f7	-0.103467874
197	0xbe53037c	-0.20606798
198	0xbe1fe9f8	-0.15616596
199	0xbde5b5dd	-0.11216328
200	0xbf065af6	-0.52482545
201	0xbef84978	-0.48493552
202	0xbf189ec6	-0.5961727
203	0xbf10e22e	-0.5659512
204	0xbf13c408	-0.57720995
205	0xbf07c1c6	-0.5303005
206	0xbf0d8fc2	-0.5529748
207	0xbef3647e	-0.47537607
208	0xbee32632	-0.44365078
209	0xbf00c203	-0.5029604
210	0xbebf02b2	-0.37306744
211	0xbeef3251	-0.46718076
212	0xbeebe425	-0.46072498
213	0xbe095fd0	-0.13415456
214	0xbf0aa466	-0.541571
215	0xbf11c044	-0.56934
216	0xbefccadb	-0.49373516
217	0xbccc8a73	-0.024968361
218	0xbcef7ac2	-0.02923334
219	0xbee9d59c	-0.45670784
220	0xbe5efe40	-0.21776676
221	0xbbadc71e	-0.0053032776
222	0xbf0da1b3	-0.5532486
223	0xbcaf716f	-0.021416394
224	0xbb4f3d2b	-0.0031622152
225	0xbf13a3d9	-0.57671887
226	0x3ebc0e21	0.3672953
227	0x3e032ffa	0.1281127
228	0x3cb3409c	0.021881394
229	0xbe1fe0ab	-0.15613048
230	0xbe8c65d1	-0.2742143
231	0x3c03be18	0.008040927
232	0x3c19f134	0.009395886
233	0xba24f45c	-0.0006292516
234	0xbc9ba9a4	-0.01900179
235	0xbb2faaa2	-0.0026804586
236	0xbc0b8010	-0.008514419
237	0xbc21d3a9	-0.009877124
238	0xbc94285b	-0.01808565
239	0xbc8dcc8b	-0.017309448
240	0xbc7558eb	-0.014974813
241	0x3c605815	0.013692875
242	0xbcdb447d	-0.026766056
243	0xbd0112cd	-0.03151207
244	0x3cd4b4af	0.025965063
245	0x3c27a722	0.010232719
246	0x3ca05070	0.019569606
247	0x3c809894	0.015697755
248	0xbc63740b	-0.013882647
249	0xbccdd4d4	-0.025125898
250	0xbcb3ca22	-0.02194697
251	0xbcb2c5b1	-0.021822782
252	0x3adc92a5	0.0016828371
253	0xbce1360b	-0.02749159
254	0xbca71a6c	-0.020398341
255	0x3c8c7f8e	0.017150667

in_layer.bias f4 [64]
0	0xbce79616	-0.028269809
1	0xbcfc8944	-0.030827172
2	0xbc02dfdd	-0.0079879435
3	0x3d0051fd	0.03132819
4	0xbc6d1e85	-0.014472608
5	0xbc9b3a3d	-0.018948669
6	0x3cd89017	0.026435895
7	0x3bf4821a	0.0074617984
8	0x3c343e66	0.011001205
9	0x3bc61844	0.006045373
10	0x3c874371	0.01651165
11	0x3c7ae277	0.0153127825
12	0x3c9330dc	0.017967634
13	0x3cf89574	0.030344702
14	0x3cca3eac	0.024688087
15	0x3c3c807f	0.011505245
16	0xbcbb0f6c	-0.022834502
17	0x39938298	0.00028135325
18	0x3c927370	0.01787731
19	0x3c84d9e4	0.01621718
20	0xbcff7907	-0.03118564
21	0xbbb29246	-0.005449566
22	0xbb1bbf0e	-0.0023765
23	0xbc593601	-0.013257504
24	0xbcec918e	-0.028878
25	0xbbd08056	-0.006362955
26	0xbc84a915	-0.016193906
27	0x3cda9f02	0.026687149
28	0xbba3767d	-0.00498849
29	0x3cdc8444	0.026918538
30	0xbb162ea2	-0.002291598
31	0xbba7c0f9	-0.0051194397
32	0x3a56ae3d	0.00081894157
33	0xbcca5944	-0.024700768
34	0xbc19d4af	-0.009389087
35	0xbcfb5d71	-0.030684205
36	0x3c36de62	0.011161419
37	0x3c9f7b47	0.019467963
38	0xbc13ca37	-0.00902038
39	0xbdbecd1b	-0.093164645
40	0x3c940682	0.01806951
41	0x3c459eb5	0.0120617645
42	0xba4be488	-0.0007777889
43	0xbc2f22d1	-0.010689453
44	0xbcb020f8	-0.021500096
45	0x3cd1eebf	0.025626538
46	0xbcc1989a	-0.023632336
47	0x3cf74853	0.030185854
48	0x3cc53954	0.024075188
49	0x3cf6221d	0.030045563
50	0xbcf0f160	-0.029411972
51	0xbbea5785	-0.0071515464
52	0x3cabaa8c	0.020955347
53	0x3c3bf1d4	0.011471231
54	0x3ccfbd0e	0.025358703
55	0x3c777326	0.015103137
56	0xbc92ccb3	-0.017919874
57	0x3cff54af	0.03116831
58	0x3cdd90d8	0.027046606
59	0xba10fbe2	-0.00055306975
60	0x3bf6eca2	0.007535533
61	0x3c3be68d	0.011468542
62	0x3cb534cd	0.022119904
63	0x3c9100af	0.017700521

hidden_layer.weight f4 [32, 64]
0	0xbd75c473	-0.0600018
1	0x3dbd8889	0.09254558
2	0x3d44aebb	0.0480182
3	0x3e01aa14	0.12662536
4	0x3d8e722b	0.069553696
5	0xbcb0d976	-0.021588068
6	0x3caf978e	0.021434572
7	0x3d06c09b	0.032898527
8	0x3da1cda0	0.07900548
9	0x3d52698d	0.051370192
10	0x3d81b9e8	0.06334287
11	0xbd447d1a	-0.04797087
12	0xbd417f9e	-0.047240846
13	0xbd2c6f58	-0.042098373
14	0xbd1c26e1	-0.038123015
15	0xbe148376	-0.14503273
16	0xbd886ccb	-0.066613756
17	0xbdbb11ad	-0.09134231
18	0x3d98740c	0.07444009
19	0x3d6acab9	0.057322238
20	0x3dc74cd7	0.09731453
21	0x3d9c2cb1	0.07625712
22	0xbde1ab57	-0.110190086
23	0xbde87947	-0.11351257
24	0x3d5be390	0.053683817
25	0x3de083c5	0.10962633
26	0xbdd95d8c	-0.10613546
27	0x3db0ae42	0.08626987
28	0xbd86af47	-0.065764
29	0xbcbaf4e8	-0.022821859
30	0x3d8b8552	0.06812538
31	0x3d2a65f3	0.041601133
32	0x3ca4a0e3	0.020096248
33	0xbdb93ae9	-0.09044439
34	0xbd0a1b31	-0.033717338
35	0xbdb5b321	-0.08872057
36	0x3e08c508	0.13356411
37	0xbd31c681	-0.0434022
38	0x3d27d272	0.04097218
39	0xbe33b8d6	-0.17550978
40	0x3dc7e663	0.0976074
41	0xbc727a24	-0.014799628
42	0x3db41aea	0.08794196
43	0x3dc03a64	0.09386137
44	0x3d3b11b2	0.045671172
45	0x3d6f7c0e	0.058467917
46	0xbd1941a2	-0.037416108
47	0x3de3bf44	0.111204654
48	0x3dda0afb	0.106466256
49	0x3d6e179a	0.058127977
50	0xbe3b6966	-0.18301925
51	0x3da2d8a2	0.07951476
52	0xbdc711c2	-0.09720184
53	0x3d374b2d	0.044749428
54	0xbce646b3	-0.028109884
55	0x3e1ca66f	0.15297864
56	0xbdd2e51b	-0.10297605
57	0xbd2c3b24	-0.04204859
58	0xbd8c6466	-0.06855087
59	0x3bd36a8e	0.0064519113
60	0xbdaa1250	-0.08304274
61	0x3cb5892f	0.02216014
62	0xbd64fbce	-0.055904202
63	0xbcae1771	-0.021251412
64	0x3dc7e89a	0.09761162
65	0xbdb0ab25	-0.08626393
66	0xbdde9866	-0.108689114
67	0xbdac51e5	-0.08414058
68	0xbda10a52	-0.078632966
69	0xbd3deb6c	-0.046367094
70	0xbc3123ad	-0.010811728
71	0xbcbdce78	-0.023169741
72	0x3c8b1550	0.016977936
73	0xbdb87ac2	-0.09007789
74	0xbd733893	-0.059380125
75	0x3d08adcd	0.033368874
76	0x3d98fa63	0.074696325
77	0x3d9056b3	0.070477866
78	0x3d9ac777	0.07557576
79	0x3dafc26c	0.08582005
80	0x3db68de4	0.08913782
81	0x3dc8809c	0.09790155
82	0xbd482b10	-0.048869193
83	0xbde51d54	-0.111872345
84	0xbd43b71c	-0.04778205
85	0xbd30373d	-0.04302143
86	0x3be277cd	0.006911254
87	0x3d6e5aa1	0.0581919
88	0xbd8bf955	-0.06834666
89	0xbce7b05a	-0.028282333
90	0x3d94b893	0.07261767
91	0xbd1819e4	-0.037134066
92	0x3d40ea10	0.04709822
93	0x3d670525	0.05640139
94	0xbdb14574	-0.08655825
95	0xbdb3051b	-0.08741208
96	0xbd0b6fb6	-0.034042083
97	0x3d596b62	0.053080924
98	0x3d0541aa	0.032533325
99	0x3d7c32fc	0.06157206
100	0xbd9fd541	-0.07804347
101	0x3de98c3b	0.114037
102	0xbd4e7728	-0.050406605
103	0xbaa8ee1a	-0.0012888343
104	0xbd738f28	-0.059462696
105	0xbd2f7c56	-0.042843185
106	0xbd113d85	-0.03545906
107	0x3cc469a1	0.023976149
108	0xbd257bea	-0.040401377
109	0xbd96c25d	-0.073612906
110	0x3db8ef9e	0.09030078
111	0xbd5d4bff	-0.054027554
112	0xbd491c18	-0.049099058
113	0xbd31c762	-0.043403037
114	0x3de81235	0.11331598
115	0xbcc545c1	-0.024081113
116	0x3da3102c	0.07962069
117	0xbcb1b3ff	-0.021692274
118	0x3d09bf98	0.033629984
119	0xbdec6d15	-0.11544243
120	0x3c9d0378	0.019166693
121	0x3dbe0906	0.09279065
122	0x3d7dc46c	0.0619549
123	0xbd913ce2	-0.070916906
124	0x3d8501c8	0.0649448
125	0xbd889c7c	-0.06670472
126	0x3de0a72b	0.10969385
127	0x3d457d26	0.048215054
128	0xbda67d21	-0.08129335
129	0x3cc5b2bc	0.024133079
130	0xbcccfd6c	-0.025023185
131	0x3d96838d	0.0734931
132	0x3df30fc1	0.11868239
133	0x3d95b0cd	0.07309113
134	0xbd0d1288	-0.0344415
135	0x3dd184a8	0.1023038
136	0x3dc804b4	0.09766522
137	0x3dc72662	0.09724118
138	0x3e0287cb	0.12747113
139	0xbded8887	-0.11598306
140	0xbd614a02	-0.05500222
141	0xbdd21f6d	-0.102599
142	0xbda2386e	-0.07920919
143	0xbe09b85f	-0.13449238
144	0xbdb3c833	-0.08778419
145	0xbdc981ac	-0.09839186
146	0xbc0093ed	-0.007847768
147	0x3d13ad1b	0.036053758
148	0x3d1b7e70	0.037962377
149	0x3de41fb5	0.1113886
150	0xbdcb805f	-0.09936594
151	0xbe00d8fb	-0.12582771
152	0x3cd3a186	0.025833856
153	0xbacac21d	-0.0015469227
154	0xbda49b2b	-0.080374084
155	0x3de3c92b	0.11122354
156	0xbe0f4e2d	-0.13994665
157	0xbce6b671	-0.028163167
158	0x3d30a6f9	0.043127988
159	0x3e10a063	0.14123683
160	0x3dd35cac	0.1032041
161	0xbdb048ed	-0.086076595
162	0xbda629fe	-0.08113478
163	0xbd8fb0d5	-0.0701615
164	0x3daea6f5	0.08527938
165	0xbd2da0b1	-0.042389575
166	0x3dcdf2b4	0.100560576
167	0xbd9cb78c	-0.07652196
168	0xbb799696	-0.003808414
169	0x3d98397f	0.074328415
170	0x3da38237	0.07983821
171	0x3d0b7233	0.034044456
172	0xbc5020ad	-0.012703103
173	0x3e1a7604	0.15084082
174	0xbd99af8c	-0.07504186
175	0x3dddaefb	0.108243905
176	0x3dd29de0	0.102840185
177	0x3d6dc240	0.05804658
178	0xbcc7c4f0	-0.0243859
179	0xbba20bf4	-0.0049452726
180	0xbdb55420	-0.08853936
181	0xbd37a1cb	-0.044832032
182	0xbd5d45c8	-0.054021627
183	0x3e05863a	0.13039485
184	0xbd8441c4	-0.06457856
185	0xbd5296cd	-0.051413346
186	0xbd05feae	-0.032713585
187	0x3d95fefb	0.07324024
188	0xbda5ca18	-0.08095187
189	0xbbc4df00	-0.006008029
190	0xbda612a8	-0.08109027
191	0xbd909a58	-0.07060689
192	0x3cd53c14	0.026029624
193	0xbda7bbd8	-0.08190125
194	0xbca85bf8	-0.020551667
195	0xbe0b178d	-0.13583203
196	0xbc7a4637	-0.01527553
197	0xbd90b5be	-0.070659146
198	0xbd0e4f92	-0.034743853
199	0xbb437b4e	-0.0029828134
200	0xbc8f2672	-0.017474387
201	0xbda92dff	-0.08260726
202	0xbda0a6e3	-0.07844331
203	0x3d1f75a6	0.038930558
204	0x3daae540	0.08344507
205	0x3d889fc1	0.06671096
206	0x3de117ac	0.10990843
207	0x3dfd5dc6	0.123714015
208	0x3df02dd3	0.1172749
209	0x3dff6e58	0.12472218
210	0xbd7af97c	-0.061273083
211	0xbdd5eeb2	-0.10445918
212	0xbce5cfd8	-0.02805321
213	0xbc43b6a2	-0.0119453985
214	0x3d4fc98f	0.05072933
215	0x3dc2aef2	0.095060244
216	0xbd2c9206	-0.042131446
217	0xbd7de873	-0.06198926
218	0x3dc13824	0.09434536
219	0xbdab7b96	-0.083731815
220	0x3dc91649	0.09818704
221	0x3db4ca9e	0.08827709
222	0xbda9b66a	-0.08286746
223	0xbdc565f7	-0.09638589
224	0xbd624413	-0.055240702
225	0x3bdb6ab1	0.006696068
226	0xbbe90cc7	-0.007112119
227	0x3d2b2eab	0.041792553
228	0xbd581fe4	-0.05276479
229	0x3dbd4e2b	0.09243425
230	0xbd9da676	-0.076977655
231	0x3c7692a3	0.015049609
232	0xbd14ef82	-0.036361225
233	0xbdae4c68	-0.08510667
234	0xbdb57e9d	-0.0886204
235	0x3d181626	0.037130497
236	0xbdde0ddf	-0.108424895
237	0xbd9ef584	-0.07761672
238	0x3dce51f5	0.10074226
239	0xbd8e8946	-0.069597766
240	0xbd21c474	-0.039493993
241	0xbcd6672f	-0.026172249
242	0x3d12f5aa	0.035878815
243	0x3c7d8ada	0.015474999
244	0x3dead35d	0.114660956
245	0xbcdcca43	-0.026951915
246	0x38e86afd	0.0001108255
247	0xbdc26bb9	-0.09493203
248	0x3d31298d	0.043252517
249	0x3ddfa89e	0.10920833
250	0x3d9afa0f	0.07567226
251	0xbd27d6ed	-0.040976454
252	0x3da7b05d	0.081879355
253	0xbcf070a8	-0.029350594
254	0x3c80de1e	0.015730914
255	0x3b840e07	0.0040299925

hidden_layer.bias f4 [32]
0	0x3dc6c942	0.09706356
1	0xbd9d130c	-0.076696485
2	0x3d935bd7	0.071952514
3	0x3d1b196d	0.037866045
4	0x3ddeedfc	0.10885236
5	0x3de59ff9	0.11212153
6	0xbdc71f80	-0.09722805
7	0x3d8c8fb0	0.06863344
8	0x3e0cf06f	0.13763593
9	0xbd7fbbe1	-0.062435035
10	0xbdbb1e75	-0.091366686
11	0x3cee0c41	0.029058577
12	0x3df18de6	0.11794643
13	0xbc8eaa4a	-0.017415185
14	0xbdbd738f	-0.09250557
15	0xbdb27a6a	-0.08714755
16	0xbde29e3e	-0.110653386
17	0xbbc0abb0	-0.0058798417
18	0xbd936a6d	-0.071980335
19	0xbd309266	-0.043108366
20	0xbd8a8d85	-0.06765274
21	0xbdb141b3	-0.08655109
22	0xbda8105e	-0.08206247
23	0x3caaef7d	0.02086615
24	0xbdab8c62	-0.08376385
25	0x3d251f74	0.0403132
26	0x3c1c0102	0.009521725
27	0x3d10fcd8	0.03539738
28	0x3e1981cc	0.1499092
29	0x3da645aa	0.08118756
30	0x3d26b615	0.04070099
31	0xbd4dd738	-0.050254077

bnh.weight f4 [32]
0	0x3ff2baeb	1.8963293
1	0x3fb4131d	1.4068333
2	0x3fee384c	1.861093
3	0x3fb4df13	1.4130577
4	0x3ffa8f74	1.9575028
5	0x3ff8395a	1.9392502
6	0x3ff77f52	1.933573
7	0x3ff2f1b6	1.8980014
8	0x3ff95da8	1.9481707
9	0x3face0ca	1.35061
10	0x3fad7531	1.3551389
11	0x3fea1237	1.8286809
12	0x3fb066e5	1.3781401
13	0x3ff8b19a	1.94292
14	0x3ff0a777	1.8801106
15	0x3ffa2006	1.9541023
16	0x3fa5a3d0	1.2940617
17	0x3fae6acc	1.3626342
18	0x3ffbea29	1.9680835
19	0x3ff63372	1.923445
20	0x3ff084b7	1.8790501
21	0x3fb1ee9c	1.3900943
22	0x3ff5ed54	1.9213052
23	0x3ff39cf5	1.9032274
24	0x3fbe4869	1.4865848
25	0x3ffc0058	1.9687605
26	0x3fb087f3	1.3791488
27	0x3ff7d329	1.9361316
28	0x3ff4c955	1.9123942
29	0x3ff3b1d9	1.903865
30	0x3fa8f8d2	1.3200934
31	0x40052584	2.0804148

bnh.bias f4 [32]
0	0x3ecde7d5	0.40215936
1	0xbe902f63	-0.28161153
2	0x3e973a80	0.2953682
3	0xbe87f1c0	-0.26551628
4	0x3e9132ef	0.28359172
5	0x3ec0b913	0.376412
6	0x3eabad79	0.33530787
7	0x3e930c83	0.28720483
8	0x3e9db3e6	0.30801314
9	0xbe8ea2be	-0.27858537
10	0xbe89b91d	-0.26899043
11	0x3ea1436a	0.31496745
12	0xbe87aa28	-0.26497006
13	0x3e8ab9d3	0.27094898
14	0x3e9062a3	0.28200254
15	0x3e9dbc7d	0.30807868
16	0xbe8e8377	-0.27834675
17	0xbe823f9f	-0.25439164
18	0x3e8ceb59	0.27523306
19	0x3e9a8a9e	0.30183882
20	0x3e965304	0.2936021
21	0xbe87f37e	-0.26552957
22	0x3ea39d65	0.3195602
23	0x3ea2e110	0.31812334
24	0xbe85045a	-0.25979882
25	0x3e99a9ec	0.30012453
26	0xbe8ced2d	-0.275247
27	0x3e98c3ee	0.29836982
28	0x3e8c8ed1	0.2745271
29	0x3ea248d9	0.31696203
30	0xbe925c36	-0.28585976
31	0x3e33c149	0.17554201

bnh.running_mean f4 [32]
0	0x3e718c82	0.23588756
1	0xbe550c19	-0.20805396
2	0x3e2a7493	0.16646032
3	0xbdc5dc00	-0.09661102
4	0x3e3be423	0.18348746
5	0x3e5da41b	0.21644633
6	0xbaf2b970	-0.00185184
7	0x3e201804	0.15634161
8	0x3e5ae9d3	0.2137826
9	0xbe5307d4	-0.20608455
10	0xbe77ca4c	-0.24198264
11	0x3e014206	0.12622842
12	0xbd0a9ddd	-0.033841956
13	0x3d84d957	0.06486767
14	0x3be4ce8a	0.006982629
15	0x37c2ad4e	2.3207303e-05
16	0xbe84a3f8	-0.25906348
17	0xbe05d5f3	-0.13069896
18	0xbbe658d9	-0.0070296344
19	0x3d5f2d00	0.054486275
20	0x3c37c243	0.011215749
21	0xbe5f59ad	-0.21811552
22	0x3ca8cf27	0.02060659
23	0x3dfb9528	0.12284309
24	0xbe5ddff3	-0.21667461
25	0x3ded4799	0.11585922
26	0xbe045776	-0.12923989
27	0x3dcf6c35	0.10128061
28	0x3e5e9656	0.21737036
29	0x3e2d06e6	0.16897163
30	0xbe020ff5	-0.127014
31	0xbceb7630	-0.02874288

bnh.running_var f4 [32]
0	0x3f3361c9	0.70071083
1	0x3e8c0f66	0.27355498
2	0x3f34c854	0.70618176
3	0x3e9c74c6	0.3055784
4	0x3f0e456e	0.5557469
5	0x3f20a516	0.627519
6	0x3f1b6361	0.60698515
7	0x3f1dc45b	0.6162774
8	0x3ed5fc93	0.4179426
9	0x3e9ae7c4	0.30254948
10	0x3ec92dcb	0.3929275
11	0x3f2c775d	0.67369634
12	0x3ea5d2ad	0.32387295
13	0x3f32aca5	0.69794685
14	0x3f44af31	0.7682982
15	0x3f338766	0.70128477
16	0x3eb9ed36	0.3631379
17	0x3e95fa28	0.29292417
18	0x3f13294b	0.57484883
19	0x3f050607	0.5196232
20	0x3ee2f810	0.44329882
21	0x3e8007ec	0.25006044
22	0x3f41bdc0	0.7568016
23	0x3f120977	0.5704569
24	0x3ea2f2ad	0.31825772
25	0x3f10bd72	0.5653907
26	0x3eb444f6	0.35208863
27	0x3f11d1aa	0.56960547
28	0x3ef255af	0.47330996
29	0x3f07f4df	0.5310802
30	0x3eb4c235	0.35304418
31	0x3e9d7d5d	0.30759707

out_layer.weight f4 [1, 32]
0	0xbf6c541b	-0.92315835
1	0x3f57d8ae	0.84315
2	0xbf67db3e	-0.9056891
3	0x3f4fbefb	0.8115079
4	0xbf85506f	-1.0415171
5	0xbf5d72ac	-0.865031
6	0xbf619559	-0.8811851
7	0xbf74c5ec	-0.95614505
8	0xbf79f524	-0.9763968
9	0x3f39e53b	0.726154
10	0x3f5b9691	0.8577662
11	0xbf69e56e	-0.91365707
12	0x3f1c3f41	0.6103402
13	0xbf88b019	-1.0678741
14	0xbf80f805	-1.007569
15	0xbf62db70	-0.88616085
16	0x3f0e8d09	0.5568395
17	0x3f3ada3d	0.72989255
18	0xbf78fccf	-0.97260755
19	0xbf7c03cc	-0.98443294
20	0xbf7be3ac	-0.98394275
21	0x3f37bf2d	0.71776086
22	0xbf8b048d	-1.0860764
23	0xbf7c52e3	-0.98563975
24	0x3f851c56	1.0399272
25	0xbf7d9408	-0.99054
26	0x3f534601	0.8252869
27	0xbf5b21c1	-0.8559838
28	0xbf847ccd	-1.0350586
29	0xbf6b9b68	-0.92034006
30	0x3f467998	0.7752929
31	0xbf39e6d1	-0.7261782

bn1.weight f4 [64]
0	0x3f76fc82	0.96479046
1	0x3f75e6be	0.9605521
2	0x3f807f93	1.0038933
3	0x3f832f40	1.0248795
4	0x3f6df0ab	0.92945355
5	0x3f7afe77	0.9804453
6	0x3f79ff2a	0.97654974
7	0x3f809bd1	1.0047551
8	0x3f7785cb	0.96688527
9	0x3f82004f	1.0156344
10	0x3f7b4828	0.98156977
11	0x3f7dbd9a	0.99117434
12	0x3f726402	0.9468385
13	0x3f64d6e7	0.89390415
14	0x3f604fe2	0.8762189
15	0x3f862bd4	1.0482125
16	0x3f7307b5	0.94933635
17	0x3f7a98b6	0.9788927
18	0x3f84b769	1.0368472
19	0x3f72f1eb	0.9490039
20	0x3f7f1f09	0.9965673
21	0x3f72d945	0.94862777
22	0x3f813104	1.0093083
23	0x3f83148c	1.0240645
24	0x3f6d6942	0.92738736
25	0x3f733b7c	0.9501264
26	0x3f8ad05d	1.0844837
27	0x3f6fc184	0.93654656
28	0x3f8727c7	1.0559014
29	0x3f6a52e5	0.91532737
30	0x3f77b8b3	0.96766204
31	0x3f78ea65	0.9723266
32	0x3f6d492d	0.9268978
33	0x3f783999	0.9696289
34	0x3f62bf1a	0.8857285
35	0x3f7d7bb2	0.9901687
36	0x3f81477e	1.0099943
37	0x3f729be4	0.9476912
38	0x3f8214dd	1.0162617
39	0x3f8f7dd3	1.1210274
40	0x3f6dd13a	0.9289738
41	0x3f7ecb06	0.9952854
42	0x3f797103	0.9743807
43	0x3f68efb3	0.9099075
44	0x3f767450	0.9627123
45	0x3f827633	1.0192322
46	0x3f72a227	0.94778675
47	0x3f7eb356	0.99492395
48	0x3f724b77	0.946464
49	0x3f797621	0.97445875
50	0x3f8cb8f0	1.0993938
51	0x3f6e96dd	0.9319895
52	0x3f775c8f	0.9662561
53	0x3f7991db	0.9748818
54	0x3f7da692	0.9908229
55	0x3f816fbb	1.0112222
56	0x3f73f64a	0.9529768
57	0x3f6e37b7	0.93053764
58	0x3f78ad85	0.9713977
59	0x3f7e8cb1	0.9943343
60	0x3f8648c3	1.0490955
61	0x3f76dc71	0.96430117
62	0x3f736131	0.9507018
63	0x3f4fce7a	0.81174433

bn1.bias f4 [64]
0	0xbe483d85	-0.19554718
1	0xbda1431e	-0.0787413
2	0xbd765588	-0.060140163
3	0xbd02d7ad	-0.031943966
4	0xbdf0fb05	-0.11766628
5	0xbd69272e	-0.05692213
6	0xbd34f801	-0.044181827
7	0xbdb17d77	-0.08666509
8	0xbd68f4bc	-0.056874022
9	0xbddeaef6	-0.10873215
10	0xbd89f632	-0.06736411
11	0xbe69c48c	-0.22828883
12	0xbe84bb79	-0.2592428
13	0xbe8834b8	-0.2660272
14	0xbe8abe65	-0.27098384
15	0xbe657b45	-0.22410305
16	0xbe80a29e	-0.25124067
17	0xbe3f1194	-0.1865905
18	0xbd5de1c8	-0.0541704
19	0xbd71c83a	-0.05902884
20	0xbd94e025	-0.07269315
21	0xbd7ef888	-0.062248737
22	0xbe386f02	-0.18011096
23	0xbe390ade	-0.18070552
24	0xbddea6ee	-0.10871683
25	0xbda68510	-0.081308484
26	0xbdaecec2	-0.0853553
27	0xbdbd3066	-0.09237747
28	0xbe1487df	-0.14504956
29	0xbe8c3d39	-0.2739046
30	0xbdb51e6c	-0.08843693
31	0xbdebddbb	-0.11516901
32	0xbde27fba	-0.11059518
33	0xbe357068	-0.17718661
34	0xbe828162	-0.25489336
35	0xbe555fdb	-0.20837347
36	0xbda846aa	-0.08216603
37	0xbe658d8e	-0.2241728
38	0xbd180235	-0.03711148
39	0x3ae6831c	0.0017586681
40	0xbdb01bf0	-0.08599079
41	0xbd685f79	-0.056731675
42	0xbd35b92f	-0.044366058
43	0xbdd62353	-0.10455956
44	0xbde13c5a	-0.10997839
45	0xbd036300	-0.032076836
46	0xbe63b6b9	-0.22237672
47	0xbdd44835	-0.10365335
48	0xbdcbb6e2	-0.099469915
49	0xbd612de6	-0.054975413
50	0xbcf43a6e	-0.029813018
51	0xbdc50673	-0.09620371
52	0xbe43ee40	-0.19133854
53	0xbd52826d	-0.051393915
54	0xbe55e6f7	-0.20888887
55	0xbd835e04	-0.064144164
56	0xbe53d8e9	-0.20688213
57	0xbe7df93d	-0.24802108
58	0xbe46793f	-0.19382189
59	0xbd25f6f7	-0.040518727
60	0xbe1c4b42	-0.15263084
61	0xbc56e964	-0.013117168
62	0xbe6a9f62	-0.22912362
63	0xbeaf5403	-0.34243783

bn1.running_mean f4 [64]
0	0xbe81ecd6	-0.25376004
1	0xbf1d4b35	-0.6144288
2	0x40487da0	3.1326675
3	0xbf043bcf	-0.5165376
4	0xbe205b1f	-0.1565976
5	0x3ea6d3ca	0.32583457
6	0x3ffc95ec	1.9733253
7	0xbeedd7b8	-0.46453643
8	0xbe9abf76	-0.30224198
9	0x3f54d0bd	0.8313101
10	0xbf885dac	-1.0653586
11	0xc0825f42	-4.074128
12	0xbf4c37cb	-0.79772633
13	0xbfb56b88	-1.4173441
14	0x403b0a49	2.9225028
15	0xc10b66db	-8.712611
16	0xc07430c7	-3.8154771
17	0x4058a1e2	3.3848805
18	0xbf3dd367	-0.741507
19	0xbfa65c5d	-1.2996937
20	0xbe88e3b7	-0.26736233
21	0xbf0dbaa2	-0.55362904
22	0x3e159d1f	0.14610718
23	0xbda2e878	-0.07954496
24	0x3f40d740	0.75328445
25	0x3f06f1fe	0.52713
26	0xc0e3e36b	-7.121511
27	0x3eaea93d	0.34113494
28	0xc0863408	-4.1938515
29	0x3fdbe0fb	1.7178034
30	0x3ef533e9	0.47891167
31	0xbdab2256	-0.083561584
32	0x404e5383	3.2238472
33	0x40247c2f	2.5700796
34	0xbeae57e0	-0.34051418
35	0x4036d652	2.856831
36	0xbe9ba419	-0.30398634
37	0x3fad82ef	1.3555583
38	0x404da0da	3.2129426
39	0xc22470b7	-41.110073
40	0x3f599dab	0.8500621
41	0xbeabe11c	-0.33570182
42	0xc00734fb	-2.1126087
43	0xc0110a33	-2.2662475
44	0x403602f9	2.8439314
45	0x40496057	3.146505
46	0x4076e525	3.8577359
47	0xbf869371	-1.0513746
48	0xbfcd1439	-1.6021796
49	0x3e7d0461	0.24708702
50	0xc109e27b	-8.617793
51	0xbed6dbc1	-0.41964534
52	0x4096832b	4.7035117
53	0x3ed0def6	0.40795106
54	0xbe98c24f	-0.29835746
55	0x4092652b	4.5748496
56	0xc0588035	-3.3828251
57	0x40602177	3.5020425
58	0x40a1f625	5.061297
59	0x3fe28885	1.7697912
60	0x4033eb23	2.8112266
61	0x4069dc5b	3.6540744
62	0x3f8ecaa7	1.1155595
63	0xbf907edf	-1.1288718

bn1.running_var f4 [64]
0	0x40d802d1	6.750344
1	0x407715b0	3.8606987
2	0x40b15f0c	5.5428524
3	0x40634488	3.5510578
4	0x40385748	2.8803272
5	0x401e1f4e	2.4706607
6	0x400ec3ff	2.2307127
7	0x40264748	2.5981007
8	0x3fd4e28c	1.6631637
9	0x405e23bf	3.4709318
10	0x4015ddc2	2.34166
11	0x40c3877a	6.1102877
12	0x40c85314	6.2601414
13	0x40a9237a	5.2855806
14	0x40f0315e	7.5060263
15	0x40b80ea7	5.7517886
16	0x40d9407b	6.789121
17	0x4126e81c	10.431667
18	0x40022ddd	2.0340493
19	0x40fb0673	7.8445373
20	0x40087661	2.1322253
21	0x407349d6	3.8013816
22	0x40d9fd94	6.8122044
23	0x40d4cfe1	6.650376
24	0x400308b5	2.0474064
25	0x4024f215	2.5772755
26	0x40e0dba8	7.0268135
27	0x4042503a	3.0361466
28	0x40d50059	6.6562924
29	0x407885b9	3.8831618
30	0x405957de	3.395988
31	0x408139b3	4.0382934
32	0x40178222	2.3673177
33	0x4101fdc1	8.124452
34	0x40b11c0b	5.534673
35	0x410949e5	8.580541
36	0x40ee0839	7.4385037
37	0x40f6b21e	7.709243
38	0x408e47ee	4.4462805
39	0x413d5dd7	11.83541
40	0x4045ce39	3.0907118
41	0x408db602	4.4284678
42	0x4091e137	4.558742
43	0x3ffc48c2	1.9709704
44	0x4082d063	4.087938
45	0x404fc9f5	3.2467015
46	0x4125d1c7	10.363715
47	0x401e1d0c	2.4705229
48	0x4042732c	3.0382795
49	0x4009c35b	2.1525486
50	0x4023e23e	2.5606837
51	0x403604e6	2.844049
52	0x4137fc11	11.49904
53	0x3fe0dc39	1.7567207
54	0x409fea56	4.9973555
55	0x40983b8a	4.757268
56	0x410864d4	8.524616
57	0x411dff25	9.874791
58	0x416a57f2	14.646471
59	0x40757e47	3.8358324
60	0x40f15813	7.5420012
61	0x4090006d	4.500052
62	0x41214e63	10.081637
63	0x40a02f96	5.005809
